models/init/GAT.pt (torch, 148131 bytes, 19 tensors)

gats.gnn_layers.0.gat_conv.attn_l f4 [1, 4, 16]
0	0xbd92e762	-0.07173039
1	0x3d416d30	0.04722327
2	0xbd3114dc	-0.043232784
3	0x3e44a0de	0.19201991
4	0xbde552b8	-0.11197418
5	0xbb1ddc90	-0.0024087764
6	0xbc631c3b	-0.013861711
7	0xbe86ad0d	-0.26303902
8	0xbd8f4703	-0.06995966
9	0x3e2356cc	0.15951079
10	0x3dd64d24	0.10463932
11	0x3de230f9	0.11044497
12	0x3e25eec6	0.16204366
13	0xbe114921	-0.14188053
14	0xbb8e43db	-0.004341585
15	0x3e6d5aac	0.2317912
16	0xbb8864bc	-0.004162399
17	0xbe906c05	-0.28207412
18	0xbe234e48	-0.1594783
19	0xbe675aad	-0.22593184
20	0x3e0e150b	0.13875215
21	0x3e8310af	0.25598666
22	0xbe0555c0	-0.13020992
23	0xbd5143f1	-0.051090185
24	0xbeb90ae8	-0.36141133
25	0x3e00b12e	0.12567589
26	0xbe50ed84	-0.20403105
27	0xbe490e06	-0.19634256
28	0x3dc87b8a	0.09789188
29	0xbe67ba6e	-0.22629711
30	0x3e6b12bd	0.22956367
31	0xbda7d4e8	-0.081949055
32	0xbe62168b	-0.22078912
33	0xbe4c5ddd	-0.19957681
34	0x3dff107f	0.12454318
35	0x3d3f561f	0.04671299
36	0x3e98272b	0.29717383
37	0xbd52dfdc	-0.05148302
38	0xbe4c3918	-0.19943655
39	0x3e8cdeae	0.2751364
40	0xbe4c527e	-0.19953343
41	0x3ec81999	0.3908203
42	0xbc88cc64	-0.016699024
43	0x3d3f1cc7	0.046658304
44	0xbe0bdb5c	-0.13657898
45	0x3e433991	0.19064929
46	0xbcd8bc12	-0.026456866
47	0x3b2033cf	0.0024444943
48	0xbb1dc3a5	-0.0024072912
49	0x3dd4c3c7	0.10388904
50	0xbe8c6ecb	-0.27428278
51	0x3ec68f92	0.3878141
52	0xbea502db	-0.3222874
53	0x3e61a57b	0.22035782
54	0xbea90ac0	-0.33016014
55	0x3d78fba1	0.060786847
56	0xbe8c6c04	-0.2742616
57	0xbe8507f5	-0.25982633
58	0xbea7c809	-0.32769802
59	0x3dbe2f20	0.09286332
60	0x3eb85d25	0.36008564
61	0x3d031178	0.03199908
62	0xbf09f579	-0.53890187
63	0x3f0cb029	0.549563

gats.gnn_layers.0.gat_conv.attn_r f4 [1, 4, 16]
0	0x3d9923ce	0.07477532
1	0x3dd903e2	0.10596444
2	0xbe02cb9d	-0.12772985
3	0xbdc99efb	-0.09844776
4	0x3e1673ab	0.14692561
5	0x3e9cf39a	0.30654603
6	0x3e9017a6	0.28143042
7	0x3db730ed	0.08944879
8	0x3ef6fef8	0.482414
9	0x3ee1600c	0.4401859
10	0xbed57cd5	-0.41696802
11	0x3ef9dc5e	0.4880094
12	0xbea2f771	-0.31829408
13	0xbe878832	-0.26471096
14	0xbe7c345e	-0.24629351
15	0xbe87e0c8	-0.26538682
16	0x3ea522fa	0.32253247
17	0xbda6026e	-0.08105932
18	0xbda76898	-0.081742465
19	0x3d1dee55	0.03855737
20	0x3d82dc80	0.06389713
21	0xbdc831c8	-0.0977512
22	0xbeabd4ff	-0.3356094
23	0x3db0ab1c	0.086263865
24	0xbe173d20	-0.14769411
25	0x3d449ff8	0.04800412
26	0x3d27ed16	0.040997587
27	0xbe4c3bb1	-0.19944645
28	0x3bac4df0	0.0052583143
29	0x3e8c0edc	0.27355087
30	0x3e99c70d	0.30034676
31	0xbed6ce68	-0.4195435
32	0xbdd91038	-0.105987966
33	0x3e8f2c27	0.27963373
34	0x3dffc9ec	0.124896854
35	0x3d8fbe35	0.07018701
36	0x3ea20039	0.31640795
37	0x3d79f349	0.06102303
38	0x3eafa31a	0.34304124
39	0x3d1d6182	0.03842307
40	0xbdeeb0eb	-0.11654838
41	0xbe821ac6	-0.25411052
42	0xbbae0ee1	-0.0053118323
43	0x3d897a0e	0.06712733
44	0xbced4958	-0.028965637
45	0xbe42fd57	-0.19041954
46	0x3e8ea95f	0.27863595
47	0x3dcd3e36	0.100216314
48	0x3e766b25	0.2406431
49	0x3ca6e5bf	0.020373223
50	0xbd30b528	-0.043141514
51	0x3d8498f1	0.06474484
52	0xbe162518	-0.14662588
53	0x3e8ed822	0.2789927
54	0x3e19a512	0.15004376
55	0x3ee31629	0.44352844
56	0xbe3fd058	-0.1873182
57	0x3e488ebd	0.195857
58	0xbd2e1992	-0.042504855
59	0xbe134577	-0.14381967
60	0xbe46c21f	-0.19409989
61	0xbdace153	-0.08441415
62	0x3d894d40	0.067041874
63	0xbda03862	-0.07823254

gats.gnn_layers.0.gat_conv.fc.weight f4 [64, 74]
0	0xbdc10341	-0.09424449
1	0x3e0dc849	0.13845934
2	0xbe0a9ebe	-0.13537118
3	0xbd8fc669	-0.070202656
4	0x3e889892	0.26678902
5	0xbe7ad356	-0.24494681
6	0xbd1df80c	-0.038566634
7	0x3da7b045	0.081879176
8	0x3d90f11d	0.07077239
9	0x3df8b617	0.12144106
10	0x3e30b20d	0.17255421
11	0x3ea39ea5	0.31956974
12	0xbe1996f9	-0.14998998
13	0xba303eca	-0.00067232235
14	0x3d3ca858	0.046058983
15	0x3cdc59d4	0.026898302
16	0x3e7f4ea7	0.24932347
17	0xbe22ec71	-0.15910508
18	0xbde369f2	-0.11104192
19	0x3ba0cedb	0.0049074716
20	0xbe2d9a0b	-0.16953294
21	0x3cf883ee	0.030336346
22	0xbe4972a3	-0.19672637
23	0x3e039d9b	0.1285309
24	0x3d3076ee	0.04308217
25	0xbe68aa38	-0.22721183
26	0xbe2ee742	-0.17080405
27	0x3dae22e9	0.08502752
28	0x3bf3fe5d	0.007446094
29	0xbea56482	-0.32303244
30	0xbd2dc79f	-0.0424267
31	0x3ec363e6	0.38162154
32	0xbdafb134	-0.08578721
33	0xbe8d0940	-0.2754612
34	0xbdae2c78	-0.085045755
35	0x3d931f66	0.07183723
36	0x3ea8bc9a	0.32956392
37	0xbd70e6ae	-0.058813743
38	0x3e8f0306	0.27931994
39	0xbd418e0e	-0.047254615
40	0xbccfbbff	-0.025358198
41	0x3e27a190	0.16370225
42	0xbd20321f	-0.0391103
43	0x3e197888	0.14987385
44	0x3d49ac3f	0.049236532
45	0x3e806c93	0.25082836
46	0x3ddd3d85	0.108027495
47	0x3ec58fe7	0.3858635
48	0xbd8e21cd	-0.06940041
49	0x3c668e3b	0.014071996
50	0xbe0f1f64	-0.13976818
51	0xbe95d07a	-0.29260617
52	0x3eca30b4	0.39490283
53	0xbc5b4d34	-0.013385106
54	0x3db8cd64	0.0902355
55	0x3e77936b	0.24177329
56	0x3c881346	0.016610753
57	0xbe60276b	-0.21890037
58	0x3e1aba63	0.15110163
59	0x3e7fe09f	0.2498803
60	0xbe5a07b5	-0.21292002
61	0xbdb328ae	-0.087479934
62	0x3e644384	0.2229138
63	0xbd41edb1	-0.04734582
64	0x3dfdf397	0.12399977
65	0xbec15ba5	-0.37765232
66	0x3d640954	0.05567296
67	0x3ddc4504	0.10755351
68	0xbe6fb654	-0.23409396
69	0xbcd8d635	-0.02646933
70	0x3db7c0ca	0.089723185
71	0xbe0a8738	-0.13528144
72	0x3be4e69e	0.0069854995
73	0x3e53fdb2	0.20702246
74	0x3e1592ff	0.14606856
75	0x3e10db90	0.14146256
76	0xbe35e55b	-0.17763273
77	0x3dade38a	0.08490665
78	0x3d628368	0.0553011
79	0xbd6d3de6	-0.05792036
80	0x3e8db691	0.2767835
81	0xbdbf3495	-0.09336201
82	0x3e48ae19	0.19597663
83	0x3d0cc07d	0.03436326
84	0xbdebc4ed	-0.1151217
85	0xbe444805	-0.19168098
86	0x3c6a7da6	0.0143121835
87	0x3dd35d14	0.103204876
88	0x3d5a6a25	0.053323884
89	0xbdf30f82	-0.11868192
90	0x3da64bf6	0.08119957
91	0x3cbd8060	0.023132503
92	0x3e71af9d	0.23602147
93	0xbb5b39bd	-0.0033451163
94	0xbe245e2b	-0.16051547
95	0x3e254132	0.16138151
96	0x3d8c1538	0.06839985
97	0x3e5a5fda	0.21325627
98	0xbd0c4e3e	-0.034254305
99	0xbe7900b7	-0.24316679
100	0xbeae379e	-0.34026808
101	0xbe9ab05f	-0.30212685
102	0xbd0521bf	-0.032502886
103	0xbd8ce5d6	-0.06879775
104	0x3e478ea4	0.19488007
105	0x3dc71540	0.0972085
106	0x3e13191a	0.14365044
107	0x3e0468ce	0.12930605
108	0x3e68809c	0.2270531
109	0x3e53ae55	0.20671971
110	0x3ea83b33	0.32857665
111	0x3e072612	0.13198116
112	0xbe6db2cb	-0.23212735
113	0x3e6e69f2	0.23282602
114	0xbde0d767	-0.10978585
115	0xbe1d9091	-0.15387179
116	0xbc69ffe4	-0.0142822005
117	0x3e21bef4	0.15795499
118	0x3e6d5e78	0.23180568
119	0xbe0f2807	-0.13980113
120	0xbd9b84a8	-0.075936615
121	0xbe60f39d	-0.21967931
122	0xbeb878f0	-0.36029768
123	0xbf09fc32	-0.53900445
124	0x3d0d394b	0.034478467
125	0x3c840f56	0.016120594
126	0x3e55f3e5	0.2089382
127	0x3e4ed571	0.20198609
128	0x3d9b0804	0.07569888
129	0x3eb55328	0.35415006
130	0x3dbab6f4	0.09116927
131	0xbe0fd11f	-0.14044617
132	0xbd9139ac	-0.07091078
133	0x3d590a94	0.052988604
134	0x3df84379	0.121222444
135	0x3d84c84f	0.06483518
136	0xbdaa09cf	-0.08302652
137	0x3c39e149	0.011345216
138	0x3e8f000b	0.2792972
139	0x3cabdaf2	0.020978425
140	0x3e2cd683	0.16878705
141	0x3e5b5765	0.21420057
142	0xbd405e65	-0.04696502
143	0xbdb27100	-0.08712959
144	0x3e37e109	0.17956938
145	0x3d34fee6	0.044188403
146	0x3dfb4b28	0.12270194
147	0x3db48a91	0.08815492
148	0x3dc87ad2	0.09789051
149	0x3ca36ede	0.019950327
150	0x3ab23c31	0.0013598261
151	0x3d453feb	0.04815666
152	0x3e67a65d	0.22622056
153	0x3e2f2536	0.17104039
154	0xbdf8936e	-0.12137495
155	0x3df0506c	0.11734089
156	0x3d1ff9e3	0.03905667
157	0xbe8f72fc	-0.28017414
158	0xbde33dde	-0.110957846
159	0x3e05aaf8	0.130535
160	0x3da314d0	0.07962954
161	0xbd1bf656	-0.03807672
162	0xbe7c238a	-0.24622932
163	0x3e2b45b1	0.16725804
164	0x3e4e7058	0.20160043
165	0x3e3f8bf2	0.18705729
166	0x3e098291	0.13428713
167	0xbea1acf7	-0.31577274
168	0xbe7702e8	-0.24122202
169	0x3e06af8c	0.13152903
170	0x3ada9149	0.0016675378
171	0xbc31cffb	-0.010852809
172	0xbe188104	-0.14892966
173	0x3d85a557	0.06525677
174	0x3dde2715	0.10847298
175	0xbe97a965	-0.29621425
176	0x3de82e67	0.113369755
177	0xbddbf9a6	-0.10740976
178	0x3d31ad65	0.043378253
179	0xbd030642	-0.03198839
180	0x3cd85be5	0.026411006
181	0x3e8483fe	0.25881952
182	0x3d0ad346	0.033892892
183	0x3e623a0c	0.22092456
184	0x3d75713f	0.059922453
185	0x3e694a84	0.22782332
186	0xbe552273	-0.20813923
187	0x3cecbf42	0.028899793
188	0x3db1f22d	0.086887695
189	0xbde962ad	-0.11395774
190	0xbd3694c7	-0.04457548
191	0xbe4ae7ad	-0.1981494
192	0xbdd79238	-0.10525936
193	0x3e598ff4	0.2124632
194	0xbe468209	-0.19385542
195	0x3e18f1c3	0.14935975
196	0x3dc2594c	0.09489688
197	0x3e36102d	0.17779608
198	0xbe0cb11b	-0.13739435
199	0x3e888108	0.26660943
200	0xbd2a05a3	-0.04150928
201	0xbc1192c6	-0.008885091
202	0x3e484f4a	0.19561496
203	0xbea279f5	-0.3173367
204	0xbed29953	-0.41132602
205	0xbd936ef4	-0.07198897
206	0x3c4bc0b8	0.012436084
207	0xbdeb5f6f	-0.11492812
208	0xbea35a58	-0.31904864
209	0x3d051742	0.032492884
210	0x3dababc7	0.08382373
211	0x3e8c3f5c	0.2739209
212	0xbe176074	-0.14782888
213	0xbe620384	-0.22071654
214	0x3d3eda06	0.046594642
215	0xbd5d8786	-0.054084323
216	0xbe246d86	-0.16057405
217	0x3e60eb55	0.21964772
218	0xbe9745f0	-0.29545546
219	0x3e91c479	0.2847021
220	0xbc25ea1f	-0.01012662
221	0xbe16c0f3	-0.14722042
222	0xbd59bc34	-0.053158
223	0x3c623588	0.013806708
224	0x3d0baf36	0.03410264
225	0x3e18bfcd	0.14916916
226	0x3f009f9f	0.5024356
227	0xbc50e8de	-0.012750832
228	0xbe1cd3e8	-0.15315211
229	0x3e60d2dd	0.21955438
230	0xbd02697c	-0.03183888
231	0x3ed3c487	0.41360876
232	0xbdae5728	-0.085127175
233	0xbdb448be	-0.08802937
234	0x3e50044a	0.20314136
235	0xbd876047	-0.0661016
236	0x3d84ec48	0.064903796
237	0x3e316a38	0.17325675
238	0x3e0d377b	0.13790695
239	0x3daea153	0.08526864
240	0xbe855508	-0.26041436
241	0x3db2e1e9	0.08734495
242	0x3df8cc76	0.12148373
243	0x3e9eca31	0.31013635
244	0x3cb68fad	0.022285307
245	0x3ea2e86f	0.31817958
246	0xbd93f909	-0.07225234
247	0x3e181977	0.14853464
248	0xbe735b72	-0.23765352
249	0xbe4fe1b4	-0.20300943
250	0x3e6ddaf6	0.23228058
251	0xbe6ac625	-0.22927149
252	0x3d93815e	0.07202409
253	0x3eaf5ae0	0.3424902
254	0xbe4675df	-0.19380902
255	0x3efadff9	0.48999003

gats.gnn_layers.0.gat_conv.res_fc.weight f4 [64, 74]
0	0x3db11bcf	0.08647882
1	0x3ce5b131	0.028038593
2	0xbddefcb6	-0.108880445
3	0x3bad18ab	0.0052824817
4	0xbe75dbb4	-0.24009591
5	0xbe45465f	-0.19265126
6	0xbe0a1adf	-0.13486813
7	0xbdaa2159	-0.08307142
8	0xbe06466c	-0.13112801
9	0xbe13dfab	-0.14440791
10	0x3c077e7e	0.008269904
11	0xbd48f956	-0.04906591
12	0xbe81cd80	-0.25352097
13	0x3e4577f5	0.19284041
14	0x3e5a7ee0	0.21337461
15	0x3d97ed66	0.07418327
16	0xbd219d70	-0.039456785
17	0xbda742c2	-0.0816703
18	0xbe82c504	-0.25540936
19	0xbebf61f3	-0.37379417
20	0x3edf9969	0.4367173
21	0xbd966e69	-0.07345278
22	0x3eb7487c	0.3579749
23	0xbe578916	-0.21048388
24	0xbe6c2065	-0.23059233
25	0xbe2fa090	-0.17151093
26	0xbe21c4f2	-0.15797785
27	0x3d87df3d	0.06634376
28	0x3a5975d9	0.0008295454
29	0x3df171c4	0.11789277
30	0x3d761225	0.060075898
31	0x3d970167	0.07373314
32	0x3d5e59db	0.05428491
33	0xbcd490ca	-0.025947947
34	0x3e898278	0.26857352
35	0xbe399cd2	-0.18126228
36	0xbd8c9c1f	-0.06865715
37	0xbddec9d1	-0.10878337
38	0xbd512def	-0.051069196
39	0xbe28cf8f	-0.16485427
40	0x3de6d09b	0.11270257
41	0x3c1d43db	0.009598698
42	0xbe14c3dd	-0.14527841
43	0xbcb6c82f	-0.022312252
44	0xbe9209c8	-0.28523088
45	0x3dcbc4a2	0.09949614
46	0xbd4575f3	-0.04820819
47	0x3d9244cb	0.071420275
48	0xbe516f5a	-0.20452634
49	0x3dee8ef1	0.11648358
50	0x3dc39a83	0.09550955
51	0x3e0ebdc7	0.13939582
52	0xbdf87606	-0.12131886
53	0xbe4b16a6	-0.19832858
54	0xbd7948ff	-0.06086063
55	0x3dc52390	0.09625924
56	0x3da552cd	0.080724336
57	0x3ec92de9	0.3929284
58	0xbe891ea2	-0.26781183
59	0xbe57caef	-0.21073507
60	0xbdd4ec27	-0.10396605
61	0xbc74f82a	-0.014951745
62	0x3d914ed9	0.07095117
63	0xbdd30be0	-0.10304999
64	0x3d126e78	0.035749882
65	0xbdc8a823	-0.097976945
66	0x3e40d62c	0.188317
67	0x3da9fca5	0.08300141
68	0xbe21dfdc	-0.15808052
69	0xbe056f6e	-0.13030788
70	0x3c4f2cf3	0.012644994
71	0x3b3fc6af	0.0029262712
72	0xbe1656c4	-0.14681536
73	0xbcf776ff	-0.030208109
74	0x3d2198a0	0.039452195
75	0x3ea3a671	0.31962922
76	0xbe092331	-0.1339233
77	0x3cd35500	0.025797367
78	0xbda41458	-0.08011693
79	0xbe2a5f14	-0.16637832
80	0x3e9050c7	0.28186628
81	0x3eb714a7	0.35757944
82	0x3df4e5fb	0.11957928
83	0x3e81c737	0.253473
84	0x3e8fbeb9	0.28075197
85	0x3d920940	0.071306705
86	0xbc91a881	-0.017780544
87	0xbda7aa55	-0.08186785
88	0x3dcd2c10	0.1001817
89	0x3ceb5eb0	0.028731674
90	0xbb3ce364	-0.0028822059
91	0xbe2a897d	-0.1665401
92	0xbe90c7fb	-0.28277573
93	0x3eea79c7	0.45796034
94	0xbd3166ad	-0.04331081
95	0x3e664e58	0.22490823
96	0x3e0883ea	0.13331571
97	0x3cf667f5	0.030078867
98	0xbebc17d9	-0.36736944
99	0x3d3871d4	0.04503043
100	0xbd671023	-0.056411874
101	0x3a731744	0.0009273181
102	0x3d9e6b2f	0.077352874
103	0xbe433031	-0.19061352
104	0x3e8b902d	0.27258435
105	0xbe7d23ac	-0.24720639
106	0x3dbb04d5	0.09131781
107	0xbe1e6d9e	-0.15471503
108	0xbd938ae3	-0.07204225
109	0x3e604876	0.21902642
110	0xbd08ccaf	-0.033398326
111	0xbd840c1a	-0.06447621
112	0x3e3d1b54	0.18467456
113	0xbc93eabf	-0.018056272
114	0x3ed1ff9f	0.41015336
115	0xbdc29a15	-0.09502045
116	0x3eaaf0f6	0.33386964
117	0x3d9fdf11	0.078062184
118	0xbdc30bda	-0.09523745
119	0x3b2eee9b	0.0026692513
120	0xbde12b1d	-0.10994551
121	0xbe18cfe9	-0.14923061
122	0x3da5d503	0.080972694
123	0x3e7298ac	0.23691052
124	0x3dc0752c	0.09397349
125	0x3e90676b	0.28203902
126	0xbe18074a	-0.1484653
127	0x3d2d877c	0.042365536
128	0xbe26c895	-0.16287453
129	0xbe8ce9be	-0.2752208
130	0xbe8be956	-0.2732646
131	0x3e4ce136	0.20007786
132	0x3ddc9dd6	0.10772292
133	0x3da61a36	0.08110468
134	0x3c669174	0.014072765
135	0xbe8f71a3	-0.28016385
136	0xbed7173b	-0.4200991
137	0x3c5d5502	0.013509037
138	0xbd79e2b7	-0.061007228
139	0xbbef39e4	-0.0073006023
140	0x3ec38cc0	0.3819332
141	0xbeafa38b	-0.3430446
142	0xbe24bdaf	-0.16087984
143	0xbd514697	-0.05109271
144	0x3e3ba1dd	0.18323465
145	0xbe8f9f7d	-0.28051367
146	0xbcb956c7	-0.022624386
147	0xbc8c6187	-0.017136348
148	0xbe93092c	-0.28717935
149	0x3da59bd7	0.08086365
150	0x3e2d3fbc	0.16918844
151	0x3deacc1c	0.11464712
152	0x3d71e5d4	0.05905707
153	0xbe343c76	-0.17601189
154	0x3ee15c65	0.44015804
155	0x3eac41a5	0.33643833
156	0x3eaa7a3d	0.33296385
157	0x3db01dcc	0.08599433
158	0xbe6c0e28	-0.23052275
159	0x3dcfcffe	0.10147093
160	0xbe1872e3	-0.14887576
161	0xbdec7b97	-0.115470104
162	0x3dd15fd6	0.102233574
163	0x3e373eeb	0.17895095
164	0xbc9213b7	-0.017831666
165	0x3df90f18	0.12161082
166	0x3df95ba3	0.121756814
167	0x3d1a4af1	0.037669126
168	0xbcbc2979	-0.022968994
169	0x3d4d5a3b	0.05013488
170	0xbd4ac259	-0.04950175
171	0xbd9661fa	-0.07342906
172	0xbe4edfa2	-0.20202497
173	0x3dab8960	0.083758116
174	0x3e058374	0.13038427
175	0xbc8c767f	-0.017146347
176	0x3ecec305	0.40383163
177	0x3d697b99	0.057002638
178	0x3e0152c0	0.12629223
179	0xbe0468f4	-0.12930661
180	0x3e77b977	0.24191843
181	0xbd27702f	-0.04087847
182	0x3d197485	0.037464637
183	0xbdc908fd	-0.098161675
184	0x3dc2388b	0.09483441
185	0x3e9f0214	0.31056273
186	0x3de05b52	0.10954918
187	0xbe139b18	-0.14414632
188	0x3dbdf45b	0.09275123
189	0xbe1c4cd5	-0.15263684
190	0xbdc93159	-0.098238654
191	0xbe19d358	-0.15022027
192	0x3d312143	0.04324461
193	0x3d00f87c	0.031486973
194	0xbe667647	-0.22506057
195	0x3e757ee3	0.23974185
196	0xbbbafbb1	-0.0057062735
197	0xbdde1cca	-0.10845335
198	0xbdcaa6f9	-0.09895129
199	0x3e154c9e	0.14580008
200	0x3d94b4b2	0.072610274
201	0x3e495455	0.19661076
202	0x3e98cfcf	0.29846045
203	0x3e0adc3f	0.1356058
204	0xbca57dc2	-0.020201568
205	0xbe903620	-0.28166294
206	0x3e9286f8	0.28618598
207	0x3e6c0c5f	0.23051594
208	0xbd94de57	-0.072689705
209	0x3de771cf	0.11301004
210	0x3e14aff3	0.14520244
211	0xbee59022	-0.44836527
212	0x3dc5498c	0.096331686
213	0x3ce26019	0.027633714
214	0x3ccf506b	0.025306901
215	0x3db0df22	0.08636309
216	0xbe12c604	-0.1433335
217	0x3db27c7a	0.08715148
218	0x3ea07ae0	0.31343746
219	0xbe860f8a	-0.2618373
220	0xbde05f5c	-0.10955688
221	0x3d8ccfa1	0.068755396
222	0xbdde9cf0	-0.10869777
223	0xbe5d24fb	-0.21596138
224	0xbc4d4551	-0.012528733
225	0x3df467e1	0.11933876
226	0x3ceb0a66	0.028691482
227	0x3d282194	0.041047648
228	0x3e9d67a3	0.3074313
229	0xbb80fc2f	-0.0039363126
230	0xbdd9bc83	-0.10631659
231	0x3cba5f6a	0.022750575
232	0xbcf285e1	-0.029604854
233	0x3da05503	0.07828715
234	0xbe8ee4ec	-0.2790903
235	0x3d218db8	0.039441794
236	0x3e91983e	0.28436464
237	0xbe507faa	-0.203612
238	0x3e030d88	0.1279813
239	0xbe3e2d99	-0.18572082
240	0x3dd13fc8	0.102172434
241	0xbda9627e	-0.08270739
242	0xbe581b2f	-0.2110412
243	0xbe655f59	-0.22399653
244	0x3de5b6e7	0.112165265
245	0x3e454355	0.19263966
246	0xbe477796	-0.19479212
247	0x3d90cc89	0.07070262
248	0xbd176bae	-0.036967926
249	0xb9fcff8d	-0.00048255586
250	0xbe21e4b2	-0.15809897
251	0xbd81930b	-0.06326874
252	0xbe0e71a2	-0.13910535
253	0xbe222fc7	-0.15838538
254	0xbe272408	-0.16322339
255	0xbdaa0d8e	-0.083033666

gats.gnn_layers.1.gat_conv.attn_l f4 [1, 4, 16]
0	0xbe4a520d	-0.19757862
1	0xbe0706e5	-0.13186224
2	0xb97fef96	-0.00024407948
3	0xbd6f5dc9	-0.05843905
4	0x3d5c07d5	0.053718407
5	0xbda96442	-0.08271076
6	0x3dfd3e53	0.12365403
7	0xbde1295d	-0.109942175
8	0xbc7bd5c2	-0.015370788
9	0xbe92cadf	-0.28670403
10	0xbe924047	-0.28564665
11	0xbe1984b6	-0.14992031
12	0xbe51a64b	-0.20473592
13	0xbeaa6977	-0.33283588
14	0x3e9eda5f	0.3102598
15	0xbe5fde9f	-0.21862267
16	0x3eb4deb0	0.35326147
17	0x3e9ac55e	0.30228704
18	0xbd642f4e	-0.055709176
19	0xbcdb5cea	-0.026777703
20	0xbeccc599	-0.39994505
21	0xbe9af1a7	-0.3026249
22	0xbd9d3286	-0.07675652
23	0x3e88db07	0.26729605
24	0x3daab73f	0.08335733
25	0x3d1149d0	0.035470784
26	0xbe246c94	-0.16057044
27	0xbca29a11	-0.019848855
28	0x3c64b3f8	0.0139589235
29	0x3eb812cb	0.35951838
30	0x3e6ea861	0.23306419
31	0xbd6a89b7	-0.05726024
32	0x3e41b31a	0.18915978
33	0xbdb34e04	-0.08755115
34	0xbe415b0a	-0.18882385
35	0x3ddddc87	0.10833078
36	0xbd6413fd	-0.055683125
37	0xbe6e643e	-0.23280427
38	0x3eadd1ce	0.3394913
39	0xbda63062	-0.08114697
40	0xbb8f73b5	-0.004377807
41	0xbd73c9bf	-0.059518572
42	0xbc8a1940	-0.016857743
43	0x3cd1364c	0.025538586
44	0x3db79c60	0.08965373
45	0x3ea5b00b	0.32360873
46	0x3e8d1ee5	0.27562633
47	0x3cd0af18	0.025474116
48	0xbeafba34	-0.3432175
49	0x3ec7b14f	0.39002463
50	0x3dcb7875	0.09935085
51	0x3f0c03ba	0.54693186
52	0xbe44c0ef	-0.19214223
53	0x3ee0abe4	0.43881142
54	0xbe7b3c32	-0.24534681
55	0xbe09ac59	-0.13444652
56	0x3dc9a953	0.09846749
57	0x3dcacd4c	0.099024385
58	0xbdef77c2	-0.11692764
59	0x3e8bd6a1	0.27312186
60	0x3ecb4dff	0.39707944
61	0x3cf286b6	0.02960525
62	0xbea809cc	-0.32819974
63	0xbe1c27f5	-0.15249617

gats.gnn_layers.1.gat_conv.attn_r f4 [1, 4, 16]
0	0xbcba4d6a	-0.022741992
1	0xbe516111	-0.20447184
2	0x3ead7943	0.33881578
3	0x3e4ff27f	0.20307349
4	0x3dcd895e	0.10035966
5	0xbe65368e	-0.22384092
6	0x3ee6529c	0.449849
7	0x3f07bcfc	0.5302274
8	0x3a2444fd	0.00062663836
9	0xbeb4c5a8	-0.3530705
10	0x3e2bd022	0.16778615
11	0x3e8d4652	0.27592713
12	0xbe905563	-0.28190145
13	0x3d8be415	0.068306126
14	0xbdd717f6	-0.10502617
15	0xbdf5ea35	-0.12007562
16	0xbe2cfbf6	-0.1689299
17	0xbe916017	-0.28393623
18	0xbe160b45	-0.14652736
19	0x3e39907a	0.1812152
20	0x3e1d99ff	0.15390776
21	0x3dd0a3f6	0.10187523
22	0x3d759075	0.059952218
23	0x3e08b719	0.13351096
24	0x3ea76e0e	0.32701153
25	0xbeea5945	-0.45771232
26	0x3d9f400f	0.0777589
27	0xbd7c3b89	-0.061580215
28	0x3eae7968	0.34077
29	0xbd381e23	-0.044950616
30	0x3d80b05e	0.06283639
31	0xbd7d4ea8	-0.06184259
32	0x3e731991	0.23740222
33	0xbe2638d0	-0.1623261
34	0xbe31e398	-0.17371976
35	0xbd09e2ab	-0.033663433
36	0x3dc69225	0.096958436
37	0xbe244fed	-0.16046114
38	0x3e5738f6	0.21017823
39	0x3d0af8ca	0.03392867
40	0xbe355731	-0.17709042
41	0x3b8baf20	0.00426282
42	0x3ea7f72d	0.32805768
43	0xbcd9312f	-0.02651271
44	0x3e90e7bd	0.28301802
45	0xbee478ef	-0.44623515
46	0x38a86006	8.02875e-05
47	0xbe974d7f	-0.29551312
48	0xbe66344e	-0.2248089
49	0x3ecfaceb	0.40561613
50	0xbd9a60b6	-0.075379774
51	0xbecc14a0	-0.39859486
52	0xbdaf8e58	-0.08572072
53	0x3e558be9	0.20854153
54	0x3d4db1a3	0.050218236
55	0xbd54e07f	-0.05197191
56	0x3c7502d3	0.014954287
57	0x3e74dea8	0.23913062
58	0xbd846547	-0.064646296
59	0xbe001600	-0.12508392
60	0xbe80f0fc	-0.25183856
61	0xbe419d33	-0.18907623
62	0xbe3e07fc	-0.18557733
63	0x3dcecd72	0.10097779

gats.gnn_layers.1.gat_conv.fc.weight f4 [64, 64]
0	0xbe4b1c8d	-0.1983511
1	0xbdb53eb2	-0.08849849
2	0x3da7cfd9	0.08193941
3	0xbee2b7ba	-0.44280797
4	0xbb8068b7	-0.003918733
5	0xbdac011e	-0.083986506
6	0xbe0bfe70	-0.13671279
7	0x3dd31101	0.103059776
8	0xbc93fbb2	-0.018064354
9	0x3e02d99a	0.12778321
10	0xbe1ab9dc	-0.15109962
11	0x3e15ad40	0.14616871
12	0xbbc5a42f	-0.006031535
13	0xbe1f2893	-0.15542822
14	0x3e1f8bf8	0.15580738
15	0xbe229201	-0.15876009
16	0x3da30276	0.07959454
17	0xbd3fd72e	-0.04683607
18	0xbe27e7ce	-0.1639702
19	0x3dcf37e1	0.1011808
20	0xbd784fea	-0.060623087
21	0x3ba7cc72	0.0051208073
22	0xbe04bf44	-0.12963587
23	0x3e89c51a	0.2690819
24	0x3e91efbd	0.28503218
25	0x3e7e7679	0.24849881
26	0x3dd8bcff	0.10582923
27	0xbdb491e7	-0.08816891
28	0xbdd72230	-0.105045676
29	0x3c4cfd3c	0.012511548
30	0x3eb73eba	0.35790044
31	0x3dc9c3cd	0.09851799
32	0xbad87344	-0.0016513844
33	0xbe0371b2	-0.1283634
34	0x3c89d8f6	0.016827088
35	0x3d8d3014	0.06893936
36	0x3e17354b	0.14766423
37	0xbcffd8b6	-0.031231266
38	0x3e053a5f	0.13010548
39	0x3c94d296	0.018166821
40	0x3e55d9b4	0.20883828
41	0x3d09f9bf	0.033685442
42	0xbd809ddf	-0.062801115
43	0xbc433849	-0.011915275
44	0xbdb68c3d	-0.08913467
45	0xbdff6aeb	-0.12471565
46	0x3e8a53cc	0.27017057
47	0xbe28cbf0	-0.16484046
48	0xbe668387	-0.22511111
49	0xbc0069dc	-0.007837739
50	0xbcf60f97	-0.03003673
51	0x3d8b4799	0.068007655
52	0xbd7a0268	-0.06103745
53	0x3de53817	0.11192339
54	0xbd5b87ea	-0.053596415
55	0xbe271bb0	-0.16319156
56	0xbeb2d367	-0.34926912
57	0x3dc28b61	0.09499241
58	0x3d07292a	0.03299824
59	0xbdbb127c	-0.09134385
60	0xbe3d065c	-0.18459457
61	0xbd9ded62	-0.07711293
62	0x3ddc2882	0.10749914
63	0x3d625378	0.055255383
64	0xbdf22533	-0.118235014
65	0xbd1fa09e	-0.038971536
66	0x3a3bf6e1	0.0007170272
67	0xbd02fb67	-0.031978037
68	0xbe7cf937	-0.24704443
69	0xbe64cdd7	-0.22344147
70	0x3d8ba63a	0.068188146
71	0x3b97bd05	0.004630687
72	0xbd9ba29f	-0.07599377
73	0xbe3ed057	-0.18634163
74	0x3d8b15a8	0.0679124
75	0x3e1a8334	0.15089113
76	0xbe26ea23	-0.16300254
77	0xbde626ec	-0.112378925
78	0xbe4bf057	-0.19915901
79	0xbe0e13fa	-0.13874808
80	0x3d25af6a	0.04045049
81	0xbe0c66da	-0.1371111
82	0x3eb2e800	0.34942627
83	0xbe941f8f	-0.28930327
84	0xbed4cf54	-0.4156443
85	0x3cb3a52d	0.021929348
86	0x3e6b0c96	0.2295402
87	0xbdc236aa	-0.094830826
88	0x3e97e63e	0.29667848
89	0xbcf945d5	-0.030428806
90	0xbe30a72a	-0.17251268
91	0x3be5ac8f	0.007009096
92	0xbdef2825	-0.11677579
93	0x3deed881	0.116623886
94	0x3e8432e2	0.2582007
95	0x3e6497ad	0.22323485
96	0x3d668f1d	0.056288827
97	0x3e4a0c7f	0.1973133
98	0xbd7d8a87	-0.061899688
99	0x3e48b3c8	0.19599831
100	0xbd63fab4	-0.05565901
101	0x3db92465	0.09040145
102	0x3e342798	0.17593229
103	0xbebd808c	-0.37012136
104	0xbc8f4e65	-0.017493436
105	0x3e88f28d	0.26747552
106	0x3e1627bd	0.14663596
107	0x3e0ea151	0.13928725
108	0xbe30d592	-0.1726897
109	0xbe413dea	-0.18871275
110	0x3ad3852e	0.0016137713
111	0xbd1abff4	-0.037780717
112	0xbe10a60e	-0.14125845
113	0x3ec77a13	0.38960323
114	0x3e3fc256	0.18726477
115	0xbe678122	-0.22607854
116	0xbe942eee	-0.28942055
117	0x3e7b5616	0.24544558
118	0xbee58c02	-0.4483338
119	0x3db0799a	0.08616944
120	0xbe027088	-0.1273824
121	0x3ed0b485	0.40762725
122	0x3e9793ef	0.29605052
123	0xbc6353f7	-0.013874999
124	0xbe06ae7c	-0.13152498
125	0x3d556f99	0.05210838
126	0x3db3a18d	0.08771048
127	0x3e30ceb4	0.17266351
128	0x3dfc36b3	0.123151205
129	0x3dbcc8c5	0.09217981
130	0xbe008616	-0.1255115
131	0xbe4c8c96	-0.19975504
132	0x3d52d881	0.051476005
133	0x3e469ac7	0.1939498
134	0xbe4de216	-0.20105776
135	0x3e08b105	0.13348778
136	0xbd8e4ad1	-0.06947864
137	0x3e42c5ce	0.19020769
138	0x3e4262bd	0.18982978
139	0xbe166735	-0.14687808
140	0x3ec0a84f	0.3762841
141	0x3dcf1133	0.10110702
142	0xbe8a5ce0	-0.27023983
143	0xbeedc4b9	-0.4643915
144	0xbe15023d	-0.14551635
145	0xbbc5ba8f	-0.0060342024
146	0x3e6bdef9	0.23034276
147	0xbe87fc48	-0.26559663
148	0x3e520db4	0.2051304
149	0xbd0e42ca	-0.034731664
150	0xbedbfe42	-0.4296742
151	0x3da16fe7	0.07882672
152	0xbddad242	-0.10684635
153	0x3a0b3bdb	0.00053113484
154	0x3beee054	0.0072899256
155	0xbe3dca79	-0.18534268
156	0x3d66a667	0.056311037
157	0xbe3a9b8b	-0.18223397
158	0x3e25585b	0.16146986
159	0x3e170d91	0.14751269
160	0x3cf8dd8d	0.030379081
161	0xbe4cd5a8	-0.20003378
162	0xbe664fb2	-0.22491339
163	0x3e5dc9e4	0.21659046
164	0xbe10ef25	-0.14153726
165	0x3da051da	0.07828112
166	0xbce2d08f	-0.02768734
167	0x3d8b12f3	0.06790724
168	0x3d86d130	0.06582868
169	0x3e8918fb	0.2677687
170	0x3ede269c	0.43388832
171	0xbcf6c352	-0.030122433
172	0x3e991505	0.2989885
173	0xbeee687b	-0.46564087
174	0xbe0abf09	-0.13549437
175	0xbe23a15d	-0.15979524
176	0x3e3fa354	0.18714648
177	0x3de7a8c8	0.11311489
178	0xbe1448c2	-0.1448088
179	0x3d50f554	0.051015213
180	0xbe13548e	-0.14387724
181	0xbdb72cc3	-0.089440845
182	0x3e85501c	0.2603768
183	0x3e0d217c	0.13782305
184	0xbeca8e4b	-0.39561686
185	0x3e6c71f4	0.23090345
186	0xbe4e9c14	-0.20176727
187	0x3ccb8209	0.024842279
188	0xbe26cbf6	-0.16288742
189	0xbe1267d6	-0.14297423
190	0x3d978b5d	0.07399628
191	0x3e88f37c	0.26748264
192	0x3e32d4a4	0.17463928
193	0xbe0fc2ac	-0.14039105
194	0xbd236c8d	-0.039898444
195	0xbdadaf1f	-0.08480667
196	0xbd892916	-0.0669729
197	0xbe86e4b4	-0.26346362
198	0x3dc24e00	0.094875336
199	0xbeb68301	-0.35646823
200	0xbe612f5c	-0.21990722
201	0xbe2e99b2	-0.17050818
202	0xbe2e17d3	-0.17001276
203	0xbe08ba59	-0.13352336
204	0xbe3b3925	-0.18283518
205	0xbe346e9d	-0.1762032
206	0x3b7d99c4	0.0038696388
207	0xbd9d5482	-0.07682134
208	0x3c8f9bca	0.01753034
209	0x3e568752	0.20950058
210	0x3e586c1e	0.21134993
211	0x3dd1904a	0.10232599
212	0x3e3eafd1	0.18621756
213	0xbea893c4	-0.32925236
214	0x3e870247	0.26368925
215	0xbc36f995	-0.011167903
216	0x3da2b0c6	0.07943873
217	0x3d1987fe	0.037483208
218	0x3dd853bc	0.10562846
219	0xbd29db4a	-0.041468896
220	0xbe1a4eef	-0.15069173
221	0x3d85094e	0.06495915
222	0xbd52c86e	-0.051460676
223	0x3eb2e391	0.34939244
224	0xbd2369aa	-0.03989569
225	0xbe01d070	-0.12677169
226	0xbd3b0136	-0.04565545
227	0x3e2cbeb8	0.16869628
228	0xbddeeac2	-0.1088462
229	0x3e8cc595	0.27494493
230	0x3e709200	0.23493195
231	0x3de28676	0.11060803
232	0x3e410028	0.18847716
233	0xbe6200de	-0.22070643
234	0xbe151c9f	-0.145617
235	0x3dfdcab7	0.123921804
236	0xbe6706b1	-0.22561146
237	0x3cdce8d9	0.0269665
238	0xbd77750d	-0.060414363
239	0x3dac7142	0.0842004
240	0x3e347576	0.17622933
241	0xbb291891	-0.0025801996
242	0xbe17931f	-0.14802216
243	0xbc0808e7	-0.008302904
244	0xbd6e6c60	-0.058208823
245	0x3d26cfb2	0.040725417
246	0xbe79cadd	-0.24393792
247	0xbdfae8b1	-0.122514136
248	0xbe8478b6	-0.25873345
249	0xbe534e53	-0.20635347
250	0x3e293ee7	0.16527902
251	0xbee5bc0f	-0.4487004
252	0x3d82236c	0.063544124
253	0x3e260bef	0.1621549
254	0x3c6f659e	0.01461163
255	0x3e117c02	0.14207461

gats.gnn_layers.1.gat_conv.res_fc.weight f4 [64, 64]
0	0x3ec16c66	0.37778014
1	0x3e4e0ab2	0.20121267
2	0x3d0a0468	0.03369561
3	0x3e58258a	0.2110807
4	0x3d427739	0.04747698
5	0xbb96c6b7	-0.0046013254
6	0xbe8f11f0	-0.27943373
7	0xbc0f6e04	-0.008754257
8	0xbd20f17c	-0.039292797
9	0x3e6f61c9	0.23377146
10	0xbd04e551	-0.032445256
11	0x3e4a5035	0.19757159
12	0x3ec25cd8	0.3796146
13	0xbdc232c5	-0.0948234
14	0x3e01ff29	0.12694992
15	0x3e2a3614	0.16622192
16	0x3eab15e2	0.33415133
17	0x3e03a446	0.12855634
18	0x3dd4d462	0.10392071
19	0x3e3d159b	0.18465273
20	0x3d848c59	0.06472082
21	0x3e021b8a	0.12705818
22	0xbe009375	-0.1255625
23	0x3e14269f	0.14467858
24	0xbea91296	-0.33021992
25	0xbe5e7905	-0.21725853
26	0xbe02b0cd	-0.12762757
27	0xbe6c0787	-0.23049746
28	0x3e56e1f1	0.20984627
29	0xbd1a2d03	-0.037640583
30	0x3ee1382f	0.43988177
31	0xbdb55dd0	-0.08855784
32	0x3e5c7de6	0.21532401
33	0x3d04d11c	0.032425985
34	0x3e19810b	0.14990632
35	0xbe42a831	-0.19009472
36	0x3e8e21c3	0.27760133
37	0x3d2f1ae0	0.04275024
38	0xbe8d0e95	-0.27550188
39	0x3d54aebb	0.05192445
40	0xbd9a3037	-0.075287275
41	0x3e262c3d	0.16227813
42	0x39115867	0.0001386121
43	0x3d66c75f	0.05634248
44	0xbcb027e3	-0.021503394
45	0x3e250cf1	0.16118218
46	0x3cea7c37	0.028623683
47	0xbcca8cc1	-0.02472532
48	0xbc0d5297	-0.008625648
49	0x3e112acf	0.14176486
50	0x3d2eb74c	0.042655274
51	0xbe2a47bd	-0.16628928
52	0xbdde29e4	-0.10847834
53	0x3ea2b2c3	0.3177701
54	0x3e7fedda	0.24993077
55	0x3e9d5c49	0.3073447
56	0x3db87a4d	0.09007702
57	0xbe51509f	-0.20440911
58	0xbe8dba50	-0.27681208
59	0x3e30a9dd	0.17252298
60	0x3e9873cd	0.2977585
61	0xbe8e001c	-0.27734458
62	0x3e40a7cb	0.18814008
63	0x3e04cc7a	0.12968627
64	0x3e022f49	0.1271335
65	0x3ea93acb	0.33052668
66	0x3e8030b7	0.25037166
67	0xbea72f4b	-0.3265327
68	0x3e333aa8	0.17502844
69	0xbd218442	-0.03943277
70	0xbd05e343	-0.032687437
71	0x3e05de53	0.13073091
72	0x3e932e22	0.28746134
73	0x3c0c786a	0.008573631
74	0x3c36c388	0.011155017
75	0xbd841ac4	-0.06450418
76	0x3e0be7d5	0.13662656
77	0x3e317dcb	0.17333142
78	0x3c972319	0.018449353
79	0xbe53c701	-0.20681383
80	0x3e348546	0.17628965
81	0xbc4de037	-0.012565664
82	0x3e4118d6	0.1885713
83	0xbdbe5c42	-0.092949405
84	0xbd05a00d	-0.03262334
85	0x3d9f0249	0.07764108
86	0x3eac7d98	0.3368957
87	0x3e37de07	0.1795579
88	0x3dc7c38f	0.09754097
89	0x3e27a3d5	0.1637109
90	0xbdc381f3	-0.0954627
91	0x3dadc706	0.08485226
92	0x3de7bd1a	0.11315365
93	0xbef3424c	-0.47511518
94	0x3e3b83f4	0.18312055
95	0x3e44043b	0.19142239
96	0xb8ba35f5	-8.8792214e-05
97	0x3cf8df6a	0.03037997
98	0xbe56f649	-0.20992388
99	0x3e811ee3	0.25218877
100	0xbd97df5c	-0.07415649
101	0x3d944fd5	0.07241789
102	0xbea38db4	-0.31944048
103	0x3d0974ca	0.033558644
104	0xbe125786	-0.142912
105	0x3e975b87	0.29562017
106	0xbdec7828	-0.115463555
107	0x3c71a908	0.014749773
108	0x3e94d6d7	0.2907016
109	0xbe2970c9	-0.1654693
110	0x3c903854	0.017604984
111	0x3d8ffd31	0.07030714
112	0xbda040c2	-0.078248516
113	0xbd7cf212	-0.061754294
114	0xbe93ac17	-0.28842232
115	0x3eaac61c	0.3335427
116	0xbe4e196e	-0.20126888
117	0xbdf71fba	-0.12066598
118	0x3d8fd4a3	0.07022979
119	0xbde81cc6	-0.11333613
120	0x3d54c5e2	0.05194653
121	0xbbba5709	-0.005686645
122	0xbe96e620	-0.29472446
123	0xbe3f299e	-0.1866822
124	0xbe4aa884	-0.19790846
125	0xbdff1cd3	-0.1245667
126	0xbcaf9f63	-0.021438306
127	0xbd08ca8a	-0.03339628
128	0x3db316d0	0.087445855
129	0x3d80d1ba	0.06290002
130	0xbd0dacbc	-0.03458856
131	0x3e825c95	0.2546126
132	0x3e8e7d8e	0.27830166
133	0xbde70174	-0.11279574
134	0xbd6c6992	-0.057717867
135	0x3e9607bf	0.29302785
136	0xbe0507fd	-0.12991329
137	0x3e3b0e9e	0.18267295
138	0xbd952150	-0.072817445
139	0xbe005266	-0.12531433
140	0xbe2340ae	-0.15942642
141	0xbe0fd5ac	-0.14046353
142	0x3e75808e	0.23974821
143	0x3e3c8d7a	0.18413344
144	0x3df1997f	0.11796855
145	0x3eb97b8e	0.36227077
146	0x3dabab32	0.08382262
147	0x3de94663	0.11390378
148	0xbe0182f4	-0.12647611
149	0xbeba06da	-0.36333352
150	0x3c877572	0.016535494
151	0x3d071a4c	0.032984063
152	0xbe2b67e9	-0.16738857
153	0xbdb67f5f	-0.08911013
154	0x3e284187	0.16431247
155	0x3de4f162	0.111788526
156	0x3e87af84	0.26501095
157	0xbed0d0f5	-0.40784422
158	0xbdb5cc3a	-0.08876844
159	0xbe6304bb	-0.22169773
160	0xbd4b1191	-0.0495773
161	0xbd4d5f4a	-0.050139703
162	0x3dadab94	0.084799916
163	0xbe2392d4	-0.15973979
164	0x3e166196	0.14685664
165	0xbd2b201d	-0.041778672
166	0x3df5b2df	0.119970076
167	0x3c9c0de1	0.019049587
168	0x3d05281f	0.032508966
169	0x3cb4f0f6	0.022087555
170	0x3e2fb367	0.1715828
171	0xbb4ea56d	-0.0031531707
172	0x3e11ca96	0.14237437
173	0xbe25aa6b	-0.1617829
174	0xbd7fba55	-0.06243356
175	0xbe1c5fa8	-0.15270865
176	0x3d5673d7	0.052356567
177	0xbd6b1d26	-0.057400845
178	0x3df9c52b	0.1219581
179	0x3dee1829	0.11625702
180	0xbdad4d1b	-0.08461972
181	0x3e89c2f3	0.26906547
182	0xbd5640b1	-0.05230779
183	0x3e1d56f3	0.153652
184	0xbe049960	-0.12949133
185	0xbdb165e9	-0.08662016
186	0x3e804dca	0.25059348
187	0x3d1d0e97	0.038343992
188	0x3e2d0cee	0.16899464
189	0x3c6f13d3	0.014592129
190	0x3e1b612c	0.15173787
191	0x3e88d2e5	0.267234
192	0xba1900a6	-0.00058365834
193	0x3d1853c1	0.03718925
194	0xbe8eb958	-0.2787578
195	0xbdbe71aa	-0.092990234
196	0xbe0de49d	-0.1385674
197	0xbda9147f	-0.082558624
198	0x3eadd568	0.3395188
199	0xbe47cc27	-0.19511472
200	0xbc546cd3	-0.012965399
201	0x3e709d16	0.23497424
202	0xbd98897e	-0.074480996
203	0x3e186039	0.14880456
204	0xbd5931ed	-0.05302613
205	0xbe2aee08	-0.16692364
206	0xbe5604f1	-0.20900322
207	0x3e9761df	0.29566857
208	0x3c2dbedf	0.010604589
209	0xbcf26841	-0.029590728
210	0x3e68603e	0.22692963
211	0xbe904809	-0.28179958
212	0x3d7b47a8	0.061347634
213	0x3e0c6cb0	0.13713336
214	0x3df754a8	0.12076694
215	0xbce760a2	-0.02824432
216	0xbd98afa2	-0.07455374
217	0xbdba7114	-0.09103599
218	0xbd0bc7e2	-0.03412617
219	0x3d309c67	0.043117907
220	0x3d84e70d	0.06489382
221	0xbd603e2d	-0.054746795
222	0xbdd4421a	-0.1036417
223	0xbead73b5	-0.3387734
224	0xbe92e935	-0.28693548
225	0xbd95e581	-0.07319165
226	0x3d265f5a	0.040618278
227	0x3e4c2364	0.19935375
228	0x3e4bbe9c	0.1989693
229	0x3eb5d671	0.35515168
230	0x3e82856e	0.25492424
231	0xbd1a5284	-0.03767635
232	0x3e676036	0.22595295
233	0x3e2dd93d	0.16977401
234	0x3e7a28dc	0.24429649
235	0x3e5db5d9	0.216514
236	0x3e46f2ca	0.19428554
237	0x3c919658	0.017771885
238	0x3e89df0d	0.26927987
239	0xbc0a0a27	-0.008425272
240	0xbe4eb59e	-0.20186469
241	0xbe7bafdd	-0.24578805
242	0x3e3f80b6	0.18701443
243	0xbe1f9bbf	-0.15586756
244	0x3c081363	0.008305403
245	0xbe8df9b2	-0.27729565
246	0x3eaecf1e	0.34142393
247	0xbcda068a	-0.026614446
248	0xbdfbc0b9	-0.12292618
249	0xbdcaa0b1	-0.09893931
250	0xbcf2541d	-0.029581124
251	0x3eb131ee	0.34608406
252	0xbdb7450c	-0.089487165
253	0xbdb08483	-0.086190246
254	0x3cc7e084	0.02439905
255	0x3dcc67e8	0.09980756

gats.gnn_layers.2.gat_conv.attn_l f4 [1, 4, 16]
0	0xbdd4f850	-0.10398924
1	0x3e8a1217	0.26966926
2	0x3c8512db	0.016244343
3	0x3ed323e2	0.41238314
4	0x3dd66ae6	0.10469608
5	0x3e041889	0.12899984
6	0x3e5c5a70	0.21518874
7	0xbdd9819b	-0.106204234
8	0x3ec6fd72	0.38865238
9	0xbef39a88	-0.47578835
10	0xbeba6e23	-0.36412153
11	0x3e32752d	0.17427512
12	0x3e89cd15	0.26914278
13	0xbdd268c2	-0.10273887
14	0xbde99a8e	-0.11406432
15	0x3e06838c	0.13136119
16	0xbe0ce7e8	-0.1376034
17	0xbed043c3	-0.40676698
18	0xbe889ede	-0.26683706
19	0x3e79384f	0.24337886
20	0x3ea061d8	0.3132465
21	0xbcb6833b	-0.022279372
22	0xbbf6d4fb	-0.0075327135
23	0xbe3da1d5	-0.18518765
24	0x3ec52d3e	0.3851108
25	0xbdf156ca	-0.11784132
26	0xbd65e8e8	-0.05613032
27	0x3b7f8d7b	0.003899424
28	0xbdf9ff70	-0.12206924
29	0x3dae5993	0.08513179
30	0x3e495ee6	0.19665107
31	0xbca845ee	-0.020541158
32	0x3e1e26e0	0.15444517
33	0xbe253933	-0.16135101
34	0x3c68493d	0.014177618
35	0xbc8a74e5	-0.016901443
36	0xbd0759fc	-0.0330448
37	0xbe83f2d4	-0.257712
38	0xbcc3489a	-0.02383833
39	0x3da5668e	0.080762014
40	0xbea3af9a	-0.3196991
41	0x3e2eab1d	0.17057462
42	0xbe2cf19b	-0.1688904
43	0x3e884a96	0.26619405
44	0xbd639345	-0.05556037
45	0x3edc4b2b	0.430261
46	0x3e941db4	0.28928912
47	0x3e26e999	0.16300048
48	0x3e8dad12	0.27671105
49	0x3e5a80f8	0.2133826
50	0xbe9858d9	-0.29755285
51	0x3e6e5a65	0.2327667
52	0xbcbb3014	-0.022850074
53	0xba877174	-0.0010333494
54	0xbdd8ff69	-0.105955906
55	0xbcbd5a65	-0.023114393
56	0x3e08c29e	0.1335549
57	0x3c8d87f3	0.01727674
58	0x3da40636	0.08008997
59	0xbe89a456	-0.2688319
60	0x3f15a75f	0.58458513
61	0x3d4804f7	0.04883286
62	0xbdc47cce	-0.09594117
63	0x3e448082	0.19189647

gats.gnn_layers.2.gat_conv.attn_r f4 [1, 4, 16]
0	0x3e3e550a	0.18587127
1	0x3d45ab39	0.048258994
2	0xbe283d55	-0.16429646
3	0x3f061665	0.5237792
4	0xbd8629bc	-0.06550929
5	0x3e55519b	0.20831911
6	0xbc35f589	-0.011105903
7	0x3e25320a	0.1613237
8	0xbdcd2c59	-0.10018224
9	0x3e835276	0.2564885
10	0xbd9b602e	-0.07586704
11	0x3e61f4a1	0.22065975
12	0xbea3203f	-0.3186054
13	0x3e8a0609	0.2695773
14	0xbe431d84	-0.19054228
15	0xbdced6b3	-0.100995444
16	0x3ea7279b	0.32647404
17	0x3da07d5f	0.07836413
18	0xbd116b33	-0.035502624
19	0x3e120cce	0.14262697
20	0x3e2e6f51	0.17034651
21	0x3e242eb9	0.16033448
22	0xbd6c432c	-0.057681248
23	0x3e72b562	0.23702005
24	0xbdac53ea	-0.08414443
25	0x3d8a900e	0.067657575
26	0xbcde2921	-0.027119221
27	0x3e0ea99b	0.13931887
28	0x3c979184	0.018502004
29	0xbd821af2	-0.06352796
30	0x3c4a7703	0.012357476
31	0xbda96f2a	-0.08273156
32	0x3dd64755	0.10462824
33	0x3debdebd	0.11517093
34	0x3e632a38	0.22184074
35	0x3ee95d60	0.45579052
36	0x3d7b4133	0.061341476
37	0x3d35d9e0	0.044397235
38	0xbdb50f00	-0.08840752
39	0x3c00031e	0.007813243
40	0xbec0c23a	-0.37648183
41	0x3d7ea74f	0.062171277
42	0xb8be420e	-9.07221e-05
43	0x3ec17bba	0.37789708
44	0xbe396a60	-0.18106985
45	0x3e88e440	0.2673664
46	0xbefcb50b	-0.49356875
47	0x3e2d8566	0.16945419
48	0x3cfcd867	0.030864907
49	0x3dab408b	0.0836192
50	0xbea2cdb1	-0.31797555
51	0x3ca5ce57	0.020239992
52	0xbe8ced06	-0.27524585
53	0x3dfb3882	0.122666374
54	0x3c6280c5	0.013824646
55	0xbe4c4a6f	-0.19950269
56	0xbcdd1bd7	-0.026990814
57	0x3dc2aef0	0.09506023
58	0x3d1fdd1d	0.03902923
59	0x3e0b7e51	0.13622405
60	0xbe91aead	-0.2845358
61	0xbd98e5e2	-0.07465722
62	0x3ea6a7e3	0.32549962
63	0x3e832097	0.25610802

gats.gnn_layers.2.gat_conv.fc.weight f4 [64, 64]
0	0x3e6b31f3	0.22968273
1	0x3ced7849	0.02898802
2	0x3da1ed79	0.079066224
3	0xbea112e9	-0.3145974
4	0xbd4d5f9c	-0.05014001
5	0xbe418558	-0.18898523
6	0xbcf08e2d	-0.02936467
7	0xbe7c2b32	-0.24625853
8	0xbc9fc401	-0.019502642
9	0x3c3045e8	0.010758854
10	0xbd45f815	-0.048332293
11	0x3d52760b	0.051382106
12	0x3dbf8805	0.093521155
13	0x3cf98cfc	0.030462734
14	0xbe1962d9	-0.14979114
15	0xbdcb390b	-0.099229895
16	0xbe55c7ba	-0.20876971
17	0x3de8cdda	0.11367388
18	0xbd8eb623	-0.069683336
19	0xbe0a1428	-0.13484251
20	0xbe509e9d	-0.20373006
21	0x3e3197ae	0.17343017
22	0xbdc75a2a	-0.09733994
23	0x3de4eec8	0.111783564
24	0xbd82742b	-0.063698135
25	0xbc824e24	-0.015906401
26	0x3e4c3b93	0.19944601
27	0x3eb4e4cc	0.35330808
28	0xbe041fd9	-0.12902774
29	0x3ebcdade	0.36885732
30	0xbbd220cb	-0.0064126006
31	0x3dfd21c7	0.12359958
32	0xbec5c6ab	-0.38628134
33	0x3c97d892	0.018535886
34	0xbe296896	-0.16543803
35	0x3d52a2ab	0.051424664
36	0x3dec3e20	0.11535287
37	0xbcd6364c	-0.026148938
38	0xbe70bd92	-0.23509815
39	0xbd26aeef	-0.040694173
40	0x3c81ba52	0.015835915
41	0xbdf9c362	-0.121954694
42	0x3eb70125	0.3574306
43	0xbe0a64b3	-0.13514976
44	0x3d42e933	0.047585677
45	0xbe25970a	-0.16170898
46	0x3d21ea2c	0.039529964
47	0xbe25f981	-0.1620846
48	0x3dd89c20	0.105766535
49	0x3c4a39ca	0.01234288
50	0xbe51a58c	-0.20473307
51	0xbe878abd	-0.26473036
52	0xbebcde59	-0.36888388
53	0xbe334f18	-0.1751064
54	0x3e2cc898	0.16873395
55	0xbc8c5b7b	-0.017133465
56	0xbd2e4380	-0.04254484
57	0xbdcd0125	-0.10009984
58	0xbd91f596	-0.0712692
59	0xbceb4959	-0.028721498
60	0xbebd0f63	-0.36925802
61	0xbea19c53	-0.31564578
62	0xbe027228	-0.1273886
63	0xbe7f1441	-0.2491007
64	0x3e3bab41	0.18327047
65	0x3c1ce26e	0.009575469
66	0xbe057b93	-0.13035421
67	0xbd4fa6fd	-0.05069636
68	0x3dcd40a5	0.100220956
69	0xbdd97bac	-0.10619292
70	0xbd73cc25	-0.05952086
71	0x3e63f376	0.22260842
72	0xbd2063d6	-0.03915771
73	0x3c3b0573	0.011414873
74	0x3db86dc3	0.090053104
75	0x3e0af75a	0.1357092
76	0xbdd43703	-0.10362055
77	0x3e31c750	0.17361188
78	0x3bc61d5c	0.0060459804
79	0xbe1bf267	-0.15229188
80	0x3e7e168e	0.24813291
81	0x3c9a4fff	0.018836973
82	0xbde21713	-0.11039557
83	0x3e9ca68c	0.30595815
84	0x3e4a64eb	0.1976506
85	0xbe2a2454	-0.1661542
86	0x3e53338b	0.20625131
87	0xbd1639c3	-0.03667618
88	0xbe2713cc	-0.16316146
89	0x3cdc7187	0.026909603
90	0xbe959c5a	-0.2922085
91	0x3e13a7b5	0.14419444
92	0xbe105e41	-0.14098455
93	0x3e3cffea	0.18456998
94	0xbea849d3	-0.32868823
95	0x3d52f9f5	0.05150791
96	0xbe6c89a3	-0.23099379
97	0xbee5c18b	-0.44874224
98	0x3ea8ecf3	0.32993278
99	0x3c38174d	0.011236024
100	0xbe2f7e0a	-0.17137924
101	0xbdfc692f	-0.1232475
102	0x3e558ec1	0.20855238
103	0x3df33449	0.11875207
104	0xbe103ca7	-0.14085637
105	0x3e99883b	0.29986748
106	0xbda4d809	-0.08049018
107	0x3ce04f57	0.027381582
108	0x3f09bc9e	0.5380343
109	0xbe9ed69f	-0.31023118
110	0x3dd733d8	0.10507935
111	0xbe37ecfc	-0.17961496
112	0xbbbbc7d3	-0.005730608
113	0xbcb67f70	-0.022277564
114	0x3e57d317	0.21076618
115	0x3dc92487	0.0982142
116	0x3e75abab	0.23991267
117	0x3cf58232	0.029969309
118	0xbde0777d	-0.109602906
119	0xbe63967a	-0.22225371
120	0x3d9d831a	0.07691021
121	0x3dd30afd	0.1030483
122	0xbe856785	-0.26055542
123	0xbea6b399	-0.32558897
124	0xbd283bc7	-0.041072633
125	0xbce6e170	-0.028183669
126	0xbe12039a	-0.14259186
127	0xbdaae286	-0.08343987
128	0x3e90e0ad	0.28296414
129	0xbde3ed32	-0.11129226
130	0xbd2e7480	-0.04259157
131	0xbdcc4ca9	-0.09975559
132	0x3e6fe610	0.23427606
133	0xbe0c40cf	-0.13696598
134	0xbdda43aa	-0.10657437
135	0x3dc9ed77	0.09859746
136	0xbde3ce8f	-0.11123382
137	0x3d2806cd	0.04102211
138	0xbe435801	-0.1907654
139	0xbe7b6bda	-0.24552861
140	0xbdb80d22	-0.0898688
141	0xbc724b83	-0.014788511
142	0xbddeaf36	-0.108732626
143	0xbe107e2d	-0.14110632
144	0xbe5e0eb2	-0.21685293
145	0x3ca184a2	0.019716565
146	0xbe2e020d	-0.1699297
147	0x3ca2f9cc	0.019894503
148	0x3e5b0d8b	0.21391885
149	0xbe7cf957	-0.2470449
150	0x3cd3658a	0.025805254
151	0x3c2bf399	0.01049509
152	0x3d9291b1	0.07156695
153	0x3d5c5e07	0.05380061
154	0x3bb9d403	0.0056710257
155	0xbdf4b3a3	-0.119483255
156	0xbe6f80c5	-0.23388965
157	0xbdf69b8f	-0.12041389
158	0x3e9184ae	0.2842154
159	0xbdf1ba18	-0.11803073
160	0x3e29f0d1	0.1659577
161	0x3d853e4c	0.06506023
162	0xbeb7e3a2	-0.35915858
163	0xbca62eed	-0.020286048
164	0xbe21c06e	-0.15796062
165	0x3e455d41	0.19273855
166	0xbdf57dc3	-0.11986878
167	0x3e2bc8b2	0.16775778
168	0x3cfd0fea	0.030891377
169	0x3e82e1a9	0.2556279
170	0x3e3cb59d	0.18428655
171	0x3e6a7d6a	0.22899404
172	0x3e0f1234	0.13971788
173	0xbeab7665	-0.33488765
174	0x3d0e02d4	0.034670666
175	0x3d605d16	0.054776274
176	0xbdd71696	-0.10502355
177	0xbd9ef4f3	-0.07761564
178	0x3d861d27	0.06548529
179	0xbe73eeb8	-0.23821533
180	0xbd3a18fe	-0.04543399
181	0x3da3abfe	0.07991789
182	0x3e81c8ea	0.25348598
183	0x3dc7965d	0.097454764
184	0x3e3b066c	0.18264169
185	0xbebc3120	-0.3675623
186	0xbd87365b	-0.06602164
187	0xbdd323d8	-0.10309571
188	0x3d55369e	0.05205404
189	0xbe371a4d	-0.17881127
190	0x3eb647f3	0.35601768
191	0xbe60ae08	-0.21941388
192	0xbdc227a8	-0.0948022
193	0x3dd81563	0.10550954
194	0x3d9a657a	0.07538886
195	0x3aded207	0.0016999849
196	0x3dae435c	0.085089415
197	0x3db2f5b4	0.087382704
198	0xbdbddf31	-0.09271086
199	0xbdbe2621	-0.09284616
200	0x3d6f8cf5	0.058484036
201	0x3d1d49f5	0.03840061
202	0xbdfdeb2c	-0.12398371
203	0x3e1d8730	0.15383601
204	0xbf167515	-0.58772403
205	0xbdb72a3d	-0.08943603
206	0x3e280b71	0.16410615
207	0x3d7d267c	0.06180428
208	0x3e3bd057	0.18341194
209	0xbdd10abe	-0.10207127
210	0x3b9efd8d	0.004852003
211	0xbd9e4c40	-0.07729387
212	0xbd060f79	-0.0327296
213	0x3dbee63e	0.09321259
214	0xbe06d2a8	-0.13166296
215	0xbd0e5570	-0.03474945
216	0x3dcb492e	0.09926067
217	0xbdf3998d	-0.11894522
218	0x3df2bf76	0.118529245
219	0x3d9eef7a	0.0776052
220	0xbea063bd	-0.31326094
221	0xbdd94ccc	-0.10610351
222	0x3bb33800	0.005469322
223	0xbe6840f8	-0.22681034
224	0x3e2ce27b	0.1688327
225	0x3d9ae45e	0.07563089
226	0x3ca1e13e	0.019760724
227	0x3e987c78	0.29782462
228	0x3e6ea13c	0.23303694
229	0xbd98476a	-0.07435496
230	0xbe14b532	-0.14522246
231	0x3db1b1b8	0.08676475
232	0x3e59264f	0.2120602
233	0x3e643149	0.22284426
234	0xbd138a01	-0.036020283
235	0x3d1e05a9	0.038579617
236	0xbe95ed5c	-0.29282653
237	0xbd43717a	-0.04771564
238	0xbcebc41f	-0.028780041
239	0x3e2ae59e	0.16689155
240	0xbd817b66	-0.063223645
241	0xbd1a74d2	-0.037709065
242	0x3d7a02b5	0.061037738
243	0xbdefde38	-0.11712307
244	0xbe0aa9e5	-0.13541372
245	0x3d9eead2	0.07759632
246	0x3cb617aa	0.02222808
247	0xbccb3393	-0.024804866
248	0xbe6a36a8	-0.22872412
249	0xbe104f2d	-0.14092703
250	0x3e230fa3	0.15923934
251	0x3e3b7377	0.18305765
252	0x3e2055e4	0.15657765
253	0xbe23c10a	-0.15991607
254	0x3eb5748e	0.35440487
255	0xbe7247c4	-0.23660189
