models/init/GAT.pth (torch, 484259 bytes, 19 tensors)

gats.gnn_layers.0.gat_conv.attn_l f4 [1, 4, 32]
000000 a4 6a 9a 3e 86 42 05 bd aa f9 f2 bc e0 c4 93 be
       0.30159485 -0.032534145 -0.029660065 -0.2886114
000010 26 f0 4e bc 06 02 75 3e 55 b5 14 3d 22 ef 05 3e
       -0.012630498 0.23926553 0.036305744 0.13079503
000020 93 79 5d 3e f1 a1 f2 3d 14 51 f7 bc 9b 83 8c 3d
       0.21628408 0.11847294 -0.030190028 0.06861039
000030 06 36 3b bd 54 09 fb 3c c4 a8 80 3e da 71 ce bc
       -0.045705818 0.030644096 0.25128758 -0.025200773
000040 80 9c 4d 3d c3 e5 8d bd fb db 7f 3c b4 b5 57 3e
       0.05019808 -0.06928589 0.015616412 0.21065408
000050 da 9f 9f 3d 87 36 fd 3d 31 49 89 be c5 12 bc 3d
       0.07794161 0.12363916 -0.26813653 0.091832675
000060 58 6c 91 3d 7a 4e d5 3c 77 76 91 ba 62 ac 95 be
       0.07100743 0.026038397 -0.0011097927 -0.2923308
000070 0f 1f 18 bd c2 1f 98 bd 14 4d 1a 3e 3c e5 4d 3e
       -0.037138995 -0.07427932 0.15068465 0.20106977
000080 33 d8 37 bd 26 e3 30 3d dd 44 95 bb 10 ea e8 3d
       -0.044883918 0.043185376 -0.0045553283 0.11372769
000090 5e 15 99 3d bb 35 94 3e c4 88 92 3d 7e 36 0d be
       0.074747786 0.28947243 0.07154992 -0.13790318
0000a0 46 8c 84 be 5a ba 0d 3e c4 60 5c bd 3b 23 29 3d
       -0.2588827 0.13840619 -0.05380322 0.041293364
0000b0 6f db 95 3d 23 41 89 3d fb c6 ad bb a0 be 24 3e
       0.07317244 0.06701877 -0.0053032613 0.16088343
0000c0 5d 55 0e 3d 98 3a 41 bd 59 db 36 3e 6d e1 d3 3d
       0.034749378 -0.04717502 0.17857112 0.10345731
0000d0 1b c6 3a 3e 76 1c d6 bb ac b6 50 3d e0 5e b0 3b
       0.18239634 -0.0065341545 0.05095546 0.0053824037
0000e0 aa 28 be 3c 41 3a a3 3d 65 88 25 bd 2a f4 64 3d
       0.02321275 0.079700954 -0.04041328 0.055896915
0000f0 0d 4f 6e 3e 98 21 30 bd cd 5f ad 3d 96 b1 89 3d
       0.23272343 -0.043000787 0.08465538 0.06723325
000100 dd 2a c1 3c db 93 e1 bd 26 87 24 3e 4b 07 a4 bd
       0.02358001 -0.11014529 0.1606718 -0.080092035
000110 5a 9b ae bd c2 7b 29 3e 64 81 ce bd 83 4c 68 bd
       -0.08525725 0.16551116 -0.10083273 -0.056713592
000120 f3 fd 12 3d 78 a1 7c be 05 99 0d 3d cd d2 29 3e
       0.035886716 -0.2467097 0.03456976 0.1658432
000130 d5 35 28 3e d1 12 42 3c cc 2f d4 3c cd c8 71 3d
       0.16426785 0.0118453065 0.025901698 0.05902939
000140 cb b4 88 bd 32 b3 58 3e d4 5c 68 3d 31 18 2a 3e
       -0.066751085 0.21162108 0.056729153 0.16610791
000150 8b 01 91 bd 79 3c 0f be a6 9c 4d 3e e3 bf da 3c
       -0.070803724 -0.13987912 0.20079288 0.026702827
000160 dd 59 b6 3e b5 1b a6 3d 8a 7b e8 3d 4f ab 03 3e
       0.35615435 0.081107534 0.11351688 0.12858318
000170 93 90 b3 3e c4 11 6d 3d 6b 75 03 3f b1 94 2e be
       0.3507124 0.05787827 0.5135104 -0.17048909
000180 0a 9b 31 be 22 14 31 bd a4 83 15 3e 5a 43 51 be
       -0.17344299 -0.04323209 0.14600998 -0.20435849
000190 c2 2a 07 be 8a 2a 1e 3d 01 40 dd bd 40 23 86 bd
       -0.13199905 0.038614787 -0.108032234 -0.06549692
0001a0 3f 9c 0d 3e b0 55 e3 bd e7 15 16 be 59 08 10 3e
       0.13829134 -0.11100328 -0.14656793 0.14065684
0001b0 53 5d 09 bd df 3f a4 bd 84 5b 98 bd c5 3b 02 3e
       -0.033536267 -0.08019995 -0.0743933 0.12718113
0001c0 58 54 3f 3d 21 1a a4 bc e9 25 7d bd ab c8 5b bd
       0.046711296 -0.02003199 -0.061803732 -0.05365817
0001d0 89 2a 10 3e dd 01 26 3e fd b1 89 be 8d d1 da 3c
       0.14078726 0.16211648 -0.26893607 0.02671125
0001e0 57 80 9b bc ff 81 e7 bd 6c d5 59 bd 84 06 18 bd
       -0.018982096 -0.11304092 -0.05318205 -0.03711559
0001f0 a4 0c f5 3d 8b 1e 34 be 59 3d 00 3e 6c 57 81 bd
       0.11965302 -0.17589776 0.12523402 -0.063155025

gats.gnn_layers.0.gat_conv.attn_r f4 [1, 4, 32]
000000 7b 33 42 bc 58 68 4d bc 54 72 f4 bc 20 2d b1 be
       -0.011853094 -0.0125370845 -0.029839672 -0.3460474
000010 fd 33 8f be 61 2a 92 3c 02 eb fd 3d 27 b5 9e 3d
       -0.2796935 0.017842473 0.1239834 0.07749396
000020 23 bc 77 3b 82 0c 84 3e 62 72 88 3d 82 d1 72 3e
       0.0037801347 0.25790793 0.06662442 0.23712733
000030 ce bb 0a bd a7 78 42 be fc ba 96 bd 5d 9b ce 3d
       -0.03387051 -0.18991338 -0.07359883 0.10088227
000040 fc 3a af bd 30 3a 53 bb c0 42 10 3e ea fc f9 bd
       -0.08556172 -0.0032230727 0.14087963 -0.12206443
000050 43 1e 70 bd ae 3f 52 3d fa 17 a6 3e 8c 1f 49 3e
       -0.05862261 0.05133026 0.32440168 0.1964094
000060 05 8b 7a be 6d 65 e2 be 0c 66 87 3e df 01 e5 3d
       -0.24467094 -0.44218007 0.26445043 0.111819975
000070 06 21 93 bd 42 49 33 be 31 fa 5c 3e ee 77 1b 3d
       -0.07184033 -0.17508414 0.21579815 0.03795617
000080 e3 59 93 3d 20 68 04 3e 65 3c eb be 09 a2 81 3d
       0.07194879 0.12930346 -0.45944515 0.06329734
000090 d6 b4 29 3c 1e 36 06 bc 8c a9 90 3d af 59 90 3d
       0.010358056 -0.0081916135 0.070635885 0.07048356
0000a0 97 82 a6 3e 6d 56 4a 3e e3 c8 e8 bc 93 db d2 3e
       0.32521507 0.19759531 -0.028416103 0.41183147
0000b0 65 73 35 3d 01 e1 5d 3e ba 11 29 bd 31 7b 20 3e
       0.044299502 0.21667863 -0.04127667 0.15671994
0000c0 03 c4 99 be d5 86 66 3d c6 8a 92 3d 52 da d3 3d
       -0.30032358 0.05628093 0.07155375 0.10344376
0000d0 bf 88 92 3d 6a 08 ca bd f6 bc 78 3d 80 84 4b bd
       0.071549885 -0.09864886 0.060727082 -0.04968691
0000e0 80 a2 73 bd 07 fe 55 3e bd 7e 52 be 12 2c ff bd
       -0.059481144 0.20897685 -0.2055616 -0.124595776
0000f0 be f2 d1 3d e7 3f 97 3d 98 4c 3c be 64 fb 01 be
       0.102513775 0.07385235 -0.18388593 -0.12693554
000100 f3 4f f7 3d 75 62 1a 3e 40 c0 ff 3c 96 e5 8f 3d
       0.12075796 0.15076621 0.031219602 0.07026212
000110 64 7c 22 be ed a3 47 3c 20 d9 be bd de 1a 13 be
       -0.15867764 0.012185079 -0.09318757 -0.14365718
000120 e7 5c 67 3d be 16 65 3e cb 39 0f be fa 09 e0 bd
       0.056485083 0.22371957 -0.1398689 -0.10939403
000130 32 b2 e1 3d b5 67 1b 3a 2c 99 0f bd 87 b5 c5 3e
       0.11020316 0.00059282343 -0.035058185 0.38615057
000140 2e 50 9c be cf 96 9c bd c0 91 12 3e 70 e3 e6 3d
       -0.30529922 -0.07645952 0.14313412 0.11273849
000150 5d 21 57 3c 24 94 41 be 9f c9 01 3e c0 0d be 3d
       0.013130513 -0.18904167 0.12674569 0.09279966
000160 f5 d8 a4 bd 56 7d ba 3d da 18 b8 3e 91 95 81 3d
       -0.08049194 0.09105937 0.3595646 0.06327356
000170 d0 db a0 bc 4d c6 8a bd 92 d7 13 3c c3 d3 e4 3d
       -0.019636065 -0.06776104 0.009023564 0.11173203
000180 e4 63 13 be b4 8f d0 bd a8 ea 2f be 4f c0 3f bd
       -0.14393574 -0.10183659 -0.17179358 -0.04681426
000190 86 85 0e be d1 72 da bd 5a 78 38 3d d0 d1 98 bd
       -0.13918123 -0.10666431 0.04503665 -0.074618936
0001a0 31 38 8f bd 14 6c 2b bd bc b6 98 3e 32 8f 24 3d
       -0.069931395 -0.04185112 0.29826915 0.040175624
0001b0 eb ef d1 3d 4a 76 ae bc 35 c2 6b 3e 63 80 20 be
       0.10250839 -0.021296639 0.23023303 -0.15673976
0001c0 fd 07 0e 3e 76 bc 6e bd 0c eb 4f bc 44 d9 c8 3d
       0.13870235 -0.0582852 -0.012690317 0.09807065
0001d0 a9 31 30 be ef cd b5 bd 34 ad 7f be ad 66 a5 bd
       -0.17206444 -0.08877169 -0.24968415 -0.080762245
0001e0 e2 ef 96 be 64 dc a0 bd 34 cc 0b 3e e0 1c a8 3e
       -0.2947989 -0.07854536 0.13652116 0.3283453
0001f0 5d 00 93 be 01 c1 4b 3e db 21 d2 3d c5 7f 8e 3d
       -0.28711215 0.19897844 0.10260364 0.06957964

gats.gnn_layers.0.gat_conv.fc.weight f4 [128, 74]
000000 ad 8a 9f bd 2f 7a e3 bc 88 51 8d 3d cb cd c6 bd
       -0.07790122 -0.027768223 0.069003165 -0.09707221
000010 7d 46 6b bd a6 d2 22 3c 5c 07 84 bd 9b 3e d5 bc
       -0.05744027 0.009937918 -0.06446716 -0.02603083
000020 b7 d2 51 be a2 2a 80 3e 6e dd 74 be 9c f8 fe ba
       -0.20490538 0.25032526 -0.23912594 -0.0019452753
000030 9b 64 4b 3e 08 4a 81 3d 2e 4c e1 3d 72 89 4d 3d
       0.19862597 0.063129485 0.11000858 0.050179906
000040 4d 8c 04 be d8 3b 1b bd a8 0d 50 bd e2 c0 b3 bc
       -0.12944146 -0.03789887 -0.050794274 -0.02194256
000050 23 a5 8a bd 06 26 8e 3d d5 6e 0f 3e 64 35 1f be
       -0.067697786 0.06940846 0.14007123 -0.1554771
000060 09 af 9d bd b6 ae fc bd d9 40 25 3c 72 b3 1c bc
       -0.07699401 -0.12338011 0.010086262 -0.0095642675
000070 8c e2 3d bd d9 be 61 be 20 56 b9 3d 15 01 da bc
       -0.04635863 -0.22045459 0.0904963 -0.026611844
000080 76 93 dc ba c9 c1 21 be b4 d5 52 3b 4a a8 0b 3d
       -0.0016828615 -0.1579658 0.0032170834 0.03409604
000090 58 a6 32 be 19 d9 12 be 1b da 90 bd 51 39 3a be
       -0.17446268 -0.14340629 -0.0707285 -0.18185927
0000a0 f0 2b 12 bd 6f 67 33 be 71 96 e8 3c 9f 42 a2 3d
       -0.035686433 -0.17519926 0.028392049 0.07922863
0000b0 3c a7 84 3d 36 12 76 bc 08 10 7b 3d 21 3c 37 be
       0.0647721 -0.01501899 0.061294585 -0.17894031
0000c0 04 ff 3f bd aa 91 e1 bd 3c b0 09 be 66 5c 16 3d
       -0.04687406 -0.11014111 -0.13446134 0.03670921
0000d0 46 0b 93 bd 5a c6 22 be 13 b2 bf bc d0 78 9b be
       -0.071798846 -0.15895978 -0.023400342 -0.3036561
0000e0 de 23 6b be 65 c8 b7 bd 5a 07 3d be 79 b8 6f be
       -0.22962901 -0.08973769 -0.18459836 -0.23410214
0000f0 98 4f d2 bd b9 60 1e 3e e2 2f 02 be 42 67 a9 bd
       -0.102690876 0.15466584 -0.12713578 -0.08271648
000100 8d 1c 87 3d 00 8d f1 bd b7 42 b9 3e ca 35 53 bc
       0.065972425 -0.11794472 0.36183712 -0.012891242
000110 9e 42 f8 3c d4 a1 c8 3d d1 74 05 be cc 10 66 3e
       0.030305203 0.09796491 -0.13032843 0.22467345
000120 36 61 85 bd 30 d5 2e 3c 72 17 2f be f2 ae 06 3e
       -0.06512682 0.010670945 -0.17098787 0.13152674
000130 fd 7e 42 3e ac a9 7f 3e d2 74 bc bb 8e 83 05 bc
       0.18993755 0.24967068 -0.0057512308 -0.008149041
000140 06 a1 dc bd d2 4d d9 bd d1 12 03 be 68 8a ee bc
       -0.107729 -0.10610546 -0.12800147 -0.029118732
000150 ce 3a 83 3d ef 4b 1d 3d 9f 74 0f 3d 9b f9 27 bc
       0.064077005 0.038402494 0.035023328 -0.010252382
000160 49 26 91 bd 66 05 2b 3e 24 46 02 3c 0b f4 06 bd
       -0.070873804 0.16701278 0.007951293 -0.03294758
000170 6e 10 36 3e ec 27 3a bc 6f 03 9a bd 7c 5c 3d be
       0.17779705 -0.011362057 -0.07520186 -0.18492311
000180 22 45 65 3a b8 21 71 be 10 00 13 3c a5 e8 8e 3e
       0.00087459583 -0.23548019 0.008972183 0.2791187
000190 72 a2 4f 3e da c5 59 bd 3e 48 e5 bd f7 e1 fb bd
       0.20276812 -0.0531672 -0.1119542 -0.12298959
0001a0 e7 8f 4c 3e bd 43 38 bc 02 07 49 3d c0 2f 9d 3c
       0.1997677 -0.011246619 0.04907895 0.019187808
0001b0 10 fd 8a 3d ef 1c ae 3e 80 9f 22 3e 52 77 8b bd
       0.06786549 0.3400645 0.15881157 -0.06809868
0001c0 48 1c 07 bd 91 3e 82 be 5d 30 72 3d dc 55 4d bd
       -0.032985955 -0.2543836 0.059128154 -0.05013071
0001d0 f8 0a 91 3d d9 1c 99 3c 9e 56 28 bd 3e 63 6c be
       0.0708217 0.018690513 -0.04109823 -0.23084733
0001e0 f3 e4 0e bd e2 69 6e bc 0c 95 27 bd b9 1b 92 3c
       -0.03488631 -0.014551612 -0.040913627 0.017835485
0001f0 60 3a 10 bd 01 a9 3e be 1d fc c2 bd d4 d3 c0 3b
       -0.03521192 -0.18619157 -0.09520743 0.005884627
000200 f4 38 f8 bd 08 1e 3d 3c 78 6b 5a 3d dd 7a 14 3d
       -0.12120238 0.011542805 0.053325146 0.036249984
000210 cd 0f 0e 3e 6d ee a7 3e 91 52 72 be cb cc 4e bd
       0.13873215 0.32799092 -0.23664309 -0.050488275
000220 e5 97 13 be c5 d1 1a be 71 ed 1b 3e 96 d7 ac bd
       -0.14413412 -0.15119083 0.15227295 -0.08439557
000230 41 52 f8 bd 39 db 22 be 7f 77 03 be 88 27 bb 3d
       -0.12125064 -0.1590394 -0.12838553 0.09138399
000240 50 4f 60 be a4 2a bf 3d 42 46 22 be b5 2d 95 3d
       -0.21905255 0.09334305 -0.15847114 0.072841085
000250 e6 51 1d be 30 02 d5 3d f2 7d a4 bd 96 68 ea bc
       -0.15363273 0.10400808 -0.08031835 -0.028614324
000260 9f ae 26 3e e7 59 87 3d 42 88 eb bd 18 47 ca bd
       0.1627755 0.066089444 -0.115005985 -0.09876841
000270 d7 f1 4b 3d be 03 5f 3d 3c 3f 65 3e 4b 9b 9d be
       0.049791183 0.05444693 0.22387403 -0.30782542
000280 57 5b 6f 3d 0d 37 58 3e 79 64 70 be dd f9 f4 bc
       0.058436718 0.2111475 -0.23475827 -0.0299043
000290 33 3a 12 bd bb 52 be 3d b2 02 05 be b9 63 e6 bc
       -0.035700034 0.09293123 -0.1298931 -0.028123723
0002a0 57 bb 4e be 4a 3f 02 be bd 04 2b 3e 1a b2 db bd
       -0.20188652 -0.12719455 0.16701026 -0.107273296
0002b0 ca 41 c0 bc c0 46 88 3e 69 1f d7 bd 7f 6e b4 bd
       -0.02346887 0.26616478 -0.10504038 -0.08810138
0002c0 41 16 ae 3e 47 25 16 be 73 17 10 be 28 a7 2e bd
       0.34001353 -0.14662658 -0.14071445 -0.04263988
0002d0 55 30 7a bd d0 b2 97 bd 28 cd e1 3d e1 08 56 3e
       -0.06108125 -0.07407153 0.110254586 0.20901825
0002e0 a5 b4 4d bd 71 c3 d6 bd d3 e4 8c be e0 f2 5d bd
       -0.050221104 -0.10486496 -0.2751833 -0.0541867
0002f0 db 8a 26 be 6b 5b 6a bb aa f0 6a 3e 7f 29 9f 3e
       -0.16263907 -0.0035760056 0.22943369 0.31086347
000300 b7 94 06 bd da 9f 29 3e df 81 81 3d 17 cf b5 3c
       -0.03285667 0.16564885 0.06323599 0.022193475
000310 9a b1 c8 bd cf f1 f7 3b 14 cb ce 3d b1 d3 71 be
       -0.097995 0.0075666676 0.10097328 -0.2361591
000320 23 41 b0 3d fb 70 52 bd 59 23 11 bd 9b ec 50 3e
       0.08606174 -0.051377278 -0.0354341 0.20402758
000330 ff 1a fa 3d 90 63 45 3d d0 5f a1 bd 9f 1c 74 bd
       0.1221218 0.048190653 -0.07879603 -0.059597608
000340 de b2 73 bd 87 a0 aa bc 05 bf d2 bd 58 67 39 be
       -0.059496753 -0.020828499 -0.1029034 -0.18105829
000350 4f f8 78 3d b8 4b c1 3d ac ec fa bc 64 f4 fe bd
       0.06078368 0.0943827 -0.030630432 -0.124489576
000360 1c 8a 6c 3e f4 25 9c bd cb 56 56 be 98 26 09 3e
       0.2309956 -0.076244265 -0.20931546 0.13393629
000370 db d2 e2 bd 9e f0 ac bd 67 3f a0 3c 8e d3 63 bd
       -0.11075374 -0.084443316 0.019561483 -0.055621676
000380 18 66 69 3e c6 69 c4 bd 65 1c b3 bc e4 2b 20 3d
       0.22792852 -0.09590487 -0.021864126 0.039104357
000390 20 d4 5b 3e 06 12 c4 bd 84 87 b0 bd 2f 94 20 be
       0.21467638 -0.0957375 -0.086195976 -0.15681528
0003a0 f0 9e 07 3e 88 7f 50 ba 7f c0 06 be f9 4b 11 3c
       0.13244224 -0.0007953574 -0.13159369 0.008868211
0003b0 d8 d3 d5 bd 81 d4 f1 bc bb ec 3b bd 07 00 46 bc
       -0.104407966 -0.029520275 -0.04588006 -0.012084967
0003c0 70 98 a0 3c 2f cc 3c 3e 11 2f 12 be 60 d7 11 bd
       0.019603938 0.18437265 -0.14275767 -0.03560579
0003d0 29 1a 8b bd 0a f7 12 3d df 4a bc 3e 72 ed de 3c
       -0.06792099 0.035880126 0.36775872 0.027212832
0003e0 63 25 78 be d6 c3 11 3e 70 09 78 be d0 eb fe bd
       -0.24233012 0.14234862 -0.2422235 -0.124473214
0003f0 8c d3 09 3e 1e 50 e9 bd 08 d9 4f bc fd 5c af bd
       0.13459605 -0.11392234 -0.012686022 -0.08562658

gats.gnn_layers.0.gat_conv.res_fc.weight f4 [128, 74]
000000 aa 12 94 3c 2d 21 9e bd 90 8a 4d be f7 9d 01 be
       0.018075306 -0.077211715 -0.20072389 -0.12657915
000010 b1 fc 9c bd 15 96 45 bd 40 d1 91 ba 26 18 a1 be
       -0.076653846 -0.048238833 -0.0011124983 -0.31463736
000020 5d f2 af 3a 15 46 06 3e 18 28 35 be 68 82 5c 3e
       0.001342367 0.13112672 -0.17691076 0.21534121
000030 47 e4 86 bd 66 77 16 3e f0 a7 a2 3d 2b a9 c3 bd
       -0.06586509 0.14693984 0.07942188 -0.095537506
000040 19 64 e9 bd ba a4 e0 bd 3a 4a 69 bc 6b 69 1f be
       -0.11396045 -0.10968919 -0.014238888 -0.15567558
000050 80 11 71 3d 69 f1 50 3e b5 c8 d9 bc 80 cc 1b bd
       0.05885458 0.2040459 -0.026584962 -0.038036823
000060 66 48 c3 bd 1c 45 6b 3e ce a7 35 3e 53 e6 66 be
       -0.09535293 0.22975582 0.17739794 -0.22548799
000070 c4 a3 28 3c 63 84 47 bd f4 af bd 3d 6a b8 0b be
       0.010292951 -0.04871024 0.09262076 -0.13644567
000080 65 f5 3d 3e 98 49 1d bd bd 83 7c 3c 95 88 f8 bd
       0.18550642 -0.038400263 0.015412268 -0.12135426
000090 ba 17 11 be 54 ef 1b 3d f2 6e 0a be fe 8f 86 3d
       -0.14169207 0.038070038 -0.13518885 0.06570433
0000a0 14 56 19 ba 86 e4 1d bd 8d 19 ef 3a 4d 9c 92 3d
       -0.00058493135 -0.038548015 0.0018241868 0.07158718
0000b0 da 35 7c be d8 79 d1 bd b3 a3 1c be 7b 68 48 3e
       -0.24629918 -0.10228318 -0.15296821 0.19571106
0000c0 75 98 90 be a1 a6 68 3e 5d 0c 63 3d 75 f0 f1 3d
       -0.28241315 0.22719814 0.055431712 0.11813442
0000d0 1f e7 de 3d 1a 40 cb bd fd 2d 17 3e 65 d6 15 bd
       0.108839266 -0.09924336 0.14763637 -0.036581416
0000e0 0c 24 6f 3d cb 45 9e 3d 99 67 1f ba e2 c3 61 3e
       0.058383986 0.07728156 -0.0006080806 0.2204738
0000f0 13 2d de 3d 8e 82 60 bd 1c af ae 39 fc bd 79 3e
       0.10848441 -0.054812007 0.00033318333 0.2438888
000100 a9 29 2f 3e 52 4e dc 3d 46 e2 6f bc ba b4 a8 be
       0.17105736 0.10757126 -0.01464135 -0.32950383
000110 7c 03 0a be 6d 28 5d 3d 68 25 5c be 9a e5 0c 3e
       -0.13477892 0.05399363 -0.21498644 0.13759461
000120 5b 9c d2 3d 12 9e e6 bb 19 ca 09 be 1e 36 b0 3e
       0.10283729 -0.0070378864 -0.13456 0.34416288
000130 4e 3e 81 3d 09 d7 61 be d3 6d d2 3c e1 b0 8f 3e
       0.06310712 -0.22054686 0.025687134 0.28064635
000140 1f db 32 3e 96 c7 ca 3c eb 6d 51 3d b8 3a 8f bd
       0.174664 0.024753373 0.051130217 -0.069936216
000150 63 b4 49 3b ba 10 ca bd cb 95 6f 3d b5 c2 0a be
       0.0030777685 -0.098664716 0.058492463 -0.13550837
000160 39 23 8c bc 21 67 41 3e 8a a6 57 bd c7 e1 95 3e
       -0.01710664 0.18886997 -0.05264906 0.29273817
000170 68 01 8a 3d 40 47 35 3e 8f 67 35 bb e9 85 91 3c
       0.067385495 0.17702961 -0.0027680134 0.017764049
000180 a2 00 0a be c0 90 e8 bd 78 30 38 be 37 08 98 bd
       -0.13476804 -0.11355734 -0.1798724 -0.07423442
000190 5c 2d 0d be b6 29 88 3c e3 e7 92 3d 97 b6 1c be
       -0.13786834 0.016621452 0.07173135 -0.15304027
0001a0 35 08 e8 bd 1e 0b 23 3e a9 b0 be bd 8d 67 4b bd
       -0.1132969 0.1592221 -0.09311039 -0.0496593
0001b0 c9 62 0d be 7f d8 70 be ea b2 c6 bd 25 0a be be
       -0.13807215 -0.23520087 -0.09702094 -0.37117115
0001c0 bb 7d de 3c 12 e2 19 3e f3 e4 ce bd d5 69 a7 bd
       0.027159562 0.15027645 -0.10102262 -0.08174483
0001d0 57 9b 37 be 8d e7 61 ba c0 15 f7 bd 9f c2 b8 3d
       -0.17930351 -0.00086175726 -0.12064695 0.09021496
0001e0 a4 79 1e be 22 ed 97 3d 0e b1 e1 3d f8 6f 5e 3d
       -0.1547609 0.07418276 0.110200986 0.054306
0001f0 05 13 ec 3c 00 b6 2c be 96 88 18 3d cf 56 61 be
       0.028817663 -0.16866302 0.037239634 -0.22005771
000200 8b 1a c0 bc ba 1d a3 3d 64 62 e5 bb c4 97 35 be
       -0.023450157 0.07964654 -0.0070002545 -0.17733675
000210 8c 76 c2 3d b2 7c 31 be 0b 9a 88 be 51 08 9f 3d
       0.09495267 -0.17332724 -0.26680025 0.07765258
000220 d2 8a 8b 3d 58 37 f5 3d 68 86 ce 3d 03 74 12 be
       0.06813587 0.119734466 0.1008423 -0.14302067
000230 f3 e3 16 3e 5b 99 ad be 55 ff 1b 3e f4 5f 16 be
       0.14735393 -0.33906063 0.1523412 -0.1468504
000240 71 0d 8d 3b c5 08 86 3d 1a 3d 12 3e a2 2c 7f bd
       0.004304581 0.065446414 0.14281121 -0.062298425
000250 a4 f0 99 3d 78 f5 56 3e 2d e0 70 3e 18 e2 df 3d
       0.07516602 0.20992076 0.23523016 0.10931796
000260 34 80 02 be f6 da 81 bd d7 09 c2 3d c0 51 3c 3e
       -0.12744218 -0.063405916 0.09474533 0.1839056
000270 b2 fe f7 3d fb 70 89 3d 23 8b 33 be ff 70 76 3c
       0.12109126 0.067110024 -0.17533545 0.015041589
000280 ed a3 03 be b1 f2 be bd f4 b5 1d 3e 73 c4 e3 bd
       -0.12855501 -0.093236335 0.15401441 -0.11121454
000290 af 49 1f be f9 89 9d 3d 01 3d 19 bd c9 6f 30 3d
       -0.15555452 0.07692332 -0.037411693 0.043075357
0002a0 88 55 cd 3d bb 09 b6 3c e0 bc 91 3d 23 c1 38 3e
       0.100260794 0.022221437 0.07116103 0.18042426
0002b0 18 1f 0f be b2 58 df 3c 5f 00 0a 3e 15 12 b5 3e
       -0.13976705 0.027263973 0.13476704 0.35365358
0002c0 c1 09 89 3e 2f 3d fa bc 8d 6e f3 3c d9 2d 4a be
       0.26765254 -0.030546753 0.0297158 -0.19744052
0002d0 a8 7c 52 bd 50 23 9e bd 7b 1b 18 be 4d 1f c7 bd
       -0.051388413 -0.07721579 -0.14854233 -0.09722767
0002e0 67 88 82 bd 2a ca 30 3e d2 d4 8f be ec 8c 07 be
       -0.06373673 0.1726462 -0.28092057 -0.13237351
0002f0 6a 5f 00 3e 5b 8c b7 bd db de 22 3e 19 27 3f be
       0.12536398 -0.089623176 0.15905325 -0.18667258
000300 56 d8 e1 bc ae c3 e6 bd 01 0b 4c be 83 de e8 bc
       -0.027568977 -0.11267792 -0.19926073 -0.028426414
000310 a0 40 36 3d 3e bf 1c 3a ff 25 b2 bd 03 2e 0d 3e
       0.044495225 0.0005979425 -0.086986534 0.13787083
000320 65 77 9d 3d 10 44 6a 3e 0c 56 fe bc c1 32 12 bd
       0.07688788 0.22877526 -0.03104689 -0.035692934
000330 94 ba 54 bd fa 3a 99 3d 3e 51 83 be c9 fd c6 bb
       -0.051935747 0.07481952 -0.2564792 -0.006072734
000340 f7 58 86 be c4 35 c9 bd bf 72 56 bd 48 97 d7 bc
       -0.2623975 -0.09824708 -0.052355524 -0.026317254
000350 ef f6 a9 3d 03 38 96 3d eb eb 0a be 5c 4b 15 be
       0.08299052 0.07334902 -0.13566558 -0.14579529
000360 a3 f7 33 3d bb 32 ed bd 04 85 44 be a6 13 ea bd
       0.043937337 -0.11581942 -0.19191366 -0.11429529
000370 79 95 a4 3d 9f 1a da bd 1b bd 4d be d8 65 69 bc
       0.08036322 -0.10649609 -0.2009167 -0.014245473
000380 e1 c2 4b be 5d 98 a5 bc 1d fb fd bd f1 42 f9 bd
       -0.19898559 -0.020214254 -0.12401412 -0.12170971
000390 67 0c 18 3d f9 31 3f 3e 21 0f 01 be 51 6a c0 3c
       0.037121203 0.18671407 -0.12603427 0.023488196
0003a0 cf c3 0e bc 60 54 9d 3c 49 f1 a0 3e 82 de 7a 3e
       -0.008713677 0.019205272 0.31434086 0.24498942
0003b0 3f 55 47 be 45 9b 19 3c 14 13 21 bd 39 13 d6 3d
       -0.19466113 0.009375398 -0.039324835 0.10452885
0003c0 79 9a 34 be c0 33 59 bd 22 34 a4 bd 53 64 01 3d
       -0.17637052 -0.05302787 -0.08017756 0.031589817
0003d0 62 31 50 3e 47 8c 04 3e c5 ae f1 3c a2 7e 36 3d
       0.20331338 0.12944137 0.029502282 0.04455436
0003e0 1f 25 05 3e 4d e4 f7 bd c2 e5 39 3e f5 38 15 bc
       0.13002442 -0.12104092 0.18154052 -0.009107818
0003f0 be d6 d4 3c 7f cf aa 3d 0a f2 84 3e 94 70 9c b9
       0.025981303 0.08340358 0.2596591 -0.00029838516

gats.gnn_layers.1.gat_conv.attn_l f4 [1, 4, 32]
000000 ec 42 0b 3d ce aa bf be ce a3 95 bc da 42 3a be
       0.03399937 -0.37435 -0.018266585 -0.18189564
000010 cd 1e dd bd 78 b0 d7 bd 76 ea 27 bd 8f db 87 3e
       -0.107968904 -0.105317056 -0.040995084 0.26534697
000020 ac 5a b1 3d 42 ff 47 3e 69 84 ba bd 09 15 a2 bc
       0.086598724 0.19530967 -0.091072865 -0.019785421
000030 68 df 32 be 44 8b 2c 3e ab 29 3d bd fd 2e b0 bc
       -0.17468035 0.1685 -0.046182316 -0.02150678
000040 1b 30 e7 bd 3e bf 46 3e 5c 6e a7 3c 2d 24 5a bc
       -0.11288472 0.1940889 0.020438366 -0.013314289
000050 4f 46 e5 bd 8b 58 ac 3d 6c 6a 84 3d fe 99 0f 3e
       -0.11195051 0.08415326 0.06465611 0.14023587
000060 f5 fc 22 be 72 b6 ac bd 52 ad 35 bd 76 66 29 be
       -0.15916808 -0.08433236 -0.044354744 -0.16542992
000070 8c ae 32 be 96 9d 6b 3e 33 0a c2 3d c8 46 7c 3d
       -0.17449397 0.23009333 0.094746016 0.06159094
000080 54 c5 75 bd 3d 94 a7 bd 5c 02 2f 3e e0 80 22 be
       -0.06000264 -0.08182571 0.17090744 -0.15869474
000090 59 80 d1 3d be 63 86 3d a0 fa 83 bd 8d 0a 8e 3e
       0.102295585 0.06561993 -0.06444287 0.27742425
0000a0 9f a6 b0 bd 5a 78 6d be 3c 4e 5e 3d 62 7c 40 3e
       -0.086255305 -0.23190442 0.05427383 0.18797448
0000b0 65 e1 0a 3e da 39 cd bd 1b 5f 9f bd ec ef 06 3d
       0.13562544 -0.100208 -0.07781812 0.03294365
0000c0 ea 12 e7 bb 29 78 23 be 81 69 55 bd 83 21 2f 3e
       -0.0070518153 -0.15963806 -0.05210257 0.17102627
0000d0 f6 4c 8b 3d 03 3a 7e bd 97 7d 68 be 42 8f 20 3e
       0.068017885 -0.062067043 -0.22704159 0.15679649
0000e0 5e 2d 22 3e 87 e1 b4 bd 49 32 d1 bd 0e 49 f4 3c
       0.15837619 -0.088320784 -0.10214669 0.029819991
0000f0 e0 a3 41 be 63 c4 34 be f1 86 df 3d 5d aa c6 3d
       -0.1891017 -0.1765304 0.1091441 0.09700463
000100 83 87 15 3e ea 5d b1 3d 58 d9 91 bd 6d c9 03 be
       0.14602475 0.08660491 -0.07121533 -0.12869807
000110 30 70 6f be c1 db b0 be db 30 bf 3d 7b 5e d8 3e
       -0.2338264 -0.3454266 0.0933549 0.42259583
000120 2b 19 60 3c 15 b9 e4 3c 6b 75 8e bd f7 ef 15 3e
       0.0136778755 0.027920285 -0.069559895 0.1464232
000130 53 0d 6d be 7e 67 a5 be 22 52 fb 3d 09 15 c4 bd
       -0.23149614 -0.3230552 0.12271525 -0.09574325
000140 29 e4 c8 3d 36 22 ed bd 58 89 d9 3d e0 00 3a 3e
       0.09809143 -0.11578791 0.10621899 0.18164396
000150 ea ef 40 3e 1f fd 74 3e 08 92 40 3e 3e ac 48 3d
       0.1884152 0.23924683 0.18805707 0.048992388
000160 ce a4 87 bd 86 db 1e 3e 1c 5a 8d 3e b4 0e ef 3d
       -0.06623231 0.15513429 0.2760781 0.11672726
000170 58 f7 b2 bc dc ed 19 3d 1b dd 86 bd d7 f0 12 3e
       -0.021846458 0.037580356 -0.06585141 0.14349686
000180 ad 8f 83 3b 9c ee 08 3e ac 1d 46 3e 40 fc 6e 3e
       0.00401493 0.13372272 0.19347256 0.23338413
000190 6b 19 ba 3c 41 31 e0 3d f1 fa b2 bd 20 32 56 3c
       0.022717198 0.109468944 -0.087392695 0.013073474
0001a0 5e e1 c1 3d 45 2b 83 be a2 dd 26 be 5d 8b df 3d
       0.094668135 -0.2561895 -0.16295484 0.10915253
0001b0 f8 f2 ae bd 58 42 c6 3d b7 4b bd 3d e2 22 6e be
       -0.08542436 0.09680623 0.09242957 -0.23255494
0001c0 10 a5 c8 3c 0a 55 11 be fc e1 3b be e9 e9 6f bd
       0.02449277 -0.14192596 -0.18347925 -0.058572683
0001d0 de 50 6c bd 22 05 1f bd fa 8a c1 3d 42 1e 4d 3e
       -0.05769431 -0.038823254 0.09450336 0.20031074
0001e0 83 32 b9 3d ea 4a 8f bd 51 94 9b be 07 7b 2a be
       0.090428375 -0.069967106 -0.30386594 -0.16648494
0001f0 05 34 b1 bd d0 ea dc bc d3 99 05 3e de b6 06 3e
       -0.086525 -0.026967436 0.1304696 0.13155696

gats.gnn_layers.1.gat_conv.attn_r f4 [1, 4, 32]
000000 9e a0 65 bc 57 9a ed bd 5f c6 02 3e f0 2d 3b 3e
       -0.014015345 -0.116017036 0.12770985 0.18279243
000010 d2 43 16 3e 9b c9 22 be c4 2e d2 bc 94 a3 03 bd
       0.14674309 -0.15897219 -0.025657065 -0.032138422
000020 12 c2 12 3d 69 c7 32 be f9 c9 28 3e 88 00 1c be
       0.03582961 -0.17458881 0.16483296 -0.15234578
000030 86 a2 0e be d9 c3 2c 3e f8 3e 6e bb 34 e5 ac 3d
       -0.13929185 0.16871585 -0.003635345 0.084421545
000040 cd 40 a3 bd 3c f6 64 bd 55 bf 7a 3e fc e2 b0 3d
       -0.07971344 -0.05589889 0.2448705 0.08637044
000050 2a f2 98 be 9b f7 7a be 72 ef 91 3d e3 75 d5 bd
       -0.29872257 -0.24508516 0.07125749 -0.10422876
000060 f9 51 6f bd ff 12 08 be 37 c5 26 3e e2 de 10 3e
       -0.058427785 -0.13288496 0.16286169 0.14147523
000070 2e 54 bd 3b 3e cc 7e be 2b ac d8 bc c8 28 81 3c
       0.0057778573 -0.248826 -0.026449284 0.015766516
000080 21 b7 10 3e 01 53 6f 3c 02 dc fc bd 37 28 80 bd
       0.14132358 0.014607192 -0.12346651 -0.062576704
000090 67 28 80 be b5 e1 90 3d cc 99 9c bd 46 c7 12 3c
       -0.25030825 0.070743 -0.07646522 0.008958643
0000a0 71 35 75 3e 61 1d 5f 3e 3a e6 bb bd 81 7d cc 3e
       0.23946168 0.21788551 -0.091747716 0.39939502
0000b0 54 f4 51 be 40 66 29 bd 8b 54 37 3e 6b f8 77 3e
       -0.2050336 -0.04135728 0.17903344 0.24215858
0000c0 c5 de 47 be 4c 6d 60 bd 0f fa 54 3e ba 35 84 3e
       -0.19518574 -0.054791734 0.20798515 0.2582224
0000d0 be c6 cd 3d 62 e1 94 bd 08 b6 b0 3c 4d 7b 61 be
       0.10047673 -0.07269551 0.021571174 -0.22019692
0000e0 01 73 aa bd ab 61 09 3e ef 79 c7 bd 4f 4d 14 3e
       -0.083227165 0.13416164 -0.09740054 0.14482616
0000f0 e2 73 c6 3b fe b4 fb bd 24 ea 25 be 68 ce c4 bc
       0.006056295 -0.12290381 -0.16202599 -0.024024203
000100 3a 0b 9d 3d 7e 2b 58 3d 6e 7b 8e bd 5d 1b 93 3d
       0.07668157 0.052775852 -0.06957136 0.071829535
000110 99 c2 c4 bd 7f d4 2e be bd b0 97 3d 96 37 a7 3d
       -0.09607429 -0.17073248 0.07406757 0.08164899
000120 3c 59 66 be ad e4 f3 bb 8b fc 90 bd 4b 19 a6 3d
       -0.22494978 -0.0074430318 -0.07079419 0.08110293
000130 44 82 a5 3d 93 ed 80 3b a1 84 07 3e 48 20 11 be
       0.08081487 0.003934571 0.13234188 -0.1417247
000140 50 17 d8 bd 6f 57 11 be bf c9 4f be 7a 7d 42 3e
       -0.105513215 -0.1419351 -0.20291804 0.18993178
000150 bc ec 56 3e f3 54 9a be d7 4f 01 bd 4f 48 9a 3e
       0.20988744 -0.30142936 -0.03157028 0.30133292
000160 64 13 7d 3e f3 34 e7 3d 63 21 e6 be 40 57 79 3e
       0.24714428 0.11289396 -0.44947347 0.2434969
000170 58 6f 15 be 76 88 07 3d c1 0c 43 3e e5 86 67 be
       -0.14593256 0.033089124 0.19047834 -0.22610052
000180 9b 76 98 3b e0 cf 36 be c2 fd ee 3d 52 3c a5 3d
       0.0046528107 -0.17852736 0.11669494 0.08068146
000190 6f 21 51 3e 95 8b 05 be eb 00 45 be 84 99 c5 3d
       0.2042291 -0.13041528 -0.19238631 0.096484214
0001a0 c3 99 75 3e 0a 68 a1 bd 31 19 1d be 88 28 89 3e
       0.23984437 -0.07881172 -0.15341641 0.26788735
0001b0 4a cd 38 be 61 4a ae 3e cb 8d 4e bd a0 30 96 3e
       -0.18047062 0.34041122 -0.050428193 0.29333973
0001c0 fe 60 9d bc 26 a4 b2 bd 78 18 4b 3d de cc 6b bd
       -0.019211289 -0.08722715 0.049583882 -0.057568423
0001d0 7f 0e e9 be fe 3e 1d bd e3 6b 5a be b4 99 59 be
       -0.45518872 -0.038390152 -0.21330218 -0.2125004
0001e0 e2 fa bf bd 1c 49 2e 3e 94 a2 0a 3d b7 f3 16 bd
       -0.09374024 0.17020077 0.033846453 -0.03685352
0001f0 e8 a5 78 3e 97 f2 28 3e a7 1c 67 3d 65 ad 8e bd
       0.24282038 0.1649879 0.05642381 -0.06966666

gats.gnn_layers.1.gat_conv.fc.weight f4 [128, 128]
000000 0b d5 1c 3e b3 77 8e bc 6d 28 33 be c6 06 44 3e
       0.15315644 -0.017391061 -0.1749589 0.19143209
000010 65 a1 44 3e 0d bf d7 3d 2c dc 51 3e 38 c9 b6 3d
       0.19202192 0.10534487 0.20494145 0.08925098
000020 47 20 35 be 8d 2c 20 3e c5 68 ef bd 01 29 5d 3b
       -0.17688094 0.15641995 -0.11689905 0.0033746364
000030 5c e3 1b bc eb 7a 0b 3c ad 60 4a be e6 2f 7d 3d
       -0.009514656 0.008513193 -0.19763441 0.061813258
000040 78 2d 62 3e 72 e7 34 3e 80 fb 9c bd f8 dc 39 bd
       0.22087657 0.17666414 -0.07665157 -0.045376748
000050 7c e2 cf bd 22 06 97 3d 97 c2 37 be af 7f 06 3e
       -0.1015062 0.073742166 -0.17945324 0.13134645
000060 9a 85 e0 bd 83 23 08 3e cc ed bd be 10 94 0c be
       -0.109629825 0.13294797 -0.37095487 -0.13728356
000070 3e c8 f7 bc 51 93 18 be 0d 5d 23 3e 09 e0 48 bc
       -0.03024685 -0.14899947 0.15953465 -0.012260445
000080 d8 7d 8d bd 54 ef c7 3c 98 23 93 3d 95 78 cb bd
       -0.069087684 0.024406113 0.07184523 -0.099351086
000090 6f 9d 8f 3c 8c 0f fc 3d 75 f0 81 3e 8d 80 f4 3d
       0.017531125 0.12307653 0.25378767 0.119385816
0000a0 eb b9 aa 3c 8f 34 dd 3d 3f e3 29 be 5a a4 a8 3d
       0.020840606 0.108010404 -0.16590594 0.082344726
0000b0 e4 48 83 bd b8 ab 73 bc 86 3a 0d bd 77 c1 37 bd
       -0.06410387 -0.014872484 -0.03447964 -0.044862237
0000c0 86 aa a1 3d c0 77 15 3c a1 51 02 be 00 a2 e2 3d
       0.07893853 0.009122789 -0.12726451 0.11066055
0000d0 5b 7a 77 3e 18 ee eb bd 8f 43 29 bd a4 f1 b5 3b
       0.24167769 -0.11520022 -0.041324195 0.0055524874
0000e0 c0 76 36 be 7d 6b 7c 3c df fd af be 02 f0 6c be
       -0.17818737 0.015406487 -0.34373376 -0.2313843
0000f0 8f a3 7f bb 9b 69 d6 3d 82 ed c6 3d fe 25 07 be
       -0.00390074 0.104693614 0.0971327 -0.13198087
000100 0d 0c 06 be 6d 21 60 bd d7 4c 4e bd 12 12 4f 3e
       -0.13090535 -0.054719377 -0.05036625 0.20221737
000110 44 d0 1a 3e d5 bb 8b bd 25 2c 94 bd cd a3 d6 3d
       0.1511851 -0.068229355 -0.072349824 0.10480461
000120 06 3a 9b 3e a8 4f f9 3c 96 bc 84 ba 49 af 6b 3e
       0.30317706 0.03043349 -0.0010127004 0.23016085
000130 5c 69 49 bc 84 22 00 3e 78 b3 ea 3d 1c 7c c7 bc
       -0.012293186 0.12513167 0.11460012 -0.024351172
000140 f4 de bd bc 01 02 11 3e b0 8a 08 bd 71 56 ed 3c
       -0.023177601 0.1416092 -0.033335388 0.028971883
000150 c9 63 a7 3d 01 1a ae bd 88 4d 7f bd 92 dd c1 bd
       0.081733294 -0.085010536 -0.0623298 -0.09466089
000160 94 16 cf bd b2 5a bc bc 2d 14 66 bc 5b 9d 17 be
       -0.10111728 -0.022992466 -0.014042896 -0.1480612
000170 d6 ef df bd 9a 54 43 be 7d 82 94 3d 0f 95 d3 bd
       -0.10934417 -0.19075242 0.07251451 -0.10331165
000180 05 31 fb bd 00 b7 cd 3b 5d c1 f0 3d 5c 24 6b 3d
       -0.12265209 0.006277919 0.11755631 0.057407722
000190 75 44 51 bd 70 b5 66 3d 20 1f ae 3d 1a 97 f2 bd
       -0.051090676 0.056325376 0.085020304 -0.118452266
0001a0 3c f5 4b 3e a7 16 92 bd 4a 5b 93 3d e7 33 73 bd
       0.19917768 -0.07133227 0.071951464 -0.05937567
0001b0 2e b7 7e bd 1a e1 22 be b4 46 36 bd 27 d3 82 3d
       -0.062186413 -0.15906182 -0.04450102 0.0638793
0001c0 44 78 8a bd 8b 8a 91 3d 31 f8 2a bd 2b 78 86 3c
       -0.0676122 0.07106503 -0.0417406 0.016414722
0001d0 59 26 f7 bb ca de 39 3b 76 76 e7 3c d0 2c 2e 3e
       -0.007542413 0.0028361552 0.028254729 0.17009282
0001e0 a7 aa 8b 3c d2 81 90 bd 84 e3 ea bd 0f 52 0f 3e
       0.017049147 -0.07056011 -0.114691764 0.13996147
0001f0 19 7c 77 bd d7 f7 11 be c4 72 da bc 1d 20 4e be
       -0.060421083 -0.142547 -0.026666053 -0.20129438
000200 03 49 b9 3d 99 85 e0 bd 69 46 db bd ff b0 89 bd
       0.09047129 -0.10962982 -0.10706789 -0.067232125
000210 f1 f3 05 be 6e 95 b2 bd 9e 43 9b bd 2b 9c dc 3c
       -0.13081338 -0.08719908 -0.07581256 0.026929935
000220 78 a0 00 bd 28 f7 99 3d 29 b3 26 be 44 a9 89 3d
       -0.031403035 0.075178444 -0.16279282 0.06721738
000230 36 62 c0 bd 7d 53 81 be 56 f4 a6 bb a8 18 7d bc
       -0.09393732 -0.2525901 -0.005095045 -0.015447773
000240 39 81 a8 bd 36 f7 55 3b f3 d2 cf bd 13 4f 96 3d
       -0.08227772 0.003264857 -0.10147657 0.07339301
000250 5d 87 eb 3d af 20 30 3e dd 59 c7 3b 1d 32 99 bd
       0.11500428 0.17199968 0.0060837106 -0.074802615
000260 fc 50 63 bc 18 11 96 bc fb 64 6a 3d 3a 50 85 3d
       -0.013874289 -0.018318698 0.05722521 0.065094426
000270 8d c8 c2 3d 82 f0 59 bc dc a4 73 3d 69 cf 39 bb
       0.09510908 -0.01330197 0.059483394 -0.0028352386
000280 3a af 9b bd 06 53 7d bd 45 9b 53 3d f7 c6 6a 3e
       -0.07601781 -0.061846755 0.05166175 0.22927462
000290 cf 72 08 be b9 cf 29 bd 6b 51 a0 be be 54 4e 3e
       -0.13325046 -0.041457865 -0.31312117 0.20149514
0002a0 1f 9f 3e bd bb e5 15 bd 86 49 3c 3e 67 bc ac 3c
       -0.04653847 -0.03659604 0.18387422 0.021085931
0002b0 e9 cf cc 3d ed 0f 32 3d 1a 48 2e 3e 3f 84 46 3d
       0.10000593 0.04347222 0.17019692 0.048465963
0002c0 db 37 4d bd 3c 98 18 3e b0 e1 4b 3e fb 8d 71 be
       -0.050102096 0.14901823 0.19910312 -0.23589318
0002d0 f8 69 b5 3c 29 bf b9 bc 8f e3 cf 3d 20 8a d9 3c
       0.022145256 -0.02267416 0.10150825 0.026555121
0002e0 b7 c7 c7 bd c9 73 bc bc 79 d9 a4 bd 98 0f de bd
       -0.097548895 -0.02300443 -0.08049292 -0.10842818
0002f0 1e 05 37 be fa 76 21 3c 62 47 3e 3c 6c 99 10 bc
       -0.17873046 0.009855026 0.011613699 -0.008825641
000300 3a a0 14 3d e2 0d a4 3d d3 22 b5 bd e8 13 37 3e
       0.036285616 0.080104604 -0.08844533 0.17878687
000310 7a 36 9c 3d 20 39 25 3c 8f 1f 64 3c c4 4d 8f be
       0.07627578 0.01008442 0.01392354 -0.27989018
000320 58 6d d0 bc 1f b5 2e 3e c5 6f 02 bd 2c c0 e0 bd
       -0.025442764 0.1706128 -0.031844873 -0.10974154
000330 8d 2e fa 3d c6 5a 57 3b 4d 30 1b be 15 c2 33 3c
       0.1221591 0.0032860502 -0.15155144 0.010971566
000340 9a d3 71 3c 0e 10 6e 3e c4 71 20 bd 07 a6 68 3e
       0.014759922 0.23248312 -0.039170995 0.22719584
000350 2f a0 96 3d 49 3c 9c be b0 82 84 be 97 a3 3d ba
       0.07354771 -0.30514744 -0.25880957 -0.00072341546
000360 d1 0a 20 bd eb 97 35 bc 6f ea 03 bd a3 5e 7d bd
       -0.039072815 -0.011083583 -0.032205995 -0.06185783
000370 e5 c0 9f bd ae 4f 04 3d 8f 6e bf bc 8b b1 dc 3d
       -0.078004636 0.03230255 -0.023368148 0.10776051
000380 cf b3 18 bc ab c2 85 be a7 1a 86 3d fa 58 ee 3d
       -0.009320213 -0.26125082 0.06548052 0.11638065
000390 b2 d4 d5 bd 85 4b af bc e3 f2 c5 bc dc 25 0d 3e
       -0.10440959 -0.021398315 -0.024163669 0.13783973
0003a0 69 bd 54 3d 76 93 5c be 74 82 c5 bd da 35 53 bd
       0.051938448 -0.21540627 -0.096440226 -0.05156503
0003b0 58 77 87 3e 0a 62 81 bd 2d 45 33 be 12 ef 7c 3d
       0.2645824 -0.063175276 -0.17506857 0.061751433
0003c0 ea 2f 1f 3e fb 6b 8b bb 82 43 20 be 29 19 d8 3d
       0.15545622 -0.0042548156 -0.15650752 0.10551674
0003d0 49 c9 26 3d 7e 2e 30 be 24 43 31 be 83 89 8b 3e
       0.040719304 -0.17205235 -0.17310768 0.2725335
0003e0 32 58 28 be a2 f4 52 bd d4 a4 ce bd b8 e8 03 be
       -0.16439894 -0.05150283 -0.10090032 -0.12881744
0003f0 db 84 4e 3d 6c ad 9a bc d6 5a ed bd c9 ec 5e bc
       0.05041967 -0.018881522 -0.11589591 -0.013606259

gats.gnn_layers.1.gat_conv.res_fc.weight f4 [128, 128]
000000 0e 86 0c bd d5 0a 37 be 72 fe c4 3d 35 d5 b0 bd
       -0.034307532 -0.17875226 0.09618844 -0.08634416
000010 40 c3 f2 bd d0 e1 11 be c3 61 9a bc 0a 38 e7 bd
       -0.11853647 -0.14246297 -0.018845445 -0.112899855
000020 77 8c 0b 3e 8b cb 91 be 37 f6 6b 3e ff 5a 1f be
       0.13627802 -0.28475603 0.23043142 -0.15562056
000030 d8 b3 48 be 16 07 ca 3c 1c 75 16 be a5 88 08 3e
       -0.19599855 0.024661582 -0.14693111 0.13333376
000040 60 65 36 3d 3f 1f b8 3c ba 14 6e 3d 12 63 d2 3d
       0.044530272 0.022475837 0.058125235 0.102728024
000050 7d 4b 09 bd 0d 06 54 3e 88 23 15 3e 7b 80 0c bd
       -0.033519257 0.20705433 0.14564335 -0.034302216
000060 5c 18 89 3c d3 20 f7 3c 3d db 2b be 92 79 d2 bc
       0.016735248 0.030167019 -0.16782852 -0.025692735
000070 eb 14 1a 3d f0 47 ba 3c e7 07 91 3e 76 1f 2c bd
       0.037617605 0.02273938 0.28326342 -0.04202219
000080 e9 c7 9d ba b5 4a 32 3d 4e 4d 00 be 1f 43 a0 bd
       -0.0012037727 0.043528277 -0.1252949 -0.07825302
000090 81 f7 e4 3c bd 18 1f 3e 7c f0 56 3d ce bf 1c bd
       0.02795005 0.1553678 0.052475438 -0.038268857
0000a0 48 a1 9e bd 1b 3d 61 3d 78 50 66 bd 05 9a 88 3d
       -0.07745606 0.054989915 -0.056229085 0.06670002
0000b0 9f 6e 3b be 5f d2 d1 bd 8a 1d 09 3e ae 76 73 bd
       -0.18303917 -0.10245203 0.13390175 -0.059439354
0000c0 ef 76 f0 bc db 16 9e 3d c1 7e ae bd c2 63 b2 3d
       -0.029353587 0.07719203 -0.0852027 0.087104335
0000d0 35 43 d7 3d 54 d6 a8 bc 61 d4 11 3e 49 b2 d1 3d
       0.105108656 -0.020610012 0.14241172 0.10239083
0000e0 b2 5e fb bd a8 b3 84 bd 41 ac d0 3c b8 c1 be 3d
       -0.12273921 -0.06479579 0.025472762 0.09314293
0000f0 6c dc 0d 3d 83 a3 bf 3d ff 2a 36 bd 82 cb 80 be
       0.03463404 0.09357359 -0.044474598 -0.25155264
000100 04 b3 b7 3d fb d9 e2 3d c1 59 95 bd 83 9a 89 3c
       0.089696914 0.11076733 -0.0729251 0.01679731
000110 41 72 79 3c d7 c8 82 be 04 43 96 3d b7 98 a2 3d
       0.015224994 -0.25543854 0.07337001 0.07939284
000120 f1 46 02 be 45 80 73 3c 38 9b 9c bd 69 8b cb 3c
       -0.12722374 0.014862125 -0.07646793 0.02484675
000130 e5 1e 05 3e 90 40 55 bd 02 b4 1e bd 4d 8c 7c bc
       0.13000067 -0.052063525 -0.038745888 -0.01541431
000140 57 c8 9d 3e 0b 50 af 3e ad bc a1 bd 66 32 ef 3d
       0.3081691 0.34240755 -0.07897315 0.116795346
000150 33 56 82 3d b7 9d 88 3e b2 42 51 be de 43 e7 bd
       0.063640974 0.26682827 -0.20435598 -0.112922415
000160 86 08 12 be 22 54 3d 3e d6 9d 90 39 b8 a7 2a 3e
       -0.14261064 0.18489125 0.00027583417 0.16665542
000170 d2 e2 12 3e e9 51 88 3e ad 02 e5 3b c5 b2 ab 3c
       0.14344338 0.26624992 0.0069888444 0.020959267
000180 ee 67 67 bc 09 d3 92 be 47 30 f2 bd 88 6c a9 bd
       -0.0141239 -0.28676632 -0.118256144 -0.08272654
000190 51 ce b2 3d 51 5a e5 bd fc a8 3e 3e d0 d9 2a bd
       0.08730758 -0.11198867 0.1861915 -0.04171163
0001a0 8e 6f b7 3d 9f 05 7c 3e b9 94 90 bd fc 85 fa ba
       0.08956824 0.2461152 -0.070596166 -0.0019113417
0001b0 c3 7a a6 bd a0 2b 55 3e dd f3 57 3e 81 39 c9 3b
       -0.08128884 0.20817423 0.2108912 0.006140888
0001c0 4c dc 51 3d a6 00 52 be c8 c8 00 be cc 07 db 3d
       0.051235482 -0.2050806 -0.12576592 0.106948465
0001d0 d6 f0 ed bd 1f f6 8d 3e 18 cb ad 3b ff 48 80 3e
       -0.116182014 0.27726838 0.0053037517 0.25055692
0001e0 93 71 8a 3d 65 01 03 3d 89 9c 53 3e 69 8f db 3a
       0.06759944 0.03198375 0.20665182 0.0016751114
0001f0 16 e1 e3 3c 3a ed 13 be 41 84 cd bc 05 2b f9 3d
       0.02781729 -0.14445964 -0.025087478 0.121664084
000200 a3 a1 42 be 1e 8e 18 3d 4d f1 17 be 17 04 4c bd
       -0.19006972 0.03724491 -0.14838143 -0.049808588
000210 10 21 37 3e d3 07 18 be 0d 8f 72 3e 24 21 fa 3d
       0.17883706 -0.14846735 0.23687382 0.12213352
000220 a1 90 f8 bd 9d e1 ab bd 60 b2 44 be 2d 7c 3e be
       -0.12136961 -0.08392642 -0.1920867 -0.18602057
000230 ca a1 bc bd be a6 55 3d 04 21 ee bd a7 f1 01 bc
       -0.09210546 0.05216097 -0.11627391 -0.00793115
000240 4b 8b d5 3d b2 67 47 bd b9 fc aa bc 1e ff da 3c
       0.10426959 -0.048682876 -0.02087246 0.026732977
000250 30 9c d1 3c 9d 0d 36 bc b5 70 6f 3d 28 2c 00 3e
       0.025587171 -0.011111644 0.058457095 0.12516844
000260 89 28 79 3d 39 5c 25 3d 21 07 88 3d 4d e7 14 be
       0.060829673 0.040371154 0.06641985 -0.14541359
000270 6b f0 f0 bd d9 c4 41 bd 7e 6c 84 3e 01 3f 03 3e
       -0.11764606 -0.04730687 0.25864023 0.12817003
000280 2e 56 0d 3d d2 5e ed 3d f1 e4 c5 bd 41 11 a1 3e
       0.034506015 0.11590351 -0.09662808 0.31458476
000290 87 7d 41 be af 81 d5 bd bf 7f ce 3d 6b ff 99 3d
       -0.18895541 -0.10425126 0.100829594 0.0751942
0002a0 7c f9 f1 3d de 8b 66 be 0a c1 2a be b6 1f 6f 3d
       0.118151635 -0.22514293 -0.16675201 0.05837985
0002b0 1b a7 07 3d 41 cb 0f be 45 48 73 3e 2c 93 06 bc
       0.03311835 -0.14042379 0.23758037 -0.008213799
0002c0 35 17 93 3d e8 84 1d 3c 86 a6 07 be 3e fa 06 be
       0.07182161 0.009614207 -0.13247117 -0.13181397
0002d0 84 ff 08 3e 67 22 9b bc 2e 3e 4c be aa c2 6a bc
       0.13378721 -0.018937303 -0.19945595 -0.014328638
0002e0 3d 4e 72 3d ff ca ec 3d 54 39 55 bc c2 2b 44 3e
       0.059156645 0.11562156 -0.013014156 0.19157317
0002f0 fb b8 3d 3e 99 48 89 3c ab 65 bb be 4a a2 a0 bd
       0.18527596 0.01675825 -0.36601004 -0.07843454
000300 59 ab 05 bd 2e 7c 20 3d d3 8c e0 3d c3 3a f1 bd
       -0.032634113 0.039180927 0.1096436 -0.11778786
000310 7e 53 a5 3d 2a b7 4f be 9d 8f 46 be e3 4a 2c 3e
       0.080725655 -0.20284715 -0.19390722 0.16825442
000320 ec 6b 4d bd 0d 2a ae 3d 45 cb 28 3e 4b c1 bb bd
       -0.05015175 0.08504114 0.16483791 -0.09167727
000330 01 11 be 3d 72 09 b4 3d 2c 8f bd 3d a1 42 0d 3c
       0.09280587 0.08790864 0.092558235 0.008621843
000340 8b b2 26 3e 58 c4 04 3e e5 66 e7 3d a8 9f f9 3d
       0.16279046 0.12965524 0.112989224 0.12188655
000350 79 9e d7 bd 41 b3 e0 bd a9 42 b3 3e 90 9b e4 3d
       -0.10528273 -0.1097169 0.35011795 0.11162484
000360 be 88 0c 3d 16 91 14 bc 11 3c 02 3e c9 8f 9e 3d
       0.034310095 -0.009067794 0.12718226 0.077422686
000370 d7 21 22 3d b6 9c 9b bd 55 22 82 3d 53 f5 85 bc
       0.039583053 -0.075982496 0.063542046 -0.016352331
000380 87 aa 72 3b 33 a3 24 be 0e 83 12 3d 2c 6e 33 3c
       0.0037027912 -0.1607788 0.035769515 0.01095156
000390 6e 5e fd 3d 1d 1a 34 3d 94 8f 5a 3e 37 43 2d 3e
       0.12371527 0.043970216 0.21343833 0.16920172
0003a0 08 ba 6a 3e d0 08 94 3e 02 3a 13 bd 73 81 4f bd
       0.22922528 0.28912973 -0.035943992 -0.05066056
0003b0 7b 38 c9 bd de 91 ef 3c 81 88 71 be 96 9b eb bc
       -0.09825226 0.02924436 -0.23587228 -0.028760713
0003c0 46 fd 71 3e 71 a1 89 be 32 d3 12 be 02 f7 56 3d
       0.23631772 -0.26880983 -0.14338377 0.05248166
0003d0 e4 87 3b be 56 25 26 3d bd 77 f7 3d cd d2 02 3e
       -0.18313557 0.04056295 0.12083385 0.12775727
0003e0 67 f4 3b bd bf 91 82 bd b4 35 29 bc b2 e9 1f bc
       -0.045887377 -0.06375455 -0.010327745 -0.009760307
0003f0 38 61 f7 bc 44 1d 17 be 18 03 98 bd f3 69 bf 3c
       -0.030197725 -0.14757258 -0.07422465 0.02336595

gats.gnn_layers.2.gat_conv.attn_l f4 [1, 4, 32]
000000 2e 7a 50 3e fa 70 5f 3e bd 36 61 3d 11 09 bc 3e
       0.20359108 0.21820441 0.054983843 0.36725667
000010 b8 3d f0 3d 0d de 32 bd 29 a3 b1 3d d8 23 34 bd
       0.11730522 -0.043668795 0.086736985 -0.043979496
000020 30 87 82 3e df 7e 15 3e 73 d2 93 3e 14 92 02 be
       0.25493765 0.14599179 0.28871498 -0.12751037
000030 58 fc a9 bc 9c 70 af bd 5c 53 e5 bd 4e 09 36 be
       -0.02075021 -0.085664004 -0.1119754 -0.17776987
000040 9a 66 66 3d 5a 5e 14 bd 9f 98 21 3e bd 7a 7e 3e
       0.056250192 -0.036222793 0.15780877 0.24851508
000050 ac a1 c7 3c 78 2e 35 bd c2 af ef bc ea 34 d6 3c
       0.024369083 -0.04423377 -0.029258613 0.026148278
000060 94 55 17 3e 08 ce 51 be 06 e0 c3 be ca 7f 7e be
       0.14778739 -0.20488751 -0.38256854 -0.24853435
000070 3d 08 92 3c 9e 05 7e bb 67 8e ad 3d e5 87 37 be
       0.017826194 -0.0038760672 0.08474427 -0.17922933
000080 18 1b cf bd a2 46 e7 3d cf 33 01 be aa f8 7f 3d
       -0.101125896 0.11292769 -0.1261742 0.062493004
000090 4c 46 39 3d 2b 16 81 be 4d 65 04 3e 32 a7 73 3e
       0.045233056 -0.25212225 0.12929268 0.23794249
0000a0 2f d8 e9 3d 75 ce 46 3e 47 0b 25 3d 8a fb d2 bd
       0.11418187 0.19414695 0.040293958 -0.103018835
0000b0 2a 7b 94 3c 47 6c 78 bc cb e5 e7 bd 7f 90 ac bc
       0.018125135 -0.015162534 -0.113231264 -0.021064995
0000c0 4f 51 b7 bd c9 10 0e 3e d6 75 34 3e e0 54 33 3d
       -0.08951055 0.1387359 0.17623076 0.043782115
0000d0 14 49 3f 3e 5d 67 d0 3c 45 66 1f 3d b7 7e 37 be
       0.18680221 0.025439912 0.03891589 -0.17919432
0000e0 56 02 a5 3d 8f 4a 87 bd ad f2 56 bc 20 c9 e2 bd
       0.08057086 -0.06606018 -0.013119382 -0.11073518
0000f0 36 ba 05 3e 76 32 d5 3c d8 d9 7e 3d a9 bb a8 3e
       0.13059315 0.026025038 0.06221947 0.32955673
000100 6a b8 f5 bc 77 a7 40 bd b7 9b 04 be bc cb b4 bc
       -0.029995162 -0.047034707 -0.12950025 -0.022069804
000110 cf fe 28 bd 52 f9 09 be 70 8c 01 bd 71 3b 85 be
       -0.04125863 -0.13474014 -0.031628072 -0.26021913
000120 43 f1 ae bd f4 c0 5f 3e f6 ac 93 3d 37 37 06 3e
       -0.08542111 0.2185095 0.07210724 0.13107
000130 63 32 48 3e 99 52 89 bd 54 26 8d be 55 f5 f9 bd
       0.19550471 -0.067052074 -0.27568305 -0.122049965
000140 c4 7c 6e 3e 95 ed 58 3e 67 85 a3 bb 0e 6e bf bd
       0.23289782 0.2118438 -0.004990268 -0.09347163
000150 c2 b4 49 3e a8 34 0d be 04 04 1f 3e 71 f0 2c 3d
       0.1969786 -0.13789618 0.15528876 0.04222149
000160 f9 e2 bf b9 7b c3 d8 bc 92 bb 79 be ed 73 dd bd
       -0.00036599467 -0.0264604 -0.24387959 -0.10813127
000170 20 25 ce bc 64 e5 06 3e 89 dd 1e be f5 19 08 3c
       -0.025164187 0.13173443 -0.15514196 0.00830697
000180 c5 42 c0 bc b9 e5 55 3d 25 13 08 be 36 1b 03 3d
       -0.023469338 0.052221034 -0.13288553 0.032008372
000190 1e 30 4c 3d ef 01 d3 bd f2 3d 92 3e 85 bf 8a be
       0.049850576 -0.10303103 0.28562886 -0.27099243
0001a0 8b 55 56 3e 24 2d e5 3d 63 ef cd bd 76 fe f0 3d
       0.2093107 0.111902505 -0.10055425 0.117672846
0001b0 ed c0 05 3e ae ac 66 be 58 92 df bc 77 99 85 bd
       0.13061877 -0.2252681 -0.027291462 -0.06523412
0001c0 95 5e c1 be 8f 96 a2 bc ad 2c 82 3c 35 f9 ad 3d
       -0.37767473 -0.019847183 0.015890444 0.08494798
0001d0 34 1c 2a be e3 51 12 bd 2c 72 45 be 80 3f e9 bd
       -0.16612321 -0.035722625 -0.19281834 -0.11389065
0001e0 68 97 09 bd 41 21 b1 3d ea a7 19 be 5d 21 17 3e
       -0.033591658 0.08648921 -0.1500546 0.14758821
0001f0 1a 02 97 3c 47 4f 65 be fc bb 47 3e 2f 43 c9 bd
       0.01843362 -0.22393523 0.19505304 -0.098272674

gats.gnn_layers.2.gat_conv.attn_r f4 [1, 4, 32]
000000 2c e4 b7 bd fd e2 a0 bb f9 60 05 be 82 73 47 be
       -0.08979067 -0.0049098716 -0.13025273 -0.19477656
000010 5e d8 68 be d8 a6 11 3e 6c ab 61 bd f2 f5 97 3d
       -0.22738788 0.14223802 -0.05509512 0.07419957
000020 91 a5 fe 3c 04 2f d2 bb 01 2e b1 bd 22 ec 19 3e
       0.031084808 -0.006414296 -0.08651353 0.15031484
000030 cd 16 52 be 25 44 f2 3c d8 77 3c be 04 28 17 3e
       -0.2051651 0.02957351 -0.18405092 0.14761358
000040 43 35 b6 3c d1 6a 08 bd b9 30 0e 3e 3b 81 60 3e
       0.022242194 -0.033304993 0.13885774 0.21924298
000050 18 ae 7b bd 5c 46 20 3d 4a 88 81 bd 47 1a eb 3d
       -0.061445326 0.0391296 -0.06324823 0.114796214
000060 1c 02 c3 bb e1 b8 ee 3d 7c fd 99 bd fa ab 62 bd
       -0.005951179 0.116563566 -0.075190514 -0.05533979
000070 c5 65 97 be ca 4e 7b bd 9e cc 1c bd 65 bd 92 bd
       -0.29569831 -0.061354436 -0.038281076 -0.071650304
000080 bf 5e b4 bd 9b 2d 28 3e d6 82 65 3e 68 d7 61 3d
       -0.08807134 0.16423647 0.22413191 0.055137068
000090 cd 96 c1 3d 80 ae af bd 33 c3 7d 3b 67 b7 99 bd
       0.09452591 -0.08578205 0.0038721084 -0.07505684
0000a0 65 f7 5a bd 3b 8b 8a 3d cf d2 e3 3d 12 a0 0d 3e
       -0.05345859 0.06764837 0.11124193 0.13830593
0000b0 32 57 9e bd e9 4a 51 bd 45 fb 27 be 98 02 45 3e
       -0.07731475 -0.05109683 -0.16404445 0.1923927
0000c0 c3 a4 28 3e 62 64 19 3e c4 10 3b 3d e1 cf 38 3e
       0.16469102 0.14979699 0.045670286 0.1804805
0000d0 9c 5d 27 3d fc ac 43 be 39 81 ac be f9 71 ea bd
       0.040860757 -0.19108957 -0.3369234 -0.1144752
0000e0 5d 22 01 bf ea 89 59 be 6a bf 49 bd 01 46 2c 3e
       -0.5044306 -0.21244016 -0.049254812 0.1682358
0000f0 45 c5 5c 3e 67 ac 82 be e0 1d 83 3e 0d c1 a5 bd
       0.21559627 -0.25522158 0.2560873 -0.08093462
000100 34 b4 af bd 33 7d 85 be 1f 93 df 3d 7e 27 45 3e
       -0.08579293 -0.26072082 0.10916733 0.19253346
000110 eb 87 20 be f3 4b 7d bd 27 2d 18 bd 2a de ee 3d
       -0.15676849 -0.06184001 -0.037152436 0.11663468
000120 36 9e 85 3d 1d 77 18 be a0 bc ba 3d a6 c0 a0 be
       0.06524317 -0.14889188 0.091180086 -0.3139698
000130 61 b0 99 3d 15 57 40 3d 18 12 87 be ee 63 d4 bc
       0.07504345 0.046958048 -0.26380992 -0.025926556
000140 8b dd 98 bb 6e c4 4e 3c b5 25 e4 bd 68 3c a6 3d
       -0.004665082 0.012620075 -0.111400045 0.0811699
000150 2c e2 31 be 41 13 81 bd 8b ee 8e 3c 9a 9f 8c 3d
       -0.17371434 -0.063025005 0.01744773 0.06866379
000160 e3 6b b9 3d 38 a0 9d 3e 5b 99 83 3c 96 03 57 be
       0.09053781 0.307863 0.016064337 -0.20997462
000170 7a 7d 2d 3d 5a 51 ec 3d b5 a7 d9 3c 1d 9a 58 bd
       0.042355992 0.11538954 0.026569227 -0.05288135
000180 6a 0f 98 be 0c 5b 12 bd e8 52 24 bd cb ad 21 bd
       -0.2969926 -0.03573136 -0.040118128 -0.039472383
000190 11 1a 3d bd c7 6d 2e be 1f 95 9f be 19 58 b7 3d
       -0.046167437 -0.17034064 -0.31168458 0.0895235
0001a0 d1 d3 a9 3e 5f bc a9 3d a9 31 9e bd a8 ff cf 3c
       0.33169416 0.08287882 -0.07724316 0.025390461
0001b0 68 af 80 3e c8 60 44 3e 0c 8d 73 bd 04 4d 4e 3e
       0.25133824 0.19177544 -0.059460685 0.20146567
0001c0 df f2 c3 bc f1 77 9f 3e ce bc e4 bd 6c 8b 7a bd
       -0.02391952 0.31146196 -0.11168824 -0.06116812
0001d0 09 2b 2c 3d 18 19 67 3e 94 ec 0d bf 1c 9b 03 3e
       0.04203323 0.22568166 -0.55439115 0.12852138
0001e0 86 83 33 3e e4 72 c0 be 25 62 8f 3c bc a3 21 3e
       0.17530641 -0.37587655 0.017502854 0.15785116
0001f0 00 83 00 be 9a f2 ef 3b 91 91 38 3d ec a5 3c bd
       -0.12549973 0.0073226215 0.045060698 -0.046056673
