models/1/GAT.pt (torch, 119651 bytes, 19 tensors)

gats.gnn_layers.0.gat_conv.attn_l f4 [1, 4, 14]
-0.7905028 0.2914875 -0.013761351 -0.1784436 -0.90123177 -0.227741 0.1942518 0.18655974
-0.047136284 0.0996217 -0.011392808 0.02165279 0.17559573 0.20828709 0.14699674 0.11469789
-0.20835978 0.15138139 -0.08950725 -0.30519488 0.30421668 0.64384997 -0.06079499 -0.2708533
-0.10477113 0.2984682 0.0066123353 0.18575124 -0.18128824 0.16890189 -0.48459348 0.20013565
0.042341355 -0.67159694 0.55025345 0.11274365 -0.2951803 0.093809545 0.2921886 0.088867575
-0.15288097 -0.10759046 0.1387867 0.012675236 -0.46160474 -0.2447944 0.21831419 0.02897664
-0.12782705 -0.19345732 0.33035645 -0.10788917 -0.056026235 -0.38221407 0.06343313 -0.06080751
00000000: 645e 4abf d93d 953e 4a77 61bc ebb9 36be
00000010: 20b7 66bf f034 69be f2e9 463e 8409 3f3e
00000020: fa11 41bd 7606 cc3d e6a8 3abc 3161 b13c
00000030: 5ecf 333e 3649 553e 5086 163e bae6 ea3d
00000040: 445c 55be b903 1b3e 944f b7bd 8142 9cbe
00000050: 4ac2 9b3e 5ad3 243f 2b04 79bd 49ad 8abe
00000060: 3f92 d6bd d3d0 983e 4aac d83b 9335 3e3e
00000070: a0a3 39be 9ef4 2c3e a31c f8be 5cf0 4c3e
00000080: 216e 2d3d c7ed 2bbf 69dd 0c3f 25e6 e63d
00000090: df21 97be 381f c03d bf99 953e 3400 b63d
000000a0: d48c 1cbe 6358 dcbd 1a1e 0e3e cbab 4f3c
000000b0: 7557 ecbe 62ab 7abe c18d 5f3e 6b60 ed3c
000000c0: 18e5 02be ad19 46be 7b24 a93e fff4 dcbd
000000d0: c47b 65bd 90b1 c3be 3be9 813d 4c11 79bd

gats.gnn_layers.0.gat_conv.attn_r f4 [1, 4, 14]
0.17959562 -0.26571462 0.060243275 0.20772262 0.05636774 0.1659532 0.09394358 -0.013666458
-0.15333298 0.20583718 0.294074 -0.2457876 0.038609065 -0.00861171 0.4165485 0.13081889
0.22904691 0.2453083 0.33264127 -0.13691024 -0.43802422 -0.14863822 0.19391105 -0.076773815
-0.02740151 0.12214804 0.23251607 -0.177448 0.38310707 -0.17158368 -0.42129198 -0.43243998
0.4073434 0.3664237 -0.25493369 -0.37955648 -0.39185178 0.29697964 -0.13191926 -0.38121024
-0.21974072 0.14232667 -0.28845543 0.40557197 0.08820061 -0.447359 -0.27264267 -0.15972808
-0.14791699 -0.059184898 0.12429598 0.25410917 -0.06713073 0.19923967 0.15761818 0.6615379
00000000: eae7 373e bf0b 88be a7c1 763d 3db5 543e
00000010: dce1 663d a3ef 293e 7e65 c03d 48e9 5fbc
00000020: 5203 1dbe fbc6 523e de90 963e bfaf 7bbe
00000030: 8a24 1e3d 2118 0dbc d845 d53e 63f5 053e
00000040: 468b 6a3e 1932 7b3e f54f aa3e 3332 0cbe
00000050: b644 e0be 9e34 18be 9e90 463e 973b 9dbd
00000060: 2279 e0bc c028 fa3d b118 6e3e eeb4 35be
00000070: 9c26 c43e a2b3 2fbe 95b3 d7be c668 ddbe
00000080: 508f d03e e39b bb3e ab86 82be 3a55 c2be
00000090: cca0 c8be b70d 983e d815 07be fd2d c3be
000000a0: b603 61be 15be 113e 6eb0 93be 21a7 cf3e
000000b0: 85a2 b43d 3d0c e5be d297 8bbe c28f 23be
000000c0: 8d77 17be dd6b 72bd e48e fe3d 991a 823e
000000d0: d67b 89bd 7c05 4c3e a966 213e 8c5a 293f

gats.gnn_layers.0.gat_conv.fc.weight f4 [56, 74]
0.13677831 -0.12735161 0.060147937 -0.22332504 0.15545513 0.043299284 -0.08713521 0.13940738
-0.13684365 1.5572364e-18 -3.3614754e-12 -4.573947e-11 -8.094362e-11 -5.6034266e-15 8.245251e-15 0.006464589
-7.3251435e-15 -9.147349e-13 -5.307735e-15 3.7965535e-14 -9.563722e-11 4.809987e-11 0.35693145 1.4591298e-16
1.663107e-11 2.7909346e-15 9.903274e-15 -0.2625203 1.0268143e-15 1.9945805e-15 -3.2688024e-15 -3.1136035e-11
2.0613856e-13 4.2774147e-15 -2.0037065e-18 -8.5177065e-12 1.7178749e-16 -8.7312544e-12 -8.054361e-12 3.548434e-14
-2.5021835e-16 -3.3716824e-16 -7.6307417e-19 7.662361e-20 -0.6471231 0.099709384 0.20011842 -0.061329804
-5.961439e-14 -4.254418e-15 2.0266664e-14 -2.9124113e-14 -6.17275e-16 1.4352038e-10 -0.05065544 0.08197354
-0.12932153 -0.30171233 -5.1048804e-15 -1.5422191e-11 -1.23104414e-14 -0.7992777 -4.811599e-11 0.3386729
0.20937918 0.01256199 -6.03284e-16 3.1608993e-14 -0.06163904 0.33126137 0.1701371 0.11889321
-0.17566538 3.7898054e-15 -0.10730434 0.18999091 -0.0033551955 0.0667776 -0.05072687 -0.22390117
-0.1393861 0.040796142 0.032067183 -3.9509666e-13 1.4768775e-15 8.089332e-15 -2.4145452e-09 2.4455009e-16
3.0522507e-14 0.13124971 5.4459675e-14 -4.4472846e-16 8.194044e-15 2.1606583e-10 -1.327491e-14 2.1591686e-09
-0.045826484 2.2178934e-11 4.2790437e-16 -1.0904585e-14 -7.2449525e-12 -0.034333926 6.7338615e-15 2.9968042e-13
-1.4722087e-14 -3.1546363e-16 -2.8645262e-14 -6.5795974e-16 -4.2911148e-12 -2.6134166e-15 -6.5027704e-16 -1.5399236e-11
7.044524e-13 5.420842e-14 -1.0100498e-11 -5.0397343e-12 4.5739474e-15 8.863242e-18 0.10785462 -0.22877127
-0.28324682 0.3527112 -1.5097744e-14 2.324118e-13 -1.8889851e-13 3.7546268e-13 -8.576351e-16 -3.6496634e-14
-0.04392324 -0.193962 0.07152039 0.44007438 1.39532305e-14 -2.0959376e-19 -1.2543448e-15 0.23699929
3.1679142e-15 -0.023647513 -0.06900815 0.11967395 3.504684e-10 9.6588836e-15 -0.2676258 -0.0012523787
0.2952271 -0.06488192 -0.17204773 -5.646424e-12 -0.06658115 0.14994697 -0.5808424 0.14109895
0.32507628 0.2058514 0.14277743 0.34949553 0.51271784 -1.1954137e-18 3.1205795e-14 -8.497709e-18
2.3454077e-11 8.5457227e-13 1.6818571e-15 0.4412262 -9.244753e-16 -7.760495e-15 7.7934725e-12 -1.2963196e-13
-2.9229877e-14 -7.3994437e-16 0.40527013 -2.5504376e-15 8.2966184e-16 1.629162e-12 -8.3145574e-11 -0.43313366
1.7933339e-09 -8.879893e-14 3.5966823e-15 2.893512e-14 1.1610464e-15 9.36927e-16 -3.9847306e-15 1.7365972e-18
1.0184708e-20 -5.4130654e-12 -1.1328725e-15 -2.8232457e-15 1.9014279e-16 5.9089156e-19 1.204529e-13 -1.3083302e-18
0.023073798 0.2431412 0.06905799 -0.07338587 -6.3921367e-13 -3.0986788e-15 3.569435e-14 -9.846384e-09
-5.4125537e-15 6.510674e-16 -0.12879524 -0.47371754 -0.09183371 0.038099524 -8.923262e-13 -5.636753e-10
2.6671649e-12 0.1791597 9.88941e-13 -0.12148289 0.07809453 0.16038062 -2.09237e-09 -9.898133e-12
0.06259701 0.07698651 0.09507318 -0.022498136 -0.17296469 3.93446e-08 -0.0906523 -0.0869432
-0.21137305 -0.08618076 0.09751106 -0.18663223 0.21181051 -0.053313266 -0.1669464 6.032645e-15
2.5995341e-14 -1.0400569e-12 -1.3538333e-12 1.0467992e-16 1.6717301e-15 -0.07340928 -9.916319e-15 -2.9510521e-19
2.231117e-15 2.1166356e-10 -9.787702e-16 -1.7817695e-16 -0.07394342 -2.4243793e-11 -3.2839412e-15 1.9780027e-20
2.5407393e-19 0.5431482 2.3741016e-18 2.5180558e-13 -2.9289918e-14 6.051267e-15 2.2041887e-16 -1.5517584e-09
00000000: 9d0f 0c3e 7668 02be af5d 763d 52af 64be
00000010: a12f 1f3e 975a 313d f273 b2bd cfc0 0e3e
00000020: be20 0cbe bace e521 f58a 6cac 112a 49ae
00000030: 35ff b1ae 7de2 c9a7 8288 1428 e7d4 d33b
00000040: 43f5 03a8 ccbc 80ab 373b bfa7 48fb 2a29
00000050: f84e d2ae a48b 532e b8bf b63e e939 2825
00000060: d749 922d a81b 4927 ca66 3228 1069 86be
00000070: c3fa 9326 84b9 0f27 c38a 6ba7 0ff0 08ae
00000080: 6517 682a 301c 9a27 f2d8 13a2 57d8 15ad
00000090: b80e 4625 139a 19ad 9eb1 0dad a9ce 1f29
000000a0: b63d 90a5 405d c2a5 4138 61a1 21ec b41f
000000b0: dca9 25bf 6f34 cc3d d8eb 4c3e f634 7bbd
000000c0: 5b3d 86a9 1448 99a7 bf8b b628 d129 03a9
000000d0: dbea 31a6 65cd 1d2f 147c 4fbd bee1 a73d
000000e0: dd6c 04be 0a7a 9abe 36ec b7a7 b0a7 87ad
000000f0: e4c3 5da8 779d 4cbf ca9d 53ae 8966 ad3e
00000100: 7f67 563e ced0 4d3c 81e2 2da6 b05a 0e29
00000110: 3879 7cbd 179b a93e 6c38 2e3e 497e f33d
00000120: a0e1 33be c98a 8827 61c2 dbbd fa8c 423e
00000130: d7e2 5bbb b2c2 883d fac6 4fbd 5946 65be
00000140: 3bbb 0ebe db19 273d e158 033d 6e6b deaa
00000150: 2ad7 d426 76b9 1128 21ed 25b1 39f9 8c25
00000160: 0e76 0929 5366 063e bb43 7529 2b2f 00a6
00000170: 5c9c 1328 2091 6d2f b823 6fa8 7f60 1431
00000180: 8db4 3bbd 8516 c32d 8aab f625 8670 44a8
00000190: bbe8 feac bba1 0cbd e99c f227 80b4 a82a
000001a0: d29a 84a8 37da b5a5 bd01 01a9 dca4 3da6
000001b0: edfa 96ac 0751 3ca7 fa6d 3ba6 ff73 87ad
000001c0: 2549 462b 0e22 7429 99b0 31ad e451 b1ac
000001d0: 38cb a427 7a7f 2323 e2e2 dc3d 0443 6abe
000001e0: ba05 91be 9096 b43e 07fd 87a8 12d6 822a
000001f0: 4aae 54aa e05d d32a 4d32 77a6 c15d 24a9
00000200: dbe8 33bd f99d 46be 4879 923d 6e51 e13e
00000210: eb5b 7b28 d471 77a0 28c5 b4a6 f1af 723e
00000220: b445 6427 6eb8 c1bc 2554 8dbd 9e17 f53d
00000230: 0bac c02f bdff 2d28 4006 89be db26 a4ba
00000240: 0228 973e d0e0 84bd 482d 30be 77aa c6ac
00000250: b35b 88bd b38b 193e 16b2 14bf 3e7c 103e
00000260: 6670 a63e b6ca 523e 3f34 123e 14f1 b23e
00000270: 7a41 033f 7469 b0a1 d589 0c29 4cc1 1ca3
00000280: e34d ce2d 6c8a 702b 9361 f226 67e8 e13e
00000290: 1e3b 85a6 f7cc 0ba8 ae1a 092d def3 11aa
000002a0: c1a3 03a9 4246 55a6 917f cf3e 45c7 37a7
000002b0: 3d22 6f26 bf48 e52b ccd6 b6ae b2c3 ddbe
000002c0: 5479 f630 19f5 c7a9 8a95 8127 ec4f 0229
000002d0: 0d53 a726 8106 8726 a790 8fa7 6523 0022
000002e0: 3a62 401e 8f74 beac 9e43 a3a6 b16f 4ba7
000002f0: 3f38 5b25 8166 2e21 2f9e 072a 5113 c1a1
00000300: 4305 bd3c 02fa 783e 476e 8d3d 554b 96bd
00000310: 33ec 33ab 8948 5fa7 c9c0 2029 db28 29b2
00000320: ff01 c3a7 4ba8 3b26 e6e2 03be 1b8b f2be
00000330: 5013 bcbd 3f0e 1c3d e12a 7bab 1ff1 1ab0
00000340: 5faf 3b2c a475 373e 5b2e 8b2b 05cc f8bd
00000350: 06f0 9f3d d13a 243e 5dc9 0fb1 3a21 2ead
00000360: dc32 803d 1aab 9d3d bab5 c23d 034e b8bc
00000370: a81d 31be d8fb 2833 eaa7 b9bd 470f b2bd
00000380: 2d72 58be 8a7f b0bd e1b3 c73d 851c 3fbe
00000390: dbe4 583e 035f 5abd fff3 2abe 5459 d927
000003a0: 2d25 ea28 0060 92ab fc88 beab 1e60 f124
000003b0: f4eb f026 9b57 96bd f3a2 32a8 0a33 aea0
000003c0: d8c4 2027 ffb9 682f 3f0e 8da6 8e6c 4da5
000003d0: a66f 97bd 2b40 d5ad 06a2 6ca7 2cd1 ba1e
000003e0: 91fa 9520 c30b 0b3f 832d 2f22 02c1 8d2a
000003f0: fae8 03a9 1605 da27 2b20 7e25 a545 d5b0

gats.gnn_layers.0.gat_conv.res_fc.weight f4 [56, 74]
0.23415811 0.10772882 0.026537163 -0.52814496 -0.14425403 -0.16493365 0.019859267 -0.030897228
-0.0076385746 -2.7133306e-12 -2.5154785e-14 -1.3772933e-13 -1.6647199e-12 2.578681e-15 2.2101053e-13 0.16550735
5.111331e-15 1.9650682e-15 2.422076e-15 2.841049e-14 5.1566616e-12 3.6324916e-14 0.15011564 2.8499687e-18
2.2258187e-12 1.5184765e-14 -2.3848997e-17 0.076763645 2.0666378e-10 -1.6633167e-11 -1.0059669e-14 1.8372246e-19
5.379538e-16 6.824102e-17 1.2082079e-14 -6.779147e-11 -4.735388e-12 -1.1208086e-15 4.4908154e-11 1.7462143e-18
5.2783994e-20 7.023146e-12 -3.101685e-14 -8.820201e-15 0.10102626 -0.1459864 0.28341845 0.26192337
-2.2809237e-16 4.1386355e-13 2.7716455e-14 -5.1438775e-12 -3.618714e-15 3.0736434e-14 -0.194511 0.056100342
0.086111374 0.011737445 9.196891e-16 5.977256e-15 2.2021116e-11 0.15145758 -7.703647e-12 -0.1461333
0.06411904 -0.08251413 -5.5350737e-12 -1.0673829e-15 0.026308654 -0.111327745 -0.018438142 -0.21903668
0.16334699 6.9902457e-15 0.14202458 0.1306356 0.058029063 0.289852 -0.028188523 -0.12611799
0.13818042 -0.04923158 -0.4130701 8.290883e-16 -2.385548e-16 -5.6085757e-13 1.1610052e-13 5.9718e-10
1.4432002e-18 -0.02148593 -2.2201373e-15 -1.5942259e-15 1.9810834e-15 9.05361e-13 6.038927e-16 1.2380194e-15
-0.19815302 7.4357444e-16 1.075924e-11 9.015595e-16 3.7034356e-15 0.111602075 4.556378e-12 6.206882e-17
-1.4085041e-19 3.1389856e-12 1.5043118e-15 1.7942831e-12 -1.0322909e-15 1.98019e-13 5.3948857e-16 -5.932844e-15
-2.6487071e-11 1.7241166e-15 2.6544728e-14 1.5301793e-11 -1.8593339e-12 9.867515e-15 0.0063435184 -0.012673376
0.053055357 -0.5270142 2.9365345e-14 9.705574e-15 -6.072422e-12 -1.0292226e-14 -2.7653577e-16 -3.346084e-14
-0.15883817 0.09602863 -0.053414106 0.29558274 -3.0587866e-11 -3.207651e-14 -4.0348846e-15 0.1098083
-9.262017e-13 0.23808683 0.05781543 -0.27480924 5.037485e-13 -1.7728208e-17 0.29613316 -0.28336364
0.039366398 0.20002834 -0.058146425 -2.2365973e-14 0.008383703 0.54286873 -0.24205615 -0.032338586
0.19117808 0.4023576 0.1255847 0.3181061 0.34036124 1.2830039e-13 -9.511513e-13 9.39319e-15
1.7688155e-15 5.592552e-17 -9.072526e-12 0.37845647 -1.1016017e-11 2.1451335e-10 3.147967e-12 -6.720256e-12
2.8106374e-15 -1.0483387e-17 0.33059093 2.3042874e-12 -3.3324376e-08 1.07316965e-14 2.0972726e-15 -0.34009987
-1.102709e-11 -5.818748e-16 7.1866527e-12 1.0564676e-07 1.5333304e-14 -1.1030583e-12 -1.0553295e-18 5.7817486e-15
4.2736583e-13 1.6051654e-13 -7.420889e-17 -9.5708076e-14 2.5915953e-12 -4.9066814e-15 -9.051488e-12 -5.296875e-19
-0.030927816 0.36530963 0.035180297 -0.0072531896 -2.8662883e-15 -1.6915431e-12 -2.0493847e-13 -4.792254e-19
-1.0884949e-15 -2.0484343e-16 -0.087676704 -0.19279963 -0.0073281047 -0.3784389 1.37758945e-11 9.662046e-14
-4.684543e-11 0.6545681 5.429364e-15 0.08072269 -0.17664382 0.16360384 6.64389e-15 -4.9161845e-16
-0.0029677898 0.07077649 0.0489198 0.056076773 -0.10842812 -1.2072034e-16 0.23854746 -0.30291912
0.13184704 -0.1851246 -0.14192833 -0.13786745 0.2097893 -0.33781496 -0.56023955 1.2326053e-13
1.06228055e-13 9.622468e-16 1.27157425e-14 -4.6216396e-15 2.5045614e-12 -0.016424626 -3.2844255e-14 -5.8134153e-16
1.5492803e-12 3.694065e-15 2.928954e-14 2.6942754e-15 0.00062138645 7.3624845e-16 -2.1499974e-10 -3.8529742e-11
-5.5764664e-09 0.23590985 -4.2293422e-15 9.019092e-16 1.9349876e-14 -1.0900511e-14 7.6959206e-16 -2.491312e-14
00000000: 25c7 6f3e eda0 dc3d 7764 d93c 8234 07bf
00000010: 54b7 13be 5ee4 28be e7af a23c 2f1c fdbc
00000020: 024d fabb 05ef 3eac fc92 e2a8 c711 1baa
00000030: db49 eaab 45d0 3927 f3d5 782a c27a 293e
00000040: b527 b827 1c99 0d27 6b87 2e27 21e6 ff28
00000050: 146f b52c c797 2329 eab7 193e 634a 5222
00000060: c9a0 1c2c afc5 8828 daf7 dba3 4236 9d3d
00000070: af3a 632f 904e 92ad 0938 35a8 b5e6 5820
00000080: fc0d 1b26 635a 9d24 c1a6 5928 3413 95ae
00000090: 959c a6ac 8a86 a1a6 1682 452e 0ed9 0022
000000a0: ef43 791f e01a f72c feaf 0ba9 ffe3 1ea8
000000b0: dbe6 ce3d 757d 15be 391c 913e d21a 863e
000000c0: 7e7c 83a5 06fc e82a cba5 f928 eefb b4ac
000000d0: bf60 82a7 b26c 0a29 e42d 47be 79c9 653d
000000e0: 295b b03d 6a4e 403c 8a8a 8426 755a d727
000000f0: 25b3 c12d b217 1b3e 2486 07ad f8a3 15be
00000100: d850 833d 2bfd a8bd 83bf c2ac 7ad3 99a6
00000110: 3f85 d73c cdff e3bd 960b 97bc 274b 60be
00000120: 6f44 273e a3d9 fb27 e46e 113e 57c5 053e
00000130: e2af 6d3d 7b67 943e 9eeb e6bc 1325 01be
00000140: 2b7f 0d3e 0ea7 49bd ed7d d3be ebf7 6e26
00000150: 7a84 89a5 0cde 1dab b2b7 022a cf26 2430
00000160: 90fa d421 4303 b0bc 4efa 1fa7 8ec0 e5a6
00000170: 8ac0 0e27 23d6 7e2b 6b0f 2e26 db6a b226
00000180: a0e8 4abe 1c52 5626 4f47 3d2d aded 8126
00000190: 2a6e 8527 a18f e43d 3450 a02c f71e 8f24
000001a0: 6d49 26a0 f0e2 5c2c 4fcb d826 dd85 fc2b
000001b0: d0c4 94a6 17f3 5e2a 3b7f 1b26 d4c0 d5a7
000001c0: 95fb e8ad ad78 f826 fa17 ef28 9398 862d
000001d0: c8d6 02ac e2c1 3128 4add cf3b fea3 4fbc
000001e0: 9350 593d 67ea 06bf f03f 0429 0fd7 2e28
000001f0: 84a7 d5ac 8468 39a8 7a69 9fa5 b9b1 16a9
00000200: 79a6 22be a9aa c43d c0c8 5abd 9f56 973e
00000210: e086 06ae b375 10a9 3e5f 91a7 2de3 e03d
00000220: ef59 82ab 09cd 733e dfcf 6c3d ccb3 8cbe
00000230: e8ca 0d2b 8c83 a3a3 c49e 973e 0a15 91be
00000240: a93e 213d 3bd4 4c3e f22a 6ebd 6c74 c9a8
00000250: cd5b 093c 72f9 0a3f 91dd 77be 7775 04bd
00000260: 30c4 433e d101 ce3e 4799 003e cede a23e
00000270: d443 ae3e 1274 102a d6dc 85ab 7136 2928
00000280: c6e9 fe26 9af4 8024 069b 1fad 0cc5 c13e
00000290: bbcb 41ad 24dc 6b2f bb84 5d2c af72 ecac
000002a0: 1c87 4a27 6562 41a3 3743 a93e 5a26 222c
000002b0: 8a20 0fb3 3753 4128 da1f 1727 9221 aebe
000002c0: 99fd 41ad c8b6 27a6 9ddb fc2c ecdf e233
000002d0: 311c 8a28 dd3d 9bab 39bd 9ba1 384f d027
000002e0: e895 f02a beb9 342a 321d aba4 f383 d7a9
000002f0: 085e 362c 26c8 b0a7 473c 1fad 0e56 1ca1
00000300: 555c fdbc dd09 bb3e 3719 103d 2aac edbb
00000310: b089 4ea7 4310 eeab 7ebd 66aa 3f71 0da1
00000320: 60de 9ca6 1c2b 6ca5 d88f b3bd 446d 45be
00000330: 9920 f0bb bec2 c1be 1d59 722d e791 d929
00000340: 4407 4eae c691 273f 0b9d c327 f051 a53d
00000350: 1ee2 34be c487 273e 125f ef27 0ab3 0da6
00000360: 407f 42bb 44f3 903d 2160 483d c2b0 653d
00000370: 900f debd 5b2e 0ba5 c945 743e 3718 9bbe
00000380: e902 073e 4e91 3dbe a955 11be 202d 0dbe
00000390: 02d3 563e 15f6 acbe dc6b 0fbf 6ec7 0a2a
000003a0: 4e34 ef29 a4ac 8a26 0311 6528 1a83 a6a7
000003b0: 2b3e 302c f08c 86bc d9ea 13a9 6f8f 27a6
000003c0: b50a da2b bc17 8527 8ae8 0329 9c24 4227
000003d0: 8ae4 223a 8c35 5426 0c65 6caf a274 29ae
000003e0: 1e9b bfb1 5a92 713e cc60 98a7 94fa 8126
000003f0: c749 ae28 bc5d 44a8 dfd1 5d26 be65 e0a8

gats.gnn_layers.1.gat_conv.attn_l f4 [1, 4, 14]
-0.039119538 0.34681305 -0.2818022 -0.31207827 0.24766372 0.63479966 -0.30305618 0.07488106
-0.22787298 0.2384383 -0.40722775 0.024809713 -0.0975246 0.13480255 0.35657665 0.11586816
-0.33169127 0.37300715 -0.20540906 -0.0017891863 0.09655704 -0.16437916 -0.11661349 -0.4344215
0.23187737 -0.11101487 0.06297892 -0.14481513 0.44126618 0.20569885 0.2864094 -0.07367917
-0.07263499 -0.11053396 0.26346844 0.1911944 0.46833983 -0.007459454 -0.049349602 -0.07073715
-0.0273805 0.08934122 -0.15936524 -0.092376396 0.13560422 -0.23080872 -0.17712298 -0.26804298
0.16062662 0.07232986 0.021329831 -0.046185493 0.08703629 0.14782621 -0.040340476 -0.47057617
00000000: cf3b 20bd 7b91 b13e 6148 90be b9c8 9fbe
00000010: 8f9b 7d3e 3b82 223f 2e2a 9bbe 3e5b 993d
00000020: 8957 69be 2b29 743e 2880 d0be bd3d cb3c
00000030: faba c7bd ae09 0a3e 3791 b63e 494c ed3d
00000040: 70d3 a9be cbfa be3e c156 52be 2183 eaba
00000050: b3bf c53d 0353 28be 0ed3 eebd 7f6c debe
00000060: 4371 6d3e c45b e3bd 18fb 803d 6b4a 14be
00000070: a4ed e13e b8a2 523e 41a4 923e 1be5 96bd
00000080: a7c1 94bd a15f e2bd 56e5 863e 77c8 433e
00000090: 3dca ef3e 6f6e f4bb cf22 4abd a4de 90bd
000000a0: 124d e0bc 88f8 b63d a430 23be d62f bdbd
000000b0: d5db 0a3e 1f59 6cbe ba5f 35be ee3c 89be
000000c0: 4e7b 243e ad21 943d e6bb ae3c 002d 3dbd
000000d0: 1540 b23d c15f 173e 0e3c 25bd 5cef f0be

gats.gnn_layers.1.gat_conv.attn_r f4 [1, 4, 14]
-0.15085681 -0.097566485 0.12203474 -0.09558273 -0.48467216 0.12220313 -0.98208654 0.15396805
0.049158 0.2521368 -0.35151827 -0.2812224 0.1301051 0.4122142 0.16521022 -0.10726357
0.20560658 -0.1279128 0.2743995 -0.34941635 0.14740545 0.47655746 0.19343214 0.0804633
0.027410848 -0.40487474 0.011458038 -0.23165065 -0.2889546 -0.06617668 -0.24733987 -0.09186158
0.34145367 0.18141517 -0.16326366 -0.20342842 0.7011062 -0.038137313 0.0930545 0.1938823
-0.046207685 -0.19061895 0.08982078 -0.24437322 -0.045083035 -0.26358217 -0.121321365 -0.28198573
-0.1160899 -0.2804598 0.36895165 -0.05089669 0.24208581 0.101738825 -0.23514399 -0.31140438
00000000: 357a 1abe f0d0 c7bd 5aed f93d e1c0 c3bd
00000010: f326 f8be a245 fa3d 066a 7bbf cda9 1d3e
00000020: e659 493d 1318 813e 34fa b3be 62fc 8fbe
00000030: 453a 053e bd0d d33e de2c 293e 01ad dbbd
00000040: 888a 523e 93fb 02be 177e 8c3e b3e6 b2be
00000050: 74f1 163e 57ff f33e 1313 463e f1c9 a43d
00000060: b78c e03c be4b cfbe 7fba 3b3c d435 6dbe
00000070: dbf1 93be a487 87bd aa46 7dbe ed21 bcbd
00000080: 04d3 ae3e e6c4 393e 972e 27be 8a4f 50be
00000090: b27b 333f df35 1cbd 5c93 be3d 1589 463e
000000a0: 4544 3dbd 9d31 43be f5f3 b73d f93c 7abe
000000b0: fda8 38bd 3ef4 86be 5677 f8bd 6f60 90be
000000c0: 8bc0 edbd 6d98 8fbe 3be7 bc3e 0c79 50bd
000000d0: 58e5 773e 725c d03d 96c9 70be 6570 9fbe

gats.gnn_layers.1.gat_conv.fc.weight f4 [56, 56]
-0.0992231 0.3059838 -0.14564036 0.23790762 0.04861781 0.020040894 0.08139271 0.041261382
-0.008172841 -0.105776116 0.13719817 -0.20787421 -0.37537342 0.32307988 0.0791004 -0.39920163
-0.096635245 0.025667436 0.106297165 -0.12170029 0.32492802 0.04698763 0.031076485 0.25533116
-0.09498484 -0.06512333 0.015125587 -0.13214275 -0.09548503 0.3797984 -0.14680877 -0.18805964
-0.34565374 0.32452455 0.15718791 -0.055905405 -0.07221534 -0.10095102 -0.122966036 0.15221828
0.03850746 0.35646307 -0.1183037 -0.22275639 -0.15319075 -0.2764985 -0.12217783 0.036248516
-0.19084089 -0.14588372 0.33906654 0.084574334 -0.28900412 0.018800797 0.011253121 -0.09003138
0.44376582 0.24097499 0.13889933 0.10670037 -0.052906696 0.0061351797 -0.18797219 -0.35174856
0.1539297 0.28302956 0.1097148 -0.13390572 0.07048775 -0.102997564 0.07060666 -0.19377294
-0.103370585 -0.12353814 -0.18924181 -0.15328816 -0.07309777 -0.51759815 -0.039321203 -0.013290068
-0.05133244 0.3534749 0.13102221 0.34365505 -0.051376164 -0.10560377 -0.21401362 -0.19780403
-0.2831099 -0.32873467 0.17889778 -0.15159391 0.32774588 0.243695 -0.08775685 -0.61252147
0.10131486 -0.33374238 -0.030069884 0.2952222 -0.14944762 -0.11022942 0.30814436 -0.191009
-0.094922885 0.24087757 -0.12982601 -0.07420499 -0.10991627 0.1567144 -0.3009762 -0.03962262
0.4823426 0.19387549 -0.048204154 0.032937262 -0.51860535 -0.39294064 -0.09861143 0.19867441
-0.101547234 0.016694766 0.04983416 0.30068627 0.010432984 0.16625735 0.40537763 -0.39345235
0.2229762 0.2246599 -0.34798452 -0.022464303 0.036279704 0.014263256 -0.1162077 0.13792035
-0.016440002 -0.13004407 -0.062495053 -0.1427929 -0.075959705 -0.03849092 -0.34760636 0.3094942
-0.047310285 0.20402503 0.21205594 -0.28287148 0.13515538 0.13765438 0.046454616 -0.25846934
-0.028738717 0.04380312 -0.2680636 0.07450032 -0.26801512 0.06818588 -0.013336315 -0.13618298
0.16631994 0.14886472 -0.17692547 -0.42215744 -0.1670553 0.24489847 0.31666514 0.036595844
-0.23002799 -0.18573777 -0.2618285 -0.31032246 0.3779445 -0.32714647 -0.05956213 -0.15457255
0.15857321 0.2667366 -0.04586887 -0.31376076 -0.089357674 -0.07103239 0.10133484 -0.23219506
0.055086285 0.15250185 0.21613763 0.157977 0.28320435 0.039214887 0.087555595 0.07509518
-0.3037925 -0.15052542 -0.2455579 -0.373586 -0.06591205 -0.15205589 -0.09932326 0.18599124
-0.09209004 -0.23679471 -0.07716427 -0.4820818 0.04930583 0.03827004 0.20122007 -0.34180605
-0.0556749 -0.056912117 0.21048623 0.039302163 -0.0916629 -0.30152482 -0.2878024 -0.2319875
0.21520108 0.16699627 -0.039439715 -0.03259805 0.18827906 0.056608226 -0.014350145 0.061023
0.18058293 -0.10288297 -0.26485306 0.026101662 -0.0129974475 -0.05132414 0.24570012 0.32899773
-0.19951148 0.35500285 0.33169863 0.016910408 0.2702498 0.1207242 0.122456096 0.09069823
-0.23841031 -0.006147212 -0.075840436 0.060458135 -0.04474257 -0.006270923 -0.2513863 -0.02527314
0.071531534 0.14467598 0.305455 -0.07574589 -0.027269615 0.18918344 -0.11586592 -0.07920324
00000000: 7b35 cbbd e9a9 9c3e bf22 15be 0e9e 733e
00000010: 7823 473d cd2c a43c 39b1 a63d b201 293d
00000020: 61e7 05bc 26a1 d8bd ad7d 0c3e fadc 54be
00000030: f230 c0be ba6a a53e 64ff a13d 2864 ccbe
00000040: b3e8 c5bd 8444 d23c 54b2 d93d 003e f9bd
00000050: f75c a63e 1a76 403d 1d94 fe3c c4ba 823e
00000060: 6987 c2bd 615f 85bd 4fd1 773c 6e50 07be
00000070: a88d c3bd f074 c23e 0a55 16be b592 40be
00000080: 87f9 b0be 1528 a63e def5 203e 11fd 64bd
00000090: a3e5 93bd 69bf cebd 9ed5 fbbd 1cdf 1b3e
000000a0: 00ba 1d3d 5482 b63e 3649 f2bd 401a 64be
000000b0: 09de 1cbe 3691 8dbe 5f38 fabd 5379 143d
000000c0: cb6b 43be 8b62 15be 219a ad3e 4f35 ad3d
000000d0: 59f8 93be 2104 9a3c 035f 383c 5f62 b8bd
000000e0: 4635 e33e 26c2 763e a03b 0e3e b985 da3d
000000f0: b1b4 58bd 9e09 c93b c87b 40be 6318 b4be
00000100: bf9f 1d3e 40e9 903e 27b2 e03d 951e 09be
00000110: e25b 903d 63f0 d2bd 399a 903d 6a6c 46be
00000120: f5b3 d3bd 9001 fdbd 9bc8 41be 92f7 1cbe
00000130: 49b4 95bd 5081 04bf 450f 21bd 96be 59bc
00000140: f741 52bd a9fa b43e b02a 063e 8ef3 af3e
00000150: d06f 52bd ca46 d8bd 6326 5bbe 248d 4abe
00000160: c8f3 90be e94f a8be fb30 373e 6f3b 1bbe
00000170: 4fce a73e 2f8b 793e ddb9 b3bd 35ce 1cbf
00000180: 2a7e cf3d 48e0 aabe 1e55 f6bc 5d27 973e
00000190: cc08 19be f6bf e1bd 19c5 9d3e dd97 43be
000001a0: ee66 c2bd 9ca8 763e 1cf1 04be c9f8 97bd
000001b0: c81b e1bd bd79 203e 8d19 9abe 544b 22bd
000001c0: 9cf5 f63e 4c87 463e b871 45bd 39e9 063d
000001d0: 52c3 04bf 842f c9be caf4 c9bd 4e71 4b3e
000001e0: fff7 cfbd 76c3 883c e71e 4c3d 8df3 993e
000001f0: 1bef 2a3c 5e3f 2a3e a88d cf3e 9672 c9be
00000200: df53 643e 3f0d 663e 072b b2be 0f07 b8bc
00000210: 079a 143d 6fb0 693c 4dfe edbd fe3a 0d3e
00000220: 2fad 86bc 462a 05be d0fa 7fbd 4d38 12be
00000230: c390 9bbd a8a8 1dbd 76f9 b1be 0676 9e3e
00000240: 6ec8 41bd f0eb 503e 3125 593e 88d4 90be
00000250: 2c66 0a3e 45f5 0c3e 3247 3e3d 1856 84be
00000260: 756d ebbc e66a 333d a23f 89be a093 983d
00000270: 4739 89be 0aa5 8b3d 8f80 5abc 8d73 0bbe
00000280: c64f 2a3e fe6f 183e f32b 35be 0525 d8be
00000290: 8b10 2bbe aac6 7a3e ef21 a23e 86e5 153d
000002a0: 758c 6bbe 0b32 3ebe 630e 86be 96e2 9ebe
000002b0: f181 c13e be7f a7be 6cf7 73bd 4448 1ebe
000002c0: 0461 223e b391 883e ffe0 3bbd 40a5 a0be
000002d0: 2801 b7bd 6e79 91bd a488 cf3d 8bc4 6dbe
000002e0: 28a2 613d 7229 1c3e 2f53 5d3e b9c4 213e
000002f0: 2900 913e ca9f 203d 5950 b33d 80cb 993d
00000300: b18a 9bbe 5623 1abe 8873 7bbe aa46 bfbe
00000310: e6fc 86bd 8ab4 1bbe fe69 cbbd 7d74 3e3e
00000320: b499 bcbd 507a 72be 4d08 9ebd 6dd3 f6be
00000330: e9f4 493d 0cc1 1c3d a20c 4e3e 3401 afbe
00000340: 5d0b 64bd ae1c 69bd b489 573e 4efb 203d
00000350: c2b9 bbbd 7661 9abe d65a 93be 228e 6dbe
00000360: ac5d 5c3e 1201 2b3e 8a8b 21bd 8885 05bd
00000370: 3acc 403e 07de 673d df1c 6bbc 41f3 793d
00000380: bbea 383e 4eb4 d2bd d29a 87be 27d3 d53c
00000390: 3ff3 54bc 4339 52bd d098 7b3e 6472 a83e
000003a0: bd4c 4cbe efc2 b53e 67d4 a93e b287 8a3c
000003b0: 2f5e 8a3e 403e f73d 43ca fa3d febf b93d
000003c0: d521 74be 8d6e c9bb 3b52 9bbd f3a2 773d
000003d0: fc43 37bd 517c cdbb b5b5 80be 9e09 cfbc
000003e0: 207f 923d f125 143e 9964 9c3e a920 9bbd
000003f0: 8764 dfbc 4eb9 413e 1d4b edbd 4f35 a2bd

gats.gnn_layers.1.gat_conv.res_fc.weight f4 [56, 56]
0.39520907 -0.060365982 -0.28469625 0.11861539 -0.043000482 0.032075904 0.044021588 0.1406908
-0.26243207 -0.09130628 0.24148582 -0.2312285 -0.0997792 0.04022781 -0.43344423 0.046804577
-0.00046914342 -0.118422754 -0.020433003 0.092093855 -0.06593987 -0.2143909 -0.2901165 0.13798271
-0.3529493 0.36319357 0.29233792 -0.17319556 0.03615375 0.13186674 0.26574123 0.030023996
0.2508643 0.25145787 -0.046014473 0.09219452 -0.3144525 0.14509967 -0.2340618 0.1896796
0.15684247 0.3076764 -0.20309187 0.03430962 -0.33505866 -0.0065687792 -0.16092165 -0.043258123
0.15722671 0.00311098 -0.062899806 -0.084657155 0.18618876 -0.012127147 -0.0005400413 0.1633463
0.14651217 0.19554196 0.08925781 -0.2606063 -0.1529568 0.026981823 0.30037004 -0.0063037123
0.09175576 -0.24530677 0.19839159 0.18792312 0.1195765 -0.025125235 0.20196712 0.20407742
-0.051430084 -0.11003099 0.03559261 0.047660433 -0.040929865 -0.10126773 -0.2710164 0.0011535872
0.329019 -0.005638194 -0.04682541 -0.27723807 -0.12102277 0.2006164 0.039567847 0.026023464
0.085575625 0.16457535 -0.022712441 -0.08791974 -0.06251119 0.32741928 0.10496632 -0.3218167
0.0019031153 -0.03159372 -0.06724198 -0.04226798 -0.2886806 -0.6370619 0.059115533 -0.021758936
-0.0624603 0.06566751 0.16218518 -0.21719736 -0.025187418 0.012963076 0.08190186 -0.07193789
0.3085494 -0.05996094 -0.05925188 -0.03523454 -0.05095833 0.011391196 -0.060027204 0.18124916
-0.32597792 -0.00567574 -0.079131015 -0.13570501 -0.2198566 -0.04431624 -0.1527023 0.15044539
0.40004775 -0.02726819 -0.27460784 -0.05421683 0.032065973 -0.08676697 0.13890475 -0.19682766
-0.012230606 0.20077854 -0.047298566 0.05106157 -0.06478387 -0.10139771 -0.078763165 -0.029811151
0.33931687 0.22279973 0.09254186 0.03866371 -0.23228647 0.30506572 0.05293351 -0.129952
-0.15945187 0.16418913 0.05443568 -0.2366989 -0.1746558 0.14552546 0.10032443 -0.030900696
0.09410455 0.05776712 -0.07907125 -0.08692654 -0.19630955 0.48727438 0.110652104 0.16397071
-0.060011126 -0.12451051 0.192865 -0.09663573 -0.0053441105 -0.49482122 -0.14946808 0.12600628
0.10200018 0.1332705 0.104981355 -0.26453277 -0.13895592 0.26813143 -0.14939149 -0.2189813
-0.18279697 0.27925336 0.15442902 0.0193326 0.03148471 0.04766433 -0.09040463 0.055914108
-0.007958146 0.07555916 0.18868499 -0.22758852 0.055049006 -0.07210245 -0.17713179 -0.34464622
0.44874746 -0.10426719 0.11146146 0.039421994 -0.04163323 0.06631566 -0.0023201925 -0.15681605
0.13656303 0.19470158 0.0060881726 0.26133797 0.088823855 0.19478793 -0.04928694 -0.34639403
0.08100196 -0.17315347 -0.03328767 0.26248848 -0.48000997 -0.036868095 0.2493454 0.29243752
0.062021468 -0.005783174 0.046342283 0.24482687 -0.044767637 0.085306615 0.33202338 0.044318926
0.14804578 -0.07486995 -0.21294929 -0.082675 0.10295578 -0.22535013 0.26289406 -0.112357885
-0.093311325 0.090245105 -0.15113601 -0.06390235 0.019647075 -0.19076851 0.025260936 -0.1755432
-0.020223536 -0.20296195 0.17628491 0.3624255 -0.057072934 -0.3616816 -0.36640885 0.15249336
00000000: d858 ca3e 5242 77bd b5c3 91be a0ec f23d
00000010: 4621 30bd 0662 033d fb4f 343d 4011 103e
00000020: 7f5d 86be c9fe babd 0f48 773e 2ac7 6cbe
00000030: 0a59 ccbd ebc5 243d 67ec ddbe 28b6 3f3d
00000040: 5df7 f5b9 a187 f2bd 1d63 a7bc b49b bc3d
00000050: 7c0b 87bd 4a89 5bbe 268a 94be 574b 0d3e
00000060: c5b5 b4be 82f4 b93e 51ad 953e 2d5a 31be
00000070: f415 143d 1308 073e 3c0f 883e e2f4 f53c
00000080: 4971 803e 16bf 803e ac79 3cbd 7bd0 bc3d
00000090: ebff a0be 0295 143e e6ad 6fbe 5e3b 423e
000000a0: 509b 203e c387 9d3e 51f7 4fbe 3e88 0c3d
000000b0: cf8c abbe ea3e d7bb a5c8 24be 6e2f 31bd
000000c0: 0a00 213e 95e1 4b3b 9dd1 80bd bb60 adbd
000000d0: 44a8 3e3e f1b0 46bc 8f91 0dba 4144 273e
000000e0: 4907 163e 273c 483e cccc b63d 306e 85be
000000f0: b5a0 1cbe fc08 dd3c 1aca 993e 5f8f cebb
00000100: 72ea bb3d b331 7bbe 2a27 4b3e eb6e 403e
00000110: 86e4 f43d 70d3 cdbc 78d0 4e3e acf9 503e
00000120: 5aa8 52bd ed57 e1bd 8ec9 113d 9637 433d
00000130: 13a6 27bd 7565 cfbd a9c2 8abe f733 973a
00000140: 2e75 a83e 99c0 b8bb 00cc 3fbd 26f2 8dbe
00000150: c9da f7bd 636e 4d3e e511 223d 292f d53c
00000160: 4642 af3d 7186 283e 710f babc 440f b4bd
00000170: de05 80bd 80a3 a73e 95f8 d63d 29c5 a4be
00000180: f471 f93a 6b68 01bd 2ab6 89bd 3021 2dbd
00000190: f2cd 93be 7d16 23bf 2123 723d cc3f b2bc
000001a0: 5fd6 7fbd b07c 863d df13 263e fc68 5ebe
000001b0: d855 cebc 1563 543c 2abc a73d 2c54 93bd
000001c0: 30fa 9d3e 9a99 75bd 19b2 72bd 1852 10bd
000001d0: afb9 50bd 24a2 3a3c 16df 75bd 6199 393e
000001e0: 94e6 a6be 8ffb b9bb 710f a2bd 41f6 0abe
000001f0: 1722 61be f284 35bd fe5d 1cbe 5b0e 1a3e
00000200: 0fd3 cc3e 8a61 dfbc 6699 8cbe 7712 5ebd
00000210: 9c57 033d e2b2 b1bd 0c3d 0e3e 318d 49be
00000220: e162 48bc e498 4d3e 24bc 41bd f025 513d
00000230: 68ad 84bd 9aa9 cfbd 954e a1bd 8436 f4bc
00000240: f1ba ad3e 9d25 643e 9686 bd3d d75d 1e3d
00000250: 81dc 6dbe 9331 9c3e cfd0 583d 2312 05be
00000260: 5a47 23be 3221 283e f3f7 5e3d 3261 72be
00000270: f8d8 32be a004 153e e576 cd3d 7523 fdbc
00000280: e3b9 c03d 379d 6c3d 1cf0 a1bd 8b06 b2bd
00000290: 5f05 49be 077c f93e 929d e23d f0e7 273e
000002a0: 3ace 75bd 5eff febd 677e 453e f4e8 c5bd
000002b0: a61d afbb 3559 fdbe 290e 19be ca07 013e
000002c0: 78e5 d03d 1078 083e 7700 d73d d770 87be
000002d0: 764a 0ebe 8648 893e 15fa 18be a23c 60be
000002e0: 212f 3bbe 4cfa 8e3e a422 1e3e 675f 9e3c
000002f0: 1cf6 003d ac3b 433d 1026 b9bd 3106 653d
00000300: e262 02bc c3be 9a3d a336 413e f70c 69be
00000310: 117b 613d 73aa 93bd 0962 35be 7875 b0be
00000320: 3ac2 e53e 098a d5bd e845 e43d f578 213d
00000330: 9b87 2abd 81d0 873d 5f0e 18bb 6394 20be
00000340: 2ed7 0b3e da5f 473e 4b7f c73b 17ce 853e
00000350: 48e9 b53d 7d76 473e 1ae1 49bd 8f5a b1be
00000360: 5be4 a53d 254f 31be a758 08bd e464 863e
00000370: dec3 f5be 0003 17bd 6754 7f3e 5fba 953e
00000380: 390a 7e3d c880 bdbb 68d1 3d3d e5b3 7a3e
00000390: 455e 37bd 3cb5 ae3d f8fe a93e c387 353d
000003a0: 5099 173e 6b55 99bd 610f 5abe 8351 a9bd
000003b0: 7bda d23d 2fc2 66be 0d9a 863e e41b e6bd
000003c0: 021a bfbd 6dd2 b83d 66c3 1abe 3cdf 82bd
000003d0: e7f2 a03c d258 43be 06f0 ce3c 99c1 33be
000003e0: d4ab a5bc 42d5 4fbe 0884 343e d68f b93e
000003f0: 4fc5 69bd 552e b9be f199 bbbe 3827 1c3e

gats.gnn_layers.2.gat_conv.attn_l f4 [1, 4, 14]
0.20234625 0.1214453 0.5447797 0.44246054 0.04850827 -0.02595356 -0.38524786 0.17137755
-0.24968573 0.18378001 0.101292565 0.24722639 -0.109667666 0.21802545 -0.11596174 0.2682193
0.10509842 0.067317635 0.40275177 -0.15289389 -0.26743126 0.29454222 0.1932817 -0.03254489
-0.13675919 0.085537106 0.1999252 0.013988327 0.22433637 -0.12599905 0.03616711 0.22572748
-0.029379604 -0.2125521 -0.24227491 -0.28336808 -0.42964497 0.06485016 0.14931773 -0.08769932
0.3820299 0.20175397 0.19260404 -0.028978944 0.21637993 0.08620441 -0.049048357 0.04857796
0.047383904 -0.1424261 -0.17425266 -0.044812966 0.27388203 0.09286244 -0.18674439 0.07515018
00000000: db33 4f3e 50b8 f83d af76 0b3f 308a e23e
00000010: 9cb0 463d 8f9c d4bc 353f c5be 997d 2f3e
00000020: 9ead 7fbe d430 3c3e 7a72 cf3d ea28 7d3e
00000030: 7199 e0bd 1042 5f3e 597d edbd 0a54 893e
00000040: d73d d73d d4dd 893d 7b35 ce3e 3790 1cbe
00000050: c0ec 88be 3dce 963e a3eb 453e ca4d 05bd
00000060: 9a0a 0cbe 142e af3d 31b9 4c3e 4c2f 653c
00000070: 6fb8 653e e505 01be f723 143d 1b25 673e
00000080: 7fad f0bc 42a7 59be ea16 78be 9f15 91be
00000090: 6dfa dbbe 29d0 843d bfe6 183e b39b b3bd
000000a0: 6c99 c33e 9898 4e3e fe39 453e 4065 edbc
000000b0: b392 5d3e f08b b03d eee6 48bd aff9 463d
000000c0: a015 423d 26d8 11be 4a6f 32be cd8d 37bd
000000d0: 443a 8c3e aa2e be3d ec39 3fbe 56e8 993d

gats.gnn_layers.2.gat_conv.attn_r f4 [1, 4, 14]
0.12505119 -0.07327427 -0.15774874 0.15528427 -0.29013112 0.030873222 0.23876163 -0.27793765
-0.13182552 -0.017363055 0.45575795 0.09493612 0.3855943 0.34908062 -0.111267574 0.0876666
0.16286513 0.042828873 0.02604268 -0.1438009 0.35657948 -0.12016863 -0.07281488 0.34007508
0.10169908 -0.4646152 0.4156107 -0.056373455 -0.44039023 0.2723228 0.26849335 -0.13957475
-0.015317218 0.36032218 -0.03862428 0.03770303 0.56897676 -0.04329962 0.0051004863 0.37092188
-0.2110647 -0.14304009 -0.39847443 0.24480046 -0.1451754 -0.363544 -0.1442912 0.100159176
0.17286746 -0.05483352 0.53359324 -0.27631614 0.08132989 -0.5198747 0.13829182 0.13967256
00000000: 6b0d 003e d210 96bd e388 21be d702 1f3e
00000010: 118c 94be d7e9 fc3c ee7d 743e d84d 8ebe
00000020: 45fd 06be f73c 8ebc 1b59 e93e de6d c23d
00000030: 9e6c c53e b2ba b23e 41e0 e3bd 8c8a b33d
00000040: 1ec6 263e 546d 2f3d 7557 d53c 8b40 13be
00000050: 9691 b63e f81a f6bd f81f 95bd 521e ae3e
00000060: 9b47 d03d 0be2 edbe edca d43e dae7 66bd
00000070: d47a e1be e56d 8b3e f677 893e afec 0ebe
00000080: 12f5 7abc 267c b83e 7e34 1ebd 7e6e 1a3d
00000090: 76a8 113f f15a 31bd fb21 a73b 79e9 bd3e
000000a0: 5821 58be 1a79 12be d704 ccbe f9ac 7a3e
000000b0: dca8 14be 7022 babe 13c1 13be 4120 cd3d
000000c0: 2b04 313e 1d99 60bd 9199 083f 4f79 8dbe
000000d0: 4990 a63d 8216 05bf 5f9c 0d3e 5306 0f3e

gats.gnn_layers.2.gat_conv.fc.weight f4 [56, 56]
-0.37015173 -0.27879876 -0.17933248 -0.096858844 0.2993022 -0.022017373 -0.38331705 0.058653448
-0.17932633 -0.09925978 -0.09263277 -0.023514332 -0.2422735 0.20294973 0.18029937 -0.016282449
-0.22965664 0.32184127 0.31249315 -0.0832961 -0.11623065 -0.1894907 0.05794498 -0.06307798
0.32710174 -0.087550424 -0.0019324217 0.1903918 0.11395275 0.28669637 -0.18445605 -0.40417764
-0.27005526 0.23542756 0.03705275 0.18709105 0.14144008 -0.13616729 0.01852464 -0.11582371
-0.021455688 -0.19287996 0.12286917 -0.12507112 0.22845848 0.08088043 -0.29129001 0.29385886
0.15114453 -0.08976814 0.18664798 0.076678194 -0.08313879 0.06252049 -0.01856107 -0.32653573
0.03214145 -0.3063235 0.2783969 -0.01692416 0.17340907 0.043207392 0.049522046 -0.19599038
0.08237203 -0.15174901 0.2915209 0.10829893 0.2723422 -0.31987768 -0.03171609 0.056587975
-0.034116566 -0.065156065 -0.047670756 -0.30798665 -0.03665248 -0.24269602 -0.16124447 -0.0064596543
0.081654906 0.14671366 -0.011717871 0.21436952 0.22898763 0.28369504 0.09247933 0.31867614
0.020277208 0.15760419 -0.09953364 0.1317097 0.09398151 0.31467268 0.3720426 0.08781025
-0.055493362 0.23051018 -0.12386938 -0.05891205 0.12628092 0.008169941 0.0023574454 -0.056336705
0.11937918 -0.17941317 0.21224004 -0.20281462 -0.012080514 -0.08627212 0.038504712 0.03710871
-0.12523066 -0.19385691 0.22651464 0.18085016 -0.07628745 -0.087093905 0.2845573 0.073731355
-0.10180257 -0.06510237 0.315093 -0.33284804 -0.13179405 0.018761808 -0.008179804 -0.010889229
-0.08005622 -0.005015608 -0.14722782 -0.06322537 -0.041510954 -0.06705391 -0.14366885 -0.24671565
-0.1534 0.16357325 0.20284092 -0.15495113 0.016177852 0.016403578 -0.13386762 0.2343767
0.12174887 -0.012062328 0.15897815 0.019175353 -0.38414118 -0.0030401705 -0.11498598 -0.05900499
-0.44047698 0.07348912 -0.15808594 0.07129353 -0.06551881 -0.15771163 0.25403503 0.23395778
0.02227105 -0.17570797 -0.04905285 -0.057192713 -0.093549445 0.008130904 -0.3435608 0.06898482
-0.06836361 0.14891788 -0.32435215 0.046248373 0.15451625 -0.15737289 -0.041408155 0.148797
0.111965634 -0.4303926 -0.041132707 -0.09989695 -0.04432411 0.068843134 0.028072998 -0.25327736
0.23222744 -0.041433044 -0.14802355 0.010462824 0.13888301 0.06698897 -0.040151436 0.039203655
0.5957891 0.23121588 0.2960746 -0.09447132 0.109823756 -0.030186746 0.36499155 0.02609195
-0.31660226 0.1399641 0.051998947 -0.32457116 -0.31396973 -0.12534136 0.14160264 0.26383403
-0.14218076 0.053534277 0.3661511 -0.037454206 -0.122222304 -0.2590739 -0.06401497 0.0057341596
0.06480566 0.11573599 0.0476936 0.116353825 0.15164796 0.34450448 0.28132305 -0.11168088
0.03942291 -0.18057455 -0.16566716 0.07532485 0.07813393 -0.07523241 -0.010373677 0.33692095
-0.40020588 0.14836141 0.13758773 -0.24883717 -0.33705992 0.20507486 -0.2388114 -0.05477689
-0.36820734 -0.028598748 -0.047480687 0.12270567 -0.09737048 -0.1409851 -0.0042312928 0.08957897
0.12682094 0.1798975 0.017056767 0.057242345 0.21393633 0.3958746 -0.24512243 -0.20073509
00000000: 8784 bdbe b6be 8ebe efa2 37be ee5d c6bd
00000010: 233e 993e c75d b4bc 2242 c4be 993e 703d
00000020: 52a1 37be b648 cbbd 40b6 bdbd 21a1 c0bc
00000030: 8b16 78be 0ed2 4f3e 66a0 383e c562 85bc
00000040: 1c2b 6bbe 61c8 a43e 1aff 9f3e 2597 aabd
00000050: 560a eebd da09 42be b757 6d3d 072f 81bd
00000060: e179 a73e a34d b3bd 5049 fdba 11f6 423e
00000070: 0f60 e93d dec9 923e 0ce2 3cbe 5ff0 cebe
00000080: af44 8abe ec13 713e a0c4 173d cc94 3f3e
00000090: abd5 103e 706f 0bbe fcc0 973c fb34 edbd
000000a0: d7c3 afbc 5382 45be d5a2 fb3d a512 00be
000000b0: 05f1 693e a4a4 a53d f723 95be ab74 963e
000000c0: a2c5 1a3e 5cd8 b7bd a620 3f3e 7509 9d3d
000000d0: ac44 aabd be0a 803d 630d 98bc b12f a7be
000000e0: c1a6 033d 6fd6 9cbe 0a8a 8e3e 89a4 8abc
000000f0: 2692 313e 3cfa 303d a1d7 4a3d b4b1 48be
00000100: abb2 a83d 1864 1bbe 3a42 953e d4cb dd3d
00000110: 7070 8b3e 02c7 a3be bbe8 01bd cbc8 673d
00000120: d0bd 0bbd 8b70 85bd 6942 43bd 6db0 9dbe
00000130: e920 16bd 4e85 78be 451d 25be 82ab d3bb
00000140: b03a a73d 1b3c 163e 50fc 3fbc af83 5b3e
00000150: bc7b 6a3e 7a40 913e ce65 bd3d 8529 a33e
00000160: 631c a63c fe62 213e 4bd8 cbbd e8de 063e
00000170: 6179 c03d c71c a13e 5e7c be3e dcd5 b33d
00000180: 024d 63bd dc0a 6c3e 3baf fdbd c34d 71bd
00000190: c94f 013e 37db 053c 5f7f 1a3b 51c1 66bd
000001a0: 127d f43d 16b8 37be 7455 593e a3ae 4fbe
000001b0: 59ed 45bc 70af b0bd 1eb7 1d3d 4dff 173d
000001c0: 773c 00be 6d82 46be 74f3 673e c930 393e
000001d0: 983c 9cbd 4a5e b2bd 7fb1 913e 7700 973d
000001e0: de7d d0bd 6454 85bd df53 a13e 0f6b aabe
000001f0: 05f5 06be 5db2 993c 9604 06bc bd68 32bc
00000200: 84f4 a3bd f859 a4bb e4c2 16be 4e7c 81bd
00000210: 6407 2abd 8f53 89bd ed1d 13be 07a3 7cbe
00000220: e414 1dbe bf7f 273e 88b5 4f3e 82ab 1ebe
00000230: 6a87 843c cc60 863c 9814 09be 7200 703e
00000240: 7957 f93d 12a1 45bc 2bcb 223e a115 9d3c
00000250: 27ae c4be 993d 47bb c57d ebbd 37af 71bd
00000260: 3386 e1be 7781 963d 48e1 21be 5802 923d
00000270: ba2e 86bd 287f 21be e110 823e a192 6f3e
00000280: c771 b63c caec 33be a4eb 48bd e842 6abd
00000290: da96 bfbd 7c37 053c 34e7 afbe ea47 8d3d
000002a0: 3802 8cbd ee7d 183e 7c11 a6be ef6e 3d3d
000002b0: 8239 1e3e 5c26 21be 999b 29bd 3e5e 183e
000002c0: 3d4e e53d 6b5c dcbe c57a 28bd c696 ccbd
000002d0: 338d 35bd a1fd 8c3d 58f9 e53c 92ad 81be
000002e0: 08cd 6d3e b2b5 29bd 7c93 17be 446c 2b3c
000002f0: 5937 0e3e 8331 893d d575 24bd 0394 203d
00000300: a285 183f dbc3 6c3e 1797 973e 2e7a c1bd
00000310: 47eb e03d 324a f7bc 2ce0 ba3e c9be d53c
00000320: b119 a2be c052 0f3e d9fc 543d 312e a6be
00000330: a4c0 a0be 7c59 00be 4800 113e 4115 873e
00000340: d597 11be c246 5b3d 2878 bb3e 9569 19bd
00000350: b04f fabd 56a5 84be 481a 83bd 9ee5 bb3b
00000360: d4b8 843d fe06 ed3d 5d5a 433d ea4a ee3d
00000370: 9a49 1b3e e462 b03e 9309 903e f2b8 e4bd
00000380: eb79 213d 89e8 38be a7a4 29be ea43 9a3d
00000390: af04 a03d 7313 9abd 5bf6 29bc e780 ac3e
000003a0: c9e7 ccbe 0eec 173e cce3 0c3e 2ccf 7ebe
000003b0: 1e93 acbe 25ff 513e fa8a 74be bb5d 60bd
000003c0: ac85 bcbe ec47 eabc 1c7b 42bd 1c4d fb3d
000003d0: 2d6a c7bd 665e 10be a8a6 8abb 2e75 b73d
000003e0: 59dd 013e 0d37 383e a2ba 8b3c f376 6a3d
000003f0: 2012 5b3e 13b0 ca3e 6001 7bbe 808d 4dbe

gats.gnn_layers.2.gat_conv.res_fc.weight f4 [56, 56]
0.1769138 0.28168386 -0.28366932 0.2279783 0.23509109 -0.04966615 0.09412008 0.15864438
0.06272971 -0.17742433 -0.08073544 0.08697225 -0.272752 0.032500334 0.0008001086 0.101838075
-0.012065297 0.06433044 -0.014635417 0.08029659 0.12916678 -0.42901874 0.13967127 0.20220311
-0.050235856 0.30640143 0.20256536 -0.06416356 -0.28993553 -0.027675234 0.13316816 0.18001926
-0.09168826 0.058123495 0.36046866 -0.18343765 0.10469972 0.28462073 -0.051051103 -0.31003135
-0.2761676 0.28647316 0.29954943 0.16827276 0.011585189 -0.26131603 -0.17915893 0.030441655
-0.18782838 -0.037546616 -0.1510474 -0.62222403 -0.08810003 0.06713239 0.05692593 -0.20937449
-0.047379334 -0.22036444 -0.18707241 -0.10124056 -0.021659393 0.03399868 0.19847861 0.009127576
0.0103949215 -0.13281994 0.5186597 -0.12771699 -0.008211789 0.39511517 0.11690669 0.31669965
-0.19454221 0.041806344 0.06022584 -0.0038320506 -0.2529925 0.34454218 0.05802615 -0.00665494
0.23617724 -0.022743931 0.23786323 -0.42420682 0.11594617 0.5980975 -0.0013024984 -0.28636688
-0.025711607 0.35714525 -0.19517833 0.054596506 0.2836453 -0.20244527 0.23940909 0.3069682
-0.12231542 0.25691083 0.21613282 -0.49915934 -0.19298004 0.08880125 -0.29684383 0.22988826
-0.38957527 -0.13173346 0.09451335 0.14168936 0.10307919 -0.12846187 -0.06937385 -0.058017954
-0.3434591 0.4569446 -0.018855011 -0.04157555 -0.007405538 0.23483527 0.108392164 0.05700429
-0.095512055 0.011442754 0.061216455 0.0339598 0.24604756 0.1254113 -0.28522325 0.088760614
-0.2883299 0.10946621 0.02743253 -0.053308275 0.11673793 -0.077374674 0.119735315 0.14225036
-0.15048887 -0.17635569 0.0061416775 -0.18715449 -0.1640595 0.24243969 -0.13177192 0.05018098
0.10965128 0.2521905 0.05309788 -0.27789223 0.19268589 -0.2386945 0.08864287 -0.1956086
0.12594284 0.07218644 -0.11396648 0.19786198 0.13932094 0.31783122 0.21753709 -0.2524654
-0.009456091 -0.0741513 0.18797995 -0.043052897 -0.06451388 0.19938447 0.17032793 0.2618698
0.1265045 0.14775725 0.27147624 0.23792852 0.15020353 -0.034283567 -0.20557567 0.11687868
0.016297314 -0.15911278 0.14587416 -0.15028022 0.15029511 0.16488934 0.08947642 -0.0378309
0.26164362 -0.023798792 0.11533618 -0.31051296 0.12937412 0.3686242 0.04465838 0.32414708
-0.14533775 -0.0033997733 0.18225212 -0.30188757 -0.09058789 -0.231515 0.07486103 -0.16059375
-0.09925311 0.46205315 0.039886434 -0.03959101 -0.18580316 -0.07232153 0.15696588 0.060995273
-0.084094964 0.07675 -0.21422565 -0.031079737 0.10070201 0.25583172 0.13590541 -0.15695372
-0.24976863 0.31618404 0.11148604 0.004693333 0.40816385 0.12078757 0.2359139 0.23049186
0.2915229 -0.154197 -0.12232952 -0.095158964 -0.019031534 0.5109521 0.022277007 -0.3444181
0.12626629 -0.13419278 0.17106524 -0.43705365 -0.054060817 0.08777322 -0.041299142 0.076436505
-0.15081888 -0.044962704 -0.50073636 -0.21188985 -0.15719035 -0.10301266 0.03345456 -0.059295982
0.35285276 -0.02439958 0.4358468 -0.010053521 0.099678606 -0.214788 -0.07900197 -0.16752398
00000000: e428 353e de38 903e 1b3d 91be 2573 693e
00000010: b8bb 703e bc6e 4bbd 07c2 c03d ac73 223e
00000020: 6f78 803d b9ae 35be 9f58 a5bd 821e b23d
00000030: 26a6 8bbe 121f 053d 61be 513a 7b90 d03d
00000040: 86ad 45bc adbf 833d 63c9 6fbc 8a72 a43d
00000050: 4c44 043e 58a8 dbbe fc05 0f3e 550e 4f3e
00000060: 1dc4 4dbd a6e0 9c3e 4b6d 4f3e 2f68 83bd
00000070: 6e72 94be 2cb7 e2bc 3c5d 083e f856 383e
00000080: 0ec7 bbbd e712 6e3d 598f b83e 14d7 3bbe
00000090: cf6c d63d cfb9 913e f61a 51bd 6ebc 9ebe
000000a0: d765 8dbe 9cac 923e 8b5e 993e b24f 2c3e
000000b0: cecf 3d3c 37cb 85be 7075 37be c760 f93c
000000c0: 1556 40be 7bca 19bd 2bac 1abe 134a 1fbf
000000d0: ca6d b4bd b57c 893d 2a2b 693d 4466 56be
000000e0: d510 42bd 37a7 61be e98f 3fbe 3657 cfbd
000000f0: 0a6f b1bc 3342 0b3d fa3d 4b3e d48b 153c
00000100: 764f 2a3c f301 08be e2c6 043f 3ec8 02be
00000110: bd8a 06bc 894c ca3e c66c ef3d 7526 a23e
00000120: 1336 47be 213d 2b3d 5faf 763d 2423 7bbb
00000130: 3c88 81be d567 b03e d4ac 6d3d af11 dabb
00000140: 72d8 713e 7b51 babc 6b92 733e a331 d9be
00000150: 3075 ed3d eb1c 193f 98b8 aaba ae9e 92be
00000160: 26a1 d2bc bedb b63e d4dc 47be 96a0 5f3d
00000170: f539 913e d04d 4fbe a827 753e f02a 9d3e
00000180: 8280 fabd d189 833e ec51 5d3e d091 ffbe
00000190: 8f9c 45be 6edd b53d eafb 97be d467 6b3e
000001a0: 6976 c7be 23e5 06be 3790 c13d 0417 113e
000001b0: 2f1b d33d 828b 03be e113 8ebd 3ca4 6dbd
000001c0: dfd9 afbe a5f4 e93e d375 9abc 204b 2abd
000001d0: 28aa f2bb a878 703e b6fc dd3d 557d 693d
000001e0: d39b c3bd 647a 3b3c 1bbe 7a3d 6e19 0b3d
000001f0: e4f3 7b3e d26b 003e c808 92be 20c8 b53d
00000200: fa9f 93be d22f e03d 2fba e03c c759 5abd
00000210: 4c14 ef3d 9d76 9ebd ca37 f53d 14aa 113e
00000220: c119 1abe 9696 34be 2040 c93b 6da5 3fbe
00000230: 37ff 27be 1c42 783e 38ef 06be 928a 4d3d
00000240: da90 e03d 1d1f 813e 2a7d 593d e447 8ebe
00000250: 734f 453e 556c 74be 658a b53d 9f4d 48be
00000260: 29f7 003e 7cd6 933d 4267 e9bd 559c 4a3e
00000270: 26aa 0e3e c6ba a23e 0bc2 5e3e 2543 81be
00000280: b8ed 1abc a3dc 97bd d17d 403e 3c58 30bd
00000290: da1f 84bd 712b 4c3e 726a 2e3e cc13 863e
000002a0: 658a 013e ad4d 173e effe 8a3e 89a3 733e
000002b0: f4ce 193e ed6c 0cbd 6e82 52be 175e ef3d
000002c0: f281 853c 76ee 22be 0960 153e 0fe3 19be
000002d0: f6e6 193e c0d8 283e 6a3f b73d 93f4 1abd
000002e0: 27f6 853e aff5 c2bc 6035 ec3d 8efb 9ebe
000002f0: a67a 043e 50bc bc3e b5eb 363d 9bf6 a53e
00000300: 6bd3 14be bbce 5ebb 4da0 3a3e 0291 9abe
00000310: 2586 b9bd 4512 6dbe bd50 993d b072 24be
00000320: 3745 cbbd 3b92 ec3e f55f 233d 2f2a 22bd
00000330: 2f43 3ebe 4f1d 94bd aabb 203e 2ed6 793d
00000340: fb39 acbd 1b2f 9d3d f85d 5bbe ef9a febc
00000350: db3c ce3d 60fc 823e ca2a 0b3e 7ab8 20be
00000360: 59c3 7fbe e0e2 a13e cb52 e43d 88ca 993b
00000370: dafa d03e 795f f73d 6a93 713e 0f06 6c3e
00000380: 7d42 953e d2e5 1dbe e687 fabd b4e2 c2bd
00000390: 05e8 9bbc c2cd 023f 457e b63c 9257 b0be
000003a0: f34b 013e d569 09be ba2b 2f3e 7fc5 dfbe
000003b0: e06e 5dbd 72c2 b33d 4a29 29bd be8a 9c3d
000003c0: 4470 1abe d02a 38bd 4230 00bf a7f9 58be
000003d0: 82f6 20be 4df8 d2bd a607 093d 58e0 72bd
000003e0: 1ea9 b43e a1e1 c7bc 5027 df3e 86b7 24bc
000003f0: 4c24 cc3d 63f1 5bbe c9cb a1bd 688b 2bbe

gats.gnn_layers.3.gat_conv.attn_l f4 [1, 4, 14]
0.40362915 -0.17892645 -0.41428468 -0.05230398 -0.033051886 0.059976593 -0.012236744 0.19343863
0.29068702 -0.010816415 -0.10164513 -0.08980386 -0.066703126 -0.026933124 -0.04976257 -0.07585608
-0.17278484 -0.0039512054 0.15165813 0.27562064 0.4199169 -0.14326723 0.0640237 0.2209745
-0.14051759 -0.0697535 0.16494592 0.049447473 -0.24050239 -0.063520126 -0.2882745 0.31256324
0.03931756 -0.11498826 -0.09014749 0.13316901 -0.12449147 -0.2758085 0.14894332 -0.112906575
0.24319088 -0.14925204 -0.20377983 -0.21794495 0.102294266 0.13963355 0.0071207616 -0.044471975
0.19384035 0.12492063 -0.20646933 -0.121980816 -0.30009282 -0.13093704 -0.24397178 0.22309607
00000000: 7ba8 ce3e 7f38 37be 1f1d d4be b33c 56bd
00000010: 6a61 07bd 04aa 753d a07c 48bc c714 463e
00000020: eed4 943e 5537 31bc 522b d0bd 16eb b7bd
00000030: a69b 88bd dba2 dcbc d6d3 4bbd 6f5a 9bbd
00000040: 82ee 30be 1d79 81bb 454c 1b3e 261e 8d3e
00000050: 59ff d63e a5b4 12be dc1e 833d 2447 623e
00000060: d8e3 0fbe ecda 8ebd 95e7 283e 6f89 4a3d
00000070: 4246 76be d716 82bd b798 93be 4a08 a03e
00000080: 730b 213d f77e ebbd 3f9f b8bd 755d 083e
00000090: 62f5 febd c636 8dbe 9984 183e 903b e7bd
000000a0: 0807 793e 87d5 18be a9ab 50be f62c 5fbe
000000b0: a87f d13d 19fc 0e3e 4755 e93b 3f28 36bd
000000c0: 167e 463e 63d6 ff3d b26c 53be 14d1 f9bd
000000d0: c4a5 99be 5c14 06be bdd3 79be 4c73 643e

gats.gnn_layers.3.gat_conv.attn_r f4 [1, 4, 14]
0.28431684 0.04302019 -0.028165473 0.39896077 -0.32193717 0.36698776 -0.044282787 0.12864491
0.24667518 0.5254661 -0.03269191 -0.26064083 -0.14359397 0.18203244 -0.33561602 0.046284586
0.23366767 0.32558995 0.048214123 -0.1709921 0.28545403 0.32287472 0.17422889 0.29701817
-0.22587053 0.30707893 -0.11879669 -0.009492731 0.2730042 -0.30135223 0.44147414 -0.29767552
0.2944793 0.3923701 -0.07420675 -0.1733251 0.39016414 -0.05943198 -0.0800153 0.052327044
-0.4119631 0.17550308 -0.28216165 -0.110287294 0.28766182 -0.0307077 -0.13191074 -0.49944055
0.14758818 0.0059320615 -0.074484766 -0.0079214685 -0.037450623 -0.2262754 -0.054318815 0.23436081
00000000: fa91 913e f035 303d 47bb e6bc 9644 cc3e
00000010: f3d4 a4be d2e5 bb3e de61 35bd 7ebb 033e
00000020: 6b98 7c3e f284 063f f4e7 05bd b772 85be
00000030: 4c0a 13be b666 3a3e ddd5 abbe e894 3d3d
00000040: 9446 6f3e bab3 a63e 2c7c 453d 8e18 2fbe
00000050: 0827 923e d64f a53e 0f69 323e c412 983e
00000060: 9b4a 67be 7339 9d3e ae4b f3bd 6687 1bbc
00000070: 35c7 8b3e d74a 9abe e608 e23e ed68 98be
00000080: fec5 963e bce4 c83e b5f9 97bd 237c 31be
00000090: 98c3 c73e f36e 73bd 10df a3bd e254 563d
000000a0: d4ec d2be 14b7 333e 7e77 90be 4ede e1bd
000000b0: 6948 933e b78e fbbc 9c13 07be acb6 ffbe
000000c0: 5b21 173e bd61 c23b 788b 98bd 0cc9 01bc
000000d0: d365 19bd bdb4 67be 687d 5ebd 48fc 6f3e
