models/1/GAT.pth (torch, 484259 bytes, 19 tensors)

gats.gnn_layers.0.gat_conv.attn_l f4 [1, 4, 32]
0.39444488 0.11219099 -0.11065751 -0.2866651 -0.0914691 0.056360308 -0.025578279 0.017386671
0.445794 0.24104609 -0.07435007 -0.008421101 0.025481036 -0.111806296 0.30867887 0.14608327
0.24401475 -0.118565805 -0.08616967 0.47988677 0.16214466 0.049707666 -0.064386375 -0.04595148
-0.32888472 -0.20576842 0.034460645 -0.34497684 -0.08959861 -0.018774357 0.15293908 -0.052792475
0.17163347 -0.047911625 -0.2545862 0.29534665 0.15577386 0.4197832 0.19225901 -0.34008324
-0.2653316 0.4446258 -0.15327351 -0.13937053 0.19486392 -0.102084406 -0.17163147 0.22234794
0.05957152 -0.29164344 0.2109095 0.25213006 0.014392488 -0.057311065 0.24278331 -0.21839064
0.12700574 0.4108661 -0.14971311 0.18534638 0.52269864 -0.0060374755 0.18650159 0.029722033
0.09767596 -0.16239642 0.06557376 0.0046224664 -0.06916579 0.2329492 -0.044820204 -0.04792258
0.10795882 -0.2780396 0.1033319 0.15658613 0.12167178 0.029671457 0.067038625 0.036745455
-0.1274926 0.2287973 0.099180736 0.14839834 -0.07333684 -0.018007997 0.031212643 0.0033533643
0.29280576 0.025443818 0.07580577 0.24886099 0.39888322 0.11586399 0.50386983 -0.24599914
-0.28037304 -0.18630862 0.11952232 -0.008133254 0.017344845 0.11665164 -0.08821847 -0.059316855
0.18700726 -0.056123417 -0.3249297 0.15126714 -0.08157517 -0.220704 0.15014626 0.15771803
0.15237772 0.032893356 -0.08474505 -0.063145794 -0.058464855 -0.011928058 -0.38005364 0.0025343266
0.09725217 -0.13340805 -0.14112648 0.043109763 0.11950919 -0.28631637 0.21631 -0.15578206
00000000: aef4 c93e 64c4 e53d 68a0 e2bd c5c5 92be
00000010: 2754 bbbd 11da 663d 8a89 d1bc 7e6e 8e3c
00000020: 1c3f e43e c9d4 763e d944 98bd a8f8 09bc
00000030: 9bbd d03c b3fa e4bd 280b 9e3e da96 153e
00000040: 01df 793e a1d2 f2bd b979 b0bd b8b3 f53e
00000050: 4009 263e 449a 4b3d 01dd 83bd 9e37 3cbd
00000060: 9463 a8be f5b4 52be 9b26 0d3d cea0 b0be
00000070: 7a7f b7bd aecc 99bc 109c 1c3e ec3c 58bd
00000080: afc0 2f3e fb3e 44bd 1f59 82be ad37 973e
00000090: 2f83 1f3e d3ed d63e 8cdf 443e 641f aebe
000000a0: 8bd9 87be fea5 e33e bbf3 1cbe 26b7 0ebe
000000b0: 688a 473e a111 d1bd 29c0 2fbe 2eaf 633e
000000c0: 4401 743d 4a52 95be a9f8 573e 3117 813e
000000d0: 78ce 6b3c 02bf 6abd 309c 783e cca1 5fbe
000000e0: cb0d 023e 0b5d d23e 654e 19be 71cb 3d3e
000000f0: 94cf 053f 04d6 c5bb 46fa 3e3e 9f7b f33c
00000100: 550a c83d 3f4b 26be 894b 863d 0f78 973b
00000110: cba6 8dbd 3c8a 6e3e 6495 37bd 784a 44bd
00000120: 8419 dd3d 355b 8ebe ad9f d33d 1d58 203e
00000130: 0e2f f93d 8e11 f33c 8c4b 893d 6782 163d
00000140: 6c8d 02be d749 6a3e 451f cb3d bcf5 173e
00000150: a031 96bd 8285 93bc a8b1 ff3c 1ec4 5b3b
00000160: a3ea 953e 8e6f d03c 0e40 9b3d 6ad5 7e3e
00000170: 6c3a cc3e 194a ed3d 9dfd 003f 33e7 7bbe
00000180: 0e8d 8fbe b0c7 3ebe 1ec8 f43d 5741 05bc
00000190: c716 8e3c 0ee7 ee3d e3ab b4bd 3bf6 72bd
000001a0: d57e 3f3e abe1 65bd 305d a6be c6e5 1a3e
000001b0: e210 a7bd 3b00 62be f1bf 193e d680 213e
000001c0: e808 1c3e 2fbb 063d d08e adbd 9552 81bd
000001d0: d878 6fbd e76d 43bc 6496 c2be f216 263b
000001e0: 252c c73d 1f9c 08be 7683 10be dd93 303d
000001f0: 3cc1 f43d 0f98 92be 5e80 5d3e 5585 1fbe

gats.gnn_layers.0.gat_conv.attn_r f4 [1, 4, 32]
-0.2209211 -0.08197349 -0.1651744 -0.43176112 -0.35258186 -0.09813457 -0.16478364 0.07679305
-0.026612956 0.22853881 0.22242342 -0.029781414 -0.06949334 -0.33065325 -0.29278123 0.19143349
-0.14516021 -0.063907355 0.042033628 -0.14312069 -0.2967198 -0.25533518 0.23415054 0.17974143
-0.00468273 -0.43889165 0.2837915 0.0845539 -0.3438177 -0.21891418 0.17979255 -0.07261926
0.12920576 0.3070277 -0.34091213 -0.10191802 0.15318434 -0.22909707 -0.24046953 -0.20998558
0.4361876 -0.14055614 -0.21414639 0.22586043 0.030900853 0.32344395 -0.030623967 -0.09485501
-0.44511813 0.2714696 0.011781214 -0.019986182 0.20578128 -0.28956363 -0.2061407 -0.27235177
-0.03925301 0.45273072 -0.051538806 -0.038513146 -0.10891548 -0.22745298 -0.21999209 -0.3440098
0.36010557 0.09071642 -0.10622785 0.052922197 -0.12233276 -0.12055036 0.07537909 -0.2902959
0.14388628 0.066728145 -0.03347691 -0.1519041 0.11624467 -0.21550836 -0.05952422 0.5313007
-0.38583884 -0.1493877 0.075762466 0.15253885 0.12235498 -0.38807523 -0.08707407 0.0382956
-0.2030785 0.07599104 0.13172352 -0.010453222 -0.10068338 -0.059472047 0.005752972 0.04045928
-0.21443124 -0.2031609 -0.09191027 0.10427548 -0.046023294 -0.20827709 0.22003767 -0.25997445
-0.12560438 -0.025258446 0.28259635 0.06378772 0.05718626 -0.14315034 0.17503051 -0.16509207
0.07698741 0.025466852 0.109684646 0.29205096 -0.22996253 -0.21097578 -0.29920033 -0.031558923
-0.36937195 -0.004164288 -0.01473361 0.16219063 -0.119288094 0.28052884 0.049276166 -0.09719783
00000000: 2439 62be b8e1 a7bd 7a23 29be cb0f ddbe
00000010: 9c85 b4be c7fa c8bd 0bbd 28be ad45 9d3d
00000020: 6a03 dabc 1406 6a3e f7c2 633e 27f8 f3bc
00000030: 8652 8ebd 624b a9be 6ce7 95be 2407 443e
00000040: e1a4 14be dce1 82bd 742b 2c3d 3b8e 12be
00000050: a8eb 97be 4bbb 82be 29c5 6f3e 230e 383e
00000060: 9671 99bb 68b6 e0be 1f4d 913e 982a ad3d
00000070: e008 b0be 0a2b 60be 8a1b 383e 68b9 94bd
00000080: 844e 043e bc32 9d3e 098c aebe 65ba d0bd
00000090: 5bdc 1c3e 6c98 6abe a53d 76be 7606 57be
000000a0: fb53 df3e f3ed 0fbe 3149 5bbe f547 673e
000000b0: c923 fd3c 729a a53e 1ddf fabc 5843 c2bd
000000c0: 86e6 e3be 10fe 8a3e fe05 413c 10ba a3bc
000000d0: 54b8 523e af41 94be 8c16 53be b171 8bbe
000000e0: c4c7 20bd 52cc e73e 5b1a 53bd f6bf 1dbd
000000f0: 140f dfbd 6fe9 68be 9b45 61be 0d22 b0be
00000100: c25f b83e 88c9 b93d fd8d d9bd f2c4 583d
00000110: 9989 fabd 1be3 f6bd 5a60 9a3d aaa1 94be
00000120: ed56 133e c4a8 883d 161f 09bd c08c 1bbe
00000130: af11 ee3d 39ae 5cbe abcf 73bd 5303 083f
00000140: ab8c c5be 17f9 18be 5a29 9b3d 2533 1c3e
00000150: 3f95 fa3d ccb1 c6be e453 b2bd d9db 1c3d
00000160: cff3 4fbe 31a1 9b3d 88e2 063e fe43 2bbc
00000170: 1733 cebd f698 73bd 6d83 bc3b a1b8 253d
00000180: dd93 5bbe 6909 50be 743b bcbd 628e d53d
00000190: ec82 3cbd 9746 55be 8e51 613e 5f1b 85be
000001a0: 6f9e 00be cdea cebc 78b0 903e 23a3 823d
000001b0: 243c 6a3d 0196 12be 333b 333e e50d 29be
000001c0: 93ab 9d3d dc9f d03c 58a2 e03d b487 953e
000001d0: 4c7b 6bbe 090a 58be c930 99be ee43 01bd
000001e0: 521e bdbe 9474 88bb 3d65 71bc 4d15 263e
000001f0: 514d f4bd 7aa1 8f3e ced5 493d a80f c7bd

gats.gnn_layers.0.gat_conv.fc.weight f4 [128, 74]
-0.17637415 -0.093218334 0.15443511 -0.3612199 -0.08287316 0.026623974 0.016446607 -0.047573403
-0.10888441 -3.802111e-10 1.8326049e-10 -4.5222138e-18 -9.3224574e-11 6.21978e-14 -6.2753844e-13 0.21059678
-2.391986e-12 -1.08092255e-14 -1.8673805e-14 3.4049354e-15 1.4281282e-13 -1.696478e-14 0.3555202 -1.7113444e-11
2.1604643e-13 3.065122e-13 8.053284e-18 -0.19630672 -5.466409e-14 -1.8879702e-10 1.1857582e-13 3.5524132e-15
3.2931282e-18 -1.0244378e-11 -7.765789e-18 1.5542762e-14 7.5391525e-12 6.8359376e-12 -1.419401e-13 -5.9919576e-11
7.183928e-15 7.266228e-13 3.5357419e-15 1.456979e-14 0.16168621 -0.062339257 -0.13831232 -0.25957504
-4.768111e-14 6.2371543e-13 -4.3345525e-13 -1.4869518e-14 -2.0343806e-13 -5.8050296e-12 -0.109631434 -0.2656438
-0.21085107 -0.05519094 -6.8607287e-11 -1.4496413e-11 -5.930494e-13 0.18690331 -1.2796654e-12 -0.13105889
0.071290694 -0.13429603 -2.272686e-09 -3.041295e-16 -0.08131813 -0.0076490073 -0.24209474 0.17524642
-0.04801709 -4.1517287e-17 -0.15957174 0.18236732 0.10041567 0.31636357 0.008319637 0.0038152982
-0.042379238 -0.17839497 0.12058655 9.252411e-15 7.364925e-14 1.14656455e-14 1.312406e-14 -2.8432616e-17
-1.5561113e-13 0.18247424 1.045597e-17 1.7721181e-14 2.5360632e-11 -1.2760279e-16 1.427554e-13 -6.854872e-11
0.24246737 3.8456415e-11 -1.1314522e-17 6.8708034e-10 -1.2319874e-10 -0.15563212 4.1534465e-13 3.6690304e-13
-1.0587954e-10 -6.907769e-17 -6.982443e-14 1.5700466e-15 -1.4036122e-13 3.7909875e-09 6.5188592e-12 1.3292401e-13
1.7140621e-14 2.7603064e-10 1.03346e-14 3.2057036e-14 1.5086794e-13 1.5563034e-15 -0.04900472 -0.32490933
0.040269006 -0.010123938 -5.8921793e-15 -1.2286377e-15 -7.742987e-15 -6.592016e-11 3.3125358e-13 -8.842652e-18
-0.10205539 -0.13673459 0.02021671 0.005309976 -5.68435e-12 1.6520345e-09 8.47267e-11 -0.30575374
5.8405104e-12 -0.17788881 0.14513364 -0.11329211 3.834834e-13 -5.4147186e-12 -0.09317539 0.053582106
-0.35305333 0.044386316 -0.112677634 1.6156644e-13 -0.16293932 0.17034644 -0.20632139 0.07059427
0.10956895 -0.008909072 -0.20749791 -0.12145416 0.10543406 -5.0524604e-14 2.1847701e-10 1.5515526e-09
3.3282598e-14 -2.4379013e-11 1.0365113e-11 -0.14625952 7.5715115e-15 -8.90424e-14 -2.51866e-12 -6.375073e-15
1.2080893e-10 -1.3126457e-12 -0.06498439 3.1289148e-13 -3.3871336e-15 4.0834217e-10 -2.5568935e-13 0.0145350415
3.7876453e-09 7.566077e-14 7.574464e-12 -1.1811527e-15 3.0103636e-14 -1.0120651e-14 -6.190288e-13 -6.839886e-11
2.560435e-14 -2.9661733e-13 -7.4364936e-10 3.852531e-14 1.5256501e-11 -1.3609856e-18 1.589004e-10 -1.4283482e-09
-0.08912806 0.074309185 0.08372582 -0.0314476 1.2683568e-13 -1.1111612e-17 4.7684236e-13 6.536577e-11
-8.381297e-14 -5.690266e-14 -0.117589384 0.08091302 0.037166916 0.071033746 4.126763e-14 8.918737e-15
4.871575e-15 -0.0061519863 -5.8530616e-13 -0.043658998 -0.09399786 0.051163655 -1.1952475e-14 1.0070808e-14
0.16470557 -0.11456074 -0.22700998 0.15390599 -0.07687006 2.2306082e-14 0.023318522 -0.11934684
0.120941445 -0.1282522 0.011846425 -0.011786069 0.15081714 -0.0164635 -0.33928144 -1.4232295e-11
2.1860569e-12 1.953435e-19 -2.5208674e-12 -4.4599875e-18 -3.9415818e-13 -0.19392323 -4.3078717e-14 2.3749057e-16
-1.5331196e-15 6.850357e-11 7.431169e-12 4.792971e-15 -0.23314619 -1.2180699e-14 -5.9538143e-09 1.6757278e-16
2.9546318e-10 0.077702574 2.9220884e-10 1.5757412e-14 2.728255e-13 3.061433e-14 -2.9084454e-16 8.085093e-14
00000000: 6d9b 34be 41e9 bebd 3d24 1e3e d1f1 b8be
00000010: 67b9 a9bd 851a da3c 09bb 863c 54dc 42bd
00000020: cafe debd f505 d1af 3e7f 492f 1ad7 a6a2
00000030: c500 cdae 970e 8c29 e9a2 30ab afa6 573e
00000040: 3052 28ac c1b8 42a8 dd32 a8a8 f959 7527
00000050: feca 202a 1fce 98a8 be06 b63e 0d88 96ad
00000060: 253f 732a 108d ac2a 8f8e 1423 a104 49be
00000070: 682f 76a9 a395 4faf 2781 052a 75fa 7f27
00000080: 6ffd 7222 9438 34ad e740 0fa3 2bff 8b28
00000090: 53a1 042d a784 f02c 73cf 1faa b9c3 83ae
000000a0: 056a 0128 b186 4c2b edc6 7e27 a63b 8328
000000b0: 1291 253e 7357 7fbd bfa1 0dbe 05e7 84be
000000c0: 94bc 56a9 6f8f 2f2b 7c03 f4aa c6ee 85a8
000000d0: 070d 65aa 0f3f ccac 7286 e0bd 7702 88be
000000e0: 58e9 57be e50f 62bd 78de 96ae 0a06 7fad
000000f0: b7ed 26ab 9563 3f3e ce18 b4ab 4d34 06be
00000100: db00 923d e684 09be 842d 1cb1 9851 afa5
00000110: 1f8a a6bd 86a4 fabb afe7 77be cc73 333e
00000120: 91ad 44bd f676 3fa4 c666 23be 80be 3a3e
00000130: bba6 cd3d 68fa a13e 164f 083c 150a 7a3b
00000140: da95 2dbd 2cad 36be 15f6 f63d 37ad 2628
00000150: e7d7 a529 f58b 4e28 0b6c 6c28 4f1f 03a4
00000160: db33 2faa 87da 3a3e ece0 4023 439e 9f28
00000170: 1113 df2d b21d 13a5 71ba 202a 80bd 96ae
00000180: 5e49 783e 1322 292e 52b7 50a3 fbdc 3c30
00000190: 5d75 07af 075e 1fbe 79d1 e92a 4d8c ce2a
000001a0: e2d4 e8ae 4548 9fa4 0b3b 9da9 7f44 e226
000001b0: 5e08 1eaa e141 8231 aa5c e52c bda8 152a
000001c0: 9563 9a28 dcbf 972f ee2b 3a28 3f5f 1029
000001d0: b9dc 292a 7649 e026 2cb9 48bd 845a a6be
000001e0: 1df1 243d e0de 25bc c349 d4a7 bb10 b1a6
000001f0: 3a7c 0ba8 c0f5 90ae ac7a ba2a 3e1e 23a3
00000200: 6b02 d1bd 2704 0cbe 849d a53c 4fff ad3b
00000210: 1300 c8ac cc0d e330 e450 ba2e c18b 9cbe
00000220: a47e cd2c 7c28 36be ea9d 143e b205 e8bd
00000230: c8e1 d72a 7383 beac bdd2 bebd e978 5b3d
00000240: 68c3 b4be 6dce 353d 88c3 e6bd 5be8 352a
00000250: 91d9 26be 4c6f 2e3e ea45 53be bb93 903d
00000260: b065 e03d 5bf7 11bc 557a 54be f5bc f8bd
00000270: d0ed d73d e78a 63a9 d037 702f 673e d530
00000280: 39e4 1529 a870 d6ad 5258 362d 0ec5 15be
00000290: 6f65 0828 7381 c8a9 253c 31ac acaf e5a7
000002a0: b1d4 042f 0cbd b8ab 8916 85bd 6a24 b02a
000002b0: 9611 74a7 0d7d e02f b8f0 8faa 6224 6e3c
000002c0: 7b24 8231 775f aa29 5a40 052d d838 aaa6
000002d0: 2193 0729 4451 36a8 ba3d 2eab 2369 96ae
000002e0: 9d9f e628 10fb a6aa ac69 4cb0 a980 2d29
000002f0: 9632 862d 95d8 c8a1 7db6 2e2f 894f c4b0
00000300: c688 b6bd 6a2f 983d 7178 ab3d 33cf 00bd
00000310: e5cd 0e2a 1bf9 4ca3 1d38 062b a8bd 8f2e
00000320: e3ba bca9 2622 80a9 b4d2 f0bd bab5 a53d
00000330: 563c 183d 247a 913d 57da 3929 6aaa 2028
00000340: 5984 af27 9a96 c9bb c1bf 24ab c7d3 32bd
00000350: f381 c0bd fb90 513d 1051 57a8 686b 3528
00000360: 94a8 283e d29e eabd 4e75 68be 8899 1d3e
00000370: 0d6e 9dbd 53ea c828 7c06 bf3c 1e6c f4bd
00000380: 26b0 f73d 8b54 03be 8217 423c 5b1a 41bc
00000390: cf6f 1a3e 76de 86bc 4cb6 adbe 8f60 7aad
000003a0: 80d4 192c f39e 6620 e963 31ac 648b a4a2
000003b0: 2ee4 ddaa d093 46be 6102 42a9 6ce7 8825
000003c0: 21f2 dca6 15a4 962e 03bb 022d 5baf ac27
000003d0: e0bd 6ebe 8f6d 5ba8 4e92 ccb1 c132 4125
000003e0: bf6e a22f 8722 9f3d bda4 a02f 1eee 8d28
000003f0: 4c96 992a ebdf 0929 14a9 a7a5 630f b629

gats.gnn_layers.0.gat_conv.res_fc.weight f4 [128, 74]
-0.074019626 -0.18429142 -0.077516705 -0.21172968 -0.0064776987 -0.038000733 -0.11875999 -0.2641977
-0.07743792 2.604638e-12 -1.6326237e-11 7.980314e-11 4.2122176e-14 8.5371673e-13 3.862156e-14 -0.020668622
2.3610195e-14 6.2927034e-13 -4.1900443e-16 -1.6810242e-11 2.089303e-14 -1.2227143e-10 0.15087818 -1.1996622e-14
3.37278e-13 1.513246e-10 2.1302416e-11 -0.055615254 3.0692454e-17 6.190195e-14 -4.9022405e-14 2.3105489e-12
6.781805e-11 -1.1484457e-14 1.3897772e-16 3.9234908e-13 7.819253e-12 1.2168971e-14 4.8726783e-13 -2.7490471e-14
-7.114214e-19 -9.8810315e-15 2.9808212e-18 1.9923464e-13 -0.30360726 -0.055482212 -0.13415368 0.13303967
-5.264747e-10 1.9945426e-10 -5.738105e-14 9.645008e-14 -5.814535e-13 -1.3431659e-13 0.06846394 0.25265092
-0.004095887 0.017566808 -7.144849e-19 1.8908475e-10 -5.394461e-13 -0.16524445 3.6151874e-19 0.15800829
0.16303825 0.039167095 6.848615e-17 -2.0117727e-09 -0.19543487 -0.033113718 -0.046104264 0.06464945
0.020828554 -3.220071e-17 -0.34267607 0.56872696 -0.12980117 0.13711077 -6.8466295e-05 0.0003585088
0.23857431 -0.005271969 0.10516553 -4.9751226e-14 -1.3087939e-18 -7.439261e-15 3.1985292e-14 9.282208e-13
-7.9920804e-16 -1.3678455e-06 -5.964718e-14 -4.8660465e-10 -1.4098946e-13 1.7539727e-11 3.0522026e-18 -1.0269005e-15
-3.6909565e-05 1.0026706e-13 -4.5200118e-11 1.3474555e-14 4.4765064e-12 -0.004095498 2.0256472e-13 -1.7399271e-11
1.5206212e-13 4.5011976e-12 1.1267009e-13 5.901895e-14 4.774037e-12 2.7511137e-11 2.7374844e-13 8.055972e-09
-4.556328e-16 1.1462978e-11 -4.8416083e-13 -1.728464e-13 -4.0079155e-11 -4.224177e-19 -0.28724918 0.122720264
0.074836634 0.06687775 -6.214036e-13 -4.4485706e-14 -4.2299983e-15 3.6492306e-11 -2.8770685e-15 -1.825782e-10
0.013168646 0.05032688 0.023332456 -0.0644412 -3.1678246e-13 1.7007715e-11 -4.4647666e-10 0.1876813
-1.3130928e-13 -0.105244726 0.09706103 -0.2003033 2.1287848e-12 -3.7129184e-09 -0.08262777 -0.12276075
-0.031975374 0.08801431 0.088318825 -2.1263107e-14 0.06212514 0.25807142 0.12718166 0.110819675
-0.005114585 -6.390743e-05 0.061712574 0.21739452 0.19283111 -1.3282752e-13 -5.785219e-13 -3.4295472e-16
-2.0328888e-12 1.2935784e-13 1.802268e-11 -0.026902035 -1.7000307e-11 -2.1857195e-13 -1.5270209e-15 -1.544977e-14
3.5189017e-13 -3.964859e-15 -0.05332763 4.9834633e-11 6.8669827e-12 7.915365e-16 6.2094894e-14 0.1541798
4.954217e-10 -1.0208957e-14 -9.28478e-15 7.743516e-11 -5.746134e-14 2.0536262e-13 -5.9681912e-12 2.4861027e-13
-7.566965e-14 -2.194102e-11 -6.118277e-10 -2.2221521e-12 3.451165e-13 -1.1031052e-13 5.3462755e-12 -6.391214e-11
0.05106097 -0.15702201 -0.26705495 -0.14896633 -2.6579521e-14 7.3839916e-19 5.6571064e-14 -4.480135e-12
-2.1967409e-13 1.7306827e-10 -0.057244543 -0.123359986 -0.024148574 0.13327001 1.8461147e-10 -4.2662998e-17
-1.663659e-10 -0.2283648 -7.006721e-14 0.14220189 0.09050886 -0.0023229548 1.1519154e-12 2.3546761e-12
0.07002039 -0.20534803 -0.11897494 -0.04303508 0.18859951 1.2019846e-13 -0.21209389 -0.19023897
-0.18529563 -0.09375058 -0.07817552 -0.007780088 -0.014487912 0.22014226 -0.18257342 3.3007298e-15
-7.604089e-18 1.4747237e-15 -1.1022485e-09 -3.6152306e-10 3.4022497e-11 -0.12235236 4.6291274e-15 3.6977482e-13
-1.0830129e-11 -3.8728596e-14 -1.1934322e-13 7.0325215e-15 -0.035255715 2.3919551e-12 -1.11749065e-14 -2.4490733e-14
2.546882e-12 -0.10313024 5.7958426e-11 1.1734241e-17 3.884066e-16 6.7009054e-14 -8.060025e-12 8.4075294e-19
00000000: 9a97 97bd e4b6 3cbe 14c1 9ebd aacf 58be
00000010: e042 d4bb a8a6 1bbd 7038 f3bd ec44 87be
00000020: c697 9ebd fd48 372c 6b9b 8fad 2d7d af2e
00000030: 90b3 3d29 c64c 702b a1ef 2d29 3e51 a9bc
00000040: 67a9 d428 b51f 312b 248a f1a5 4ddd 93ad
00000050: 0c30 bc28 5970 06af cf7f 1a3e a71c 58a8
00000060: e2de bd2a 1762 262f c760 bb2d d2cc 63bd
00000070: 418b 0d24 0b64 8b29 fcc6 5ca9 2697 222c
00000080: 2b22 952e b6e2 4ea8 fc3a 2025 76df dc2a
00000090: c98e 092d 7937 5b28 5927 092b b69c f7a8
000000a0: 7bf9 51a1 3700 32a8 1ff2 5b22 7a51 602a
000000b0: 6972 9bbe 5141 63bd 955f 09be 8d3b 083e
000000c0: 5db7 10b0 624d 5b2f ec35 81a9 b02f d929
000000d0: 24aa 23ab 1f3a 17aa d236 8c3d 765b 813e
000000e0: ca36 86bb 44e8 8f3c f4e0 52a1 a0e6 4f2f
000000f0: 30d7 17ab d735 29be 2b67 d520 edcc 213e
00000100: 80f3 263e ad6d 203d 16eb 9d24 7b3f 0ab1
00000110: 1420 48be 40a2 07bd d3d7 3cbd ee66 843d
00000120: a5a0 aa3c e37f 14a4 3d73 afbe 1798 113f
00000130: 99ea 04be c466 0c3e 9095 8fb8 3df6 bb39
00000140: d34c 743e 7bc0 acbb 0761 d73d 420f 60a9
00000150: d624 c1a1 8903 06a8 880c 1029 aea2 822b
00000160: 255b 66a6 d096 b7b5 4250 86a9 c2c1 05b0
00000170: 72bd 1eaa f447 9a2d 7a36 6122 f1fd 93a6
00000180: 58cf 1ab8 06c8 e129 cfca 46ae 6bbc 7228
00000190: c980 9d2c 8733 86bb 4e11 642a ad0b 99ad
000001a0: ec34 2b2a 2f5f 9e2c e3b5 fd29 1ce6 8429
000001b0: b4f8 a72c 93fd f12d 4f1b 9a2a 8a66 0a32
000001c0: c453 03a6 aaa8 492d 7747 08ab 959b 42aa
000001d0: 1e45 30ae f559 f9a0 5312 93be c354 fb3d
000001e0: f343 993d 34f7 883d d9e8 2eab 8758 48a9
000001f0: d966 98a7 af7e 202e 8c50 4fa7 32bf 48af
00000200: 4ec1 573c 8f23 4e3d b523 bf3c bff9 83bd
00000210: 2a55 b2aa f899 952d 0174 f5af 872f 403e
00000220: 53d7 13aa 8c8a d7bd efc7 c63d 4f1c 4dbe
00000230: c7cc 152c 5a26 7fb1 c038 a9bd fd69 fbbd
00000240: 9cf8 02bd d940 b43d 80e0 b43d 6385 bfa8
00000250: ee76 7e3d f021 843e e93b 023e 6df5 e23d
00000260: 4098 a7bb 0a06 86b8 53c6 7c3d ab9c 5e3e
00000270: 8575 453e ed8c 15aa e5d6 22ab 2fb3 c5a5
00000280: 450d 0fac dca4 112a 7887 9e2d a861 dcbc
00000290: 4a89 95ad 1317 76aa 2111 dca6 bf28 8ba8
000002a0: b818 c62a 5fd9 8ea7 136e 5abd cf2c 5b2e
000002b0: 489c f12c 1625 6426 45d3 8b29 4fe1 1d3e
000002c0: 342e 0830 81e8 37a8 7d42 27a8 1f48 aa2e
000002d0: 3564 81a9 bf37 672a b0fc d1ac 84f4 8b2a
000002e0: 9564 aaa9 c9fe c0ad 8c2d 28b0 bc5e 1cac
000002f0: 8848 c22a af65 f8a9 f81a bc2c 568b 8cae
00000300: 4f25 513d 61ca 20be 6dbb 88be a18a 18be
00000310: 3468 efa8 ddef 5921 ffc5 7e29 78a1 9dac
00000320: bf54 77aa 634a 3e2f 4179 6abd 29a4 fcbd
00000330: 3bd3 c5bc ef77 083e 82fb 4a2f 94bf 44a4
00000340: d6eb 36af 76d8 69be ffc6 9da9 5f9d 113e
00000350: b65c b93d b73c 18bb 201e a22b 13b2 252c
00000360: da66 8f3d c146 52be 22a9 f3bd 8d45 30bd
00000370: 3b20 413e d954 072a 242f 59be 01ce 42be
00000380: 23be 3dbe 4e00 c0bd 7d1a a0bd 1cf0 febb
00000390: b55e 6dbc f96c 613e 87f4 3abe b8d7 6d27
000003a0: 4c45 0ca3 b487 d426 ec7d 97b0 d9bf c6af
000003b0: eda1 152e e093 fabd 2ac8 a627 2b2a d02a
000003c0: 9186 3ead 086b 2ea9 575e 06aa 905f fd27
000003d0: 4c68 10bd a251 282c 294f 49a8 c997 dca8
000003e0: 8c38 332c f335 d3bd 63e7 7e2e 6375 5823
000003f0: b2e6 df25 17e4 9629 20cb 0dad 7f25 7821

gats.gnn_layers.1.gat_conv.attn_l f4 [1, 4, 32]
0.074965715 -0.31140542 0.11013371 -0.17314623 -0.12327236 -0.13519683 -0.0046321913 0.4107528
0.18099922 0.25392786 -0.14510503 -0.032887843 -0.18436667 0.04661216 -0.1893025 -0.0043773674
0.065384306 0.24860185 0.043514695 -0.11059266 -0.12788014 0.0914713 0.023717735 0.16054633
-0.120528474 0.039341338 0.03770177 -0.113759175 -0.28130406 0.17035475 0.23213263 0.22910064
-0.08148832 -0.020928878 0.15008843 -0.42516348 0.10822914 0.11835738 -0.18609913 0.22896604
-0.07836134 -0.24840543 0.22170962 0.16961402 0.1231307 -0.2845399 0.103168935 0.06859814
-0.17846708 -0.1577123 -0.08755299 -0.0112296725 0.2156197 -0.27883023 -0.3354142 0.20043497
0.08806071 -0.04504205 -0.29664785 0.114632785 -0.48863533 -0.1352977 0.28757593 0.13296531
0.2686359 -0.014944479 0.08780536 0.09475843 -0.22681746 -0.42986083 0.046650372 0.28146285
-0.030664079 0.16668713 0.20419349 0.21346718 -0.18592764 -0.30074567 0.11629883 -0.10394995
0.24778886 -0.106569044 0.16945577 0.13215318 0.44547117 0.4787308 0.37944934 0.064581044
-0.08958796 0.08933116 0.3264248 0.35082588 0.07955853 0.026632285 -0.002524564 0.32378927
-0.10071622 -0.10858836 0.13480933 0.37880832 -0.05113344 0.24870166 -0.06889007 0.17480516
0.35267165 -0.35663295 -0.33520278 0.27874988 -0.06425947 0.16195539 0.040898636 -0.5053005
-0.045971233 -0.062100276 -0.15885484 -0.0274528 -0.19325808 -0.08334518 0.067212045 0.32413375
0.21869317 -0.10521698 -0.3130251 -0.06650141 -0.17656058 0.006009551 0.24339178 0.25552547
00000000: a087 993d 8870 9fbe c88d e13d 3f4d 31be
00000010: 3876 fcbd 0a71 0abe a3c9 97bb 314e d23e
00000020: dc57 393e d502 823e 6a96 14be 67b5 06bd
00000030: 9eca 3cbe 64ec 3e3d 84d8 41be 0570 8fbb
00000040: 35e8 853d 7c91 7e3e 773c 323d 687e e2bd
00000050: 03f3 02be 4e55 bb3d b24b c23c 4266 243e
00000060: a2d7 f6bd 6224 213d 2c6d 1a3d 92fa e8bd
00000070: 1607 90be 7a71 2e3e 2db4 6d3e 5c99 6a3e
00000080: 59e3 a6bd 0a73 abbc c8b0 193e 07af d9be
00000090: 3da7 dd3d 5b65 f23d c590 3ebe 1376 6a3e
000000a0: e97b a0bd fe5d 7ebe d907 633e 4caf 2d3e
000000b0: f32b fc3d 37af 91be 3c4a d33d 2e7d 8c3d
000000c0: 13c0 36be 557f 21be fb4e b3bd a9fc 37bc
000000d0: 69cb 5c3e d6c2 8ebe 69bb abbe d33e 4d3e
000000e0: 2c59 b43d 037e 38bd 3ae2 97be 98c4 ea3d
000000f0: 692e fabe 7b8b 0abe 273d 933e 0f28 083e
00000100: a58a 893e b0d9 74bc 4cd3 b33d b510 c23d
00000110: d642 68be b816 dcbe 7614 3f3d e61b 903e
00000120: 3c33 fbbc 08b0 2a3e 1918 513e 2497 5a3e
00000130: d163 3ebe 56fb 99be 152e ee3d b6e3 d4bd
00000140: 5dbc 7d3e df40 dabd d085 2d3e 2a53 073e
00000150: cc14 e43e 341c f53e 2f47 c23e 1143 843d
00000160: e479 b7bd 41f3 b63d 2721 a73e 739f b33e
00000170: 95ef a23d f32b da3c 2873 25bb b5c7 a53e
00000180: 4e44 cebd 9363 debd 750b 0a3e 2af3 c13e
00000190: 4c71 51bd a6ab 7e3e 3d16 8dbd 2000 333e
000001a0: 6191 b43e 9898 b6be b39f abbe 4eb8 8e3e
000001b0: 789a 83bd a2d7 253e 5485 273d 605b 01bf
000001c0: 554c 3cbd dc5c 7ebd d8aa 22be b2e4 e0bc
000001d0: 72e5 45be e1b0 aabd 78a6 893d dcf4 a53e
000001e0: 1af1 5f3e 007c d7bd d344 a0be e431 88bd
000001f0: 4ccc 34be c5eb c43b b23b 793e 3cd4 823e

gats.gnn_layers.1.gat_conv.attn_r f4 [1, 4, 32]
-0.12644874 0.0445147 0.24229068 0.44953322 0.19950157 -0.13442369 0.03040486 0.019986061
-0.0046863332 -0.34555188 0.3433829 0.049263336 -0.0914839 0.41630954 0.12146926 0.052929964
-0.060323667 -0.010267323 0.14840683 0.28688788 -0.22112806 -0.179517 0.20433755 -0.21191202
-0.0046438607 -0.16721077 0.12667322 0.31355518 -0.0051201363 -0.21568716 -0.14191188 -0.0025558337
0.23359123 -0.19235042 -0.39538577 -0.19961315 -0.2926851 0.058375828 -0.19299188 -0.095831834
0.057180323 0.10240989 -0.098056935 0.267885 -0.32589793 0.08117196 -0.09816189 -0.001609616
-0.49869552 -0.14129478 0.022633597 0.11018888 -0.12607835 -0.1404257 -0.026400853 -0.5968813
-0.34832996 -0.092282556 -0.2533226 0.23066793 -0.06707163 -0.20563121 -0.42258877 -0.14854883
0.0151447 0.10336997 -0.04871029 0.13291281 -0.07492636 -0.118833736 0.07035121 0.1270722
-0.20201655 0.091143824 -0.046175495 0.03764144 0.07335215 -0.07092939 0.10814711 -0.052730463
-0.0341742 -0.07511789 -0.08014991 0.27401668 0.21557993 -0.20163924 0.01431707 0.34778866
0.25080648 0.16640924 -0.40411955 0.25193343 -0.085538566 0.055147573 0.22958374 -0.13813105
-0.03336624 -0.12496448 -0.0076493006 -0.10934151 0.07966749 -0.22177462 -0.13405201 0.029118638
0.10304969 -0.07230891 -0.10475618 0.20839138 -0.060084324 0.5326329 -0.18389444 0.31691098
0.11745373 0.04758087 0.03933734 0.0006425085 -0.42511487 -0.12566638 -0.5001997 -0.28034422
-0.234617 0.098619804 0.17578371 -0.051339682 0.3177245 0.4207676 -0.05707501 -0.25495794
00000000: c77b 01be 0c55 363d 0c1b 783e 3829 e63e
00000010: 244a 4c3e 5da6 09be 9d13 f93c cfb9 a33c
00000020: d08f 99bb 2dec b0be e2cf af3e 5ac8 493d
00000030: e95b bbbd 8626 d53e e0c4 f83d 17cd 583d
00000040: f315 77bd 4638 28bc f6f7 173e f8e2 923e
00000050: 656f 62be 4ed3 37be dd3d 513e 77ff 58be
00000060: 872b 98bb 4d39 2bbe a0b6 013e 4e8a a03e
00000070: d1c6 a7bb 18dd 5cbe 5951 11be c67f 27bb
00000080: 8a32 6f3e 82f7 44be 0170 cabe 6467 4cbe
00000090: d2da 95be 7e1b 6f3d aa9f 45be 7b43 c4bd
000000a0: ea35 6a3d 47bc d13d 13d2 c8bd 3928 893e
000000b0: 18dc a6be 7c3d a63d 1a09 c9bd c0f9 d2ba
000000c0: 0555 ffbe 94af 10be 186a b93c b5aa e13d
000000d0: af1a 01be c1cb 0fbe 9a46 d8bc 36cd 18bf
000000e0: 4e58 b2be a3fe bcbd 80b3 81be 3734 6c3e
000000f0: da5c 89bd fd90 52be 8e5d d8be 2f1d 18be
00000100: 7a21 783c a3b3 d33d 7184 47bd 4c1a 083e
00000110: fe72 99bd 1a5f f3bd 4c14 903d 371f 023e
00000120: 6ddd 4ebe 9da9 ba3d 8422 3dbd e92d 1a3d
00000130: a739 963d 6e43 91bd 3b7c dd3d e6fb 57bd
00000140: 3ffa 0bbd 69d7 99bd a325 a4bd ea4b 8c3e
00000150: fcc0 5c3e 847a 4ebe 2592 6a3c 5b11 b23e
00000160: b569 803e 2f67 2a3e c2e8 cebe 6bfd 803e
00000170: d82e afbd 6ce2 613d 0018 6b3e 3a72 0dbe
00000180: 0aab 08bd 61ed ffbd fca6 fabb 71ee dfbd
00000190: b628 a33d e318 63be ee44 09be 368a ee3c
000001a0: b70b d33d b216 94bd 688a d6bd 8d64 553e
000001b0: fb1a 76bd a15a 083f d34e 3cbe 2842 a23e
000001c0: 958b f03d 29e4 423d 3120 213d 046e 283a
000001d0: a8a8 d9be b0ae 00be 160d 00bf 4789 8fbe
000001e0: 703f 70be 2ef9 c93d a500 343e 8f49 52bd
000001f0: c9ac a23e da6e d73e 7cc7 69bd d989 82be

gats.gnn_layers.1.gat_conv.fc.weight f4 [128, 128]
0.12201693 -0.019659648 -0.16915843 0.17595053 0.21594517 0.09530252 0.24837458 0.07302616
-0.22960278 0.12436756 -0.060336545 0.09096483 0.004951739 -0.031835884 -0.17368864 0.032394648
0.2788457 0.21747486 -0.013396701 -0.020862512 -0.030326122 0.13235964 -0.2350818 -0.01233718
-0.16747278 0.098385334 -0.49775526 -0.13326105 -0.03709845 -0.16247495 0.15582462 0.01054922
-0.07797011 0.0939271 0.057726603 -0.105247304 -0.0053272764 0.10633 0.21402803 0.16058178
0.00396813 0.119966745 -0.16289 0.09192532 -0.05846576 0.034674034 0.11733192 -0.019918146
0.058563944 0.044588722 -0.1575886 0.06819589 0.24501671 -0.08619334 -0.103209384 -0.079036795
-0.17097688 -0.05862247 -0.35716468 -0.24704683 -0.045975734 -0.051266927 0.103143305 -0.13098791
-0.13594148 -0.067259185 -0.10023929 0.17675607 0.13946167 -0.06433168 -0.072856426 0.006932517
0.2379356 -0.2564851 -0.013988247 0.20547588 -0.03243811 0.03581493 0.12142982 -0.0038742975
-0.062283445 0.15465468 -0.035029568 0.050778538 0.048646487 -0.15165347 -0.006557531 -0.026404899
-0.120486796 -0.018213365 -0.039665196 -0.17699187 -0.09988144 -0.17504428 0.10150557 -0.13144237
-0.19534299 0.104212575 0.118846424 0.05465599 -0.053827118 0.05057297 0.11563117 -0.12798184
0.1817217 -0.031763013 0.09226242 -0.08177176 -0.015058138 -0.15002146 -0.0686603 0.054601785
-0.09418083 0.10388363 -0.03164606 -0.023605358 -0.023937084 0.03245858 -0.0782972 0.20053135
-0.009989714 -0.05724458 -0.13052167 0.14032447 -0.054397043 -0.12109893 0.033165697 -0.18844941
0.09293331 -0.25377008 -0.051910836 -0.031745464 -0.052126814 -0.14217634 -0.05482694 0.033441145
0.038545247 0.08345624 -0.18658939 0.09112748 -0.11939011 -0.23408435 0.0024121478 0.025361381
-0.07107941 0.00012334556 -0.12381809 0.12193771 0.12507829 0.13337855 -0.005716369 -0.014643088
-0.025166668 -0.049529623 0.103500925 0.06715107 0.0972441 0.018606925 0.08344022 -0.012778632
0.007422695 -0.06675116 0.10195677 0.26061377 -0.18938951 -0.06313313 -0.35109377 0.127194
-0.08350658 -0.08224526 0.16465436 0.018426869 0.10549012 0.0754987 0.06454557 -0.011774669
-0.065485194 0.1352966 0.22124518 -0.28407177 0.08347327 -0.08524661 0.062131926 0.07013737
-0.117216915 -0.010143575 -0.065718405 -0.10396498 -0.18280306 -0.041146945 0.023736883 -0.11108907
0.02316389 0.10741295 -0.07312514 0.121551774 0.03753951 0.013947391 -0.019924525 -0.27183428
0.05629771 0.061670613 -0.08078635 -0.17948523 0.058606297 -0.054695744 -0.1512714 -0.06565632
0.029566834 0.19949026 -0.042062838 0.25597715 0.08790824 -0.2226947 -0.24074087 0.037523475
-0.038994122 -0.02880832 -0.07789511 0.042380005 -0.07048473 -0.009263007 -0.030683734 0.09952686
-0.0717488 -0.32240593 0.05324001 0.078536175 -0.11491092 -0.01701622 -0.0079728225 0.2234464
0.05750395 -0.3406594 -0.15231475 -0.091032 0.15332308 -0.16169758 -0.14383727 0.10860003
0.10571342 0.0010434199 -0.199114 0.13070728 0.047815725 -0.17412467 -0.20068498 0.24106134
-0.18836068 -0.19772922 -0.14334139 -0.133374 0.048499398 0.021049045 -0.20475942 0.0012581944
00000000: 03e4 f93d 450d a1bc de37 2dbe 602c 343e
00000010: bb20 5d3e f82d c33d e855 7e3e bd8e 953d
00000020: fe1c 6bbe 6bb4 fe3d 7423 77bd c54b ba3d
00000030: 3342 a23b 5866 02bd 6fdb 31be 40b0 043d
00000040: ddc4 8e3e bbb1 5e3e d67d 5bbc dce7 aabc
00000050: 7d6e f8bc 4989 073e 49b9 70be e221 4abc
00000060: fc7d 2bbe 407e c93d c7d9 febe 9675 08be
00000070: 8bf4 17bd d55f 26be 7d90 1f3e a3d6 2c3c
00000080: cbae 9fbd da5c c03d bb72 6c3d e68b d7bd
00000090: 6f90 aebb 8bc3 d93d 2a2a 5b3e 8d6f 243e
000000a0: 1607 823b 20b1 f53d a3cc 26be 5843 bc3d
000000b0: cb79 6fbd 5c06 0e3d b84b f03d 612b a3bc
000000c0: bfe0 6f3d aaa2 363d e85e 21be 49aa 8b3d
000000d0: a9e5 7a3e 2286 b0bd 715f d3bd 0bde a1bd
000000e0: 9014 2fbe 1d1e 70bd 4ade b6be d8f9 7cbe
000000f0: 0d51 3cbd 45fd 51bd cc3c d33d b221 06be
00000100: 3e34 0bbe 2fbf 89bd 424a cdbd 8bff 343e
00000110: 0acf 0e3e 54c0 83bd c035 95bd 2b2a e33b
00000120: 64a5 733e 0452 83be f62e 65bc 4568 523e
00000130: d3dd 04bd adb2 123d 33b0 f83d ede7 7dbb
00000140: ed1c 7fbd cc5d 1e3e 2a7b 0fbd 28fd 4f3d
00000150: 8a41 473d 0c4b 1bbe 8fe0 d6bb 164f d8bc
00000160: c8c1 f6bd 3234 95bc f977 22bd 5b3d 35be
00000170: a48e ccbd cf3e 33be 27e2 cf3d d498 06be
00000180: fe07 48be 676d d53d c165 f33d f6de 5f3d
00000190: d379 5cbd 9a25 4f3d 09d0 ec3d ac0d 03be
000001a0: 4115 3a3e ef19 02bd 14f4 bc3d f477 a7bd
000001b0: 69b6 76bc 3a9f 19be c59d 8cbd 1fa6 5f3d
000001c0: e1e1 c0bd f1c0 d43d 4d9f 01bd 0660 c1bc
000001d0: b417 c4bc 4af3 043d 485a a0bd 1758 4d3e
000001e0: e6ab 23bc 4b79 6abd 79a7 05be 38b1 0f3e
000001f0: 6fcf 5ebd b702 f8bd c1d8 073d e2f8 40be
00000200: d253 be3d 27ee 81be 75a0 54bd 8807 02bd
00000210: ed82 55bd ad96 11be 3792 60bd 95f9 083d
00000220: 9fe1 1d3d 1beb aa3d 4a11 3fbe 0ba1 ba3d
00000230: cd82 f4bd cfb3 6fbe 2015 1e3b acc2 cf3c
00000240: 1592 91bd 5256 0139 5794 fdbd 7aba f93d
00000250: 8614 003e 6394 083e 6150 bbbb 90e9 6fbc
00000260: 542a cebc 93df 4abd 4bf8 d33d 8086 893d
00000270: ea27 c73d 8d6d 983c b5e2 aa3d 785d 51bc
00000280: 143a f33b d5b4 88bd b6ce d03d 2b6f 853e
00000290: 53ef 41be f14b 81bd 90c2 b3be 253f 023e
000002a0: 7f05 abbd 3470 a8bd 279b 283e f2f3 963c
000002b0: 340b d83d 109f 9a3d 7830 843d 8bea 40bc
000002c0: 1a1d 86bd 318b 0a3e 198e 623e db71 91be
000002d0: 09f4 aa3d c695 aebd 0c7e 7e3d 2ea4 8f3d
000002e0: 6c0f f0bd 3d31 26bc 5f97 86bd 97eb d4bd
000002f0: ba30 3bbe b389 28bd da73 c23c ab82 e3bd
00000300: 33c2 bd3c 52fb db3d a2c2 95bd 23f0 f83d
00000310: 07c3 193d 9983 643c c238 a3bc dd2d 8bbe
00000320: 6d98 663d 539a 7c3d 5073 a5bd faca 37be
00000330: 280d 703d a508 60bd e4e6 1abe d276 86bd
00000340: 2536 f23c 2d47 4c3e 154a 2cbd 700f 833e
00000350: 3c09 b43d 140a 64be c684 76be 37b2 193d
00000360: 4db8 1fbd 6dff ebbc 7987 9fbd a896 2d3d
00000370: 4c5a 90bd dec3 17bc 745c fbbc bdd4 cb3d
00000380: 09f1 92bd 6412 a5be 3212 5a3d 93d7 a03d
00000390: 6b56 ebbd 9a65 8bbc 71a0 02bc 22cf 643e
000003a0: 4389 6b3d e96a aebe 66f8 1bbe fc6e babd
000003b0: ba00 1d3e 0d94 25be 144a 13be b169 de3d
000003c0: 4780 d83d 5dc3 883a 8ae4 4bbe 21d8 053e
000003d0: 6cda 433d bd4d 32be 5d80 4dbe c9d8 763e
000003e0: 9fe1 40be 8779 4abe 16c8 12be 3293 08be
000003f0: 4ea7 463d 0c6f ac3c 74ac 51be 00ea a43a

gats.gnn_layers.1.gat_conv.res_fc.weight f4 [128, 128]
-0.001989024 -0.21879824 0.043517694 -0.14023992 0.086707 -0.08334313 0.0407218 -0.12156947
0.11473523 -0.3197242 0.39478454 -0.038838238 -0.18026365 -0.012444511 -0.18762812 0.15337655
0.13045958 0.06756077 0.13945848 0.08815127 -8.356916e-05 0.36822897 0.11574504 -0.16393286
-0.027708182 0.0050241454 -0.23988633 -0.051463418 0.04730232 -0.04047459 0.27202684 -0.016324947
-0.039661355 -0.045392606 -0.15148282 -0.13464887 -0.016138788 0.11398087 -0.048031747 0.0013521716
-0.081855826 0.07009047 -0.15513007 0.13068283 -0.18886594 -0.115774035 0.31915158 -0.0488851
-0.05043577 0.16102204 -0.1198948 0.08176601 0.05246348 -0.03078403 0.14312518 0.002753177
-0.07572918 -0.15498866 0.03920763 0.054559186 0.0067076776 -0.007541852 0.02626186 -0.18500833
0.06532869 0.10821087 -0.098781645 -0.016398152 -0.0061520752 -0.34877566 0.045205783 0.0071371975
-0.1767902 -0.08906502 -0.114060394 0.011635314 0.10017034 0.10097377 -0.047263186 0.11060595
0.22526184 0.39384827 -0.081080094 0.12748775 -0.052539285 0.21822266 -0.20899633 -0.071392186
-0.18290082 0.14743334 -0.014623598 -0.0051853624 0.13982408 0.2470633 0.02963624 -0.0063074525
-0.00494263 -0.25432548 -0.13517544 -0.1219616 0.13349159 -0.074548915 0.23732911 -0.10043154
0.09543534 0.20326759 -0.07000279 0.026205273 -0.037939157 0.2635526 0.1946865 0.098578535
4.2628308e-05 -0.13594268 -0.121786684 0.060660798 -0.16032505 0.26918903 -0.12700851 0.26626447
0.06515721 0.06765736 0.17667617 0.04506308 0.028801924 -0.14263673 -0.032435667 0.09219508
-0.17364365 0.15295632 -0.116079725 -0.026825465 0.13741046 -0.16494064 0.23717047 0.12669392
-0.016272426 -0.094863914 -0.081511155 -0.14502065 -0.076376505 0.010131699 -0.11547596 0.011651107
0.10335758 -0.03283909 -0.04994994 0.03194001 -0.0060737217 0.058952894 0.007242871 0.17703943
0.044105258 0.034149114 0.06761253 -0.1449763 -0.11702771 -0.005156588 0.26882732 0.09864617
0.00988318 0.05829449 -0.064523526 0.29242176 -0.15590306 -0.15743497 0.049445007 -0.049431153
0.0978682 -0.23675106 -0.154728 0.07291456 0.056937758 -0.08861145 0.16025364 -0.07209569
0.027999382 0.017465724 -0.19071136 -0.1762492 0.08329004 -0.05276179 -0.24833167 0.014127466
0.060008444 0.12213322 0.0038414644 0.24186942 0.14210571 -0.017564252 -0.35248342 -0.19233145
-0.028456578 0.06776638 0.07428891 -0.13853548 0.056753278 -0.26327223 -0.23873131 0.155897
-0.06632286 -0.048054017 0.16017653 -0.1657723 0.09108678 -0.076085515 0.079427205 -0.056553237
0.18233833 0.10490827 0.079114005 0.146974 -0.16346611 -0.075481 0.31324178 0.174171
0.04692832 -0.07513187 0.057343896 0.06710561 0.028768782 -0.11329634 0.045462124 -0.046893116
-0.040476017 -0.22914745 -0.008593891 -0.029416656 0.12963071 -0.0065112785 0.18254209 0.21410096
0.20396617 0.2560127 -0.051860888 -0.09546094 -0.17035139 -0.031864315 -0.19897448 -0.009530695
0.2087828 -0.22316408 -0.17373528 0.053465657 -0.22909662 0.043925323 0.078522526 0.09561807
-0.1693382 -0.13416208 -0.024551058 -0.01841911 -0.055247046 -0.13530229 -0.07913567 -0.0009491338
00000000: 495a 02bb a50c 60be 9c3f 323d 0e9b 0fbe
00000010: 7193 b13d ceaf aabd e7cb 263d 6af9 f8bd
00000020: 4efa ea3d e4b2 a3be 3321 ca3e d814 1fbd
00000030: 0997 38be 10e4 4bbc 9621 40be be0e 1d3e
00000040: 3297 053e 4d5d 8a3d 34ce 0e3e a788 b43d
00000050: da41 afb8 8288 bc3e bc0b ed3d 04de 27be
00000060: 45fc e2bc 96a1 a43b c3a4 75be 4ecb 52bd
00000070: 14c0 413d afc8 25bd 1a47 8b3e e5bb 85bc
00000080: f273 22bd 99ed 39bd 501e 1bbe 65e1 09be
00000090: 7e35 84bc cd6e e93d f0bc 44bd 5a3b b13a
000000a0: 07a4 a7bd 988b 8f3d 6bda 1ebe b8d1 053e
000000b0: 1366 41be f01a edbd d667 a33e be3b 48bd
000000c0: bd95 4ebd f6e2 243e 688b f5bd f074 a73d
000000d0: f2e3 563d ca2e fcbc 688f 123e a56e 343b
000000e0: e617 9bbd 59b5 1ebe 2e98 203d 7479 5f3d
000000f0: 14cc db3b a421 f7bb 1d23 d73c d372 3dbe
00000100: 0ccb 853d a99d dd3d 084e cabd 6b55 86bc
00000110: 5997 c9bb b992 b2be b329 393d 27df e93b
00000120: 7d08 35be b967 b6bd 7f98 e9bd 0ba2 3e3c
00000130: 1b26 cd3d 56cb ce3d 0b97 41bd 5f85 e23d
00000140: 0aab 663e 7ba6 c93e 520d a6bd 268c 023e
00000150: 6f33 57bd c375 5f3e 2203 56be 1136 92bd
00000160: 5a4a 3bbe c4f8 163e d197 6fbc f9e9 a9bb
00000170: 0b2e 0f3e 29fe 7c3e b3c7 f23c bfae cebb
00000180: c9f5 a1bb f336 82be 6e6b 0abe 01c7 f9bd
00000190: 05b2 083e 1aad 98bd 6706 733e 0daf cdbd
000001a0: 9b73 c33d 6125 503e 9f5d 8fbd 71ac d63c
000001b0: 1766 1bbd 5ef0 863e e65b 473e 8be3 c93d
000001c0: cccb 3238 8f34 0bbe 4c6b f9bd 7577 783d
000001d0: 402c 24be 25d3 893e 850e 02be d153 883e
000001e0: 2571 853d f18f 8a3d 99ea 343e 1094 383d
000001f0: 03f2 eb3c 5d0f 12be 43db 04bd c6d0 bc3d
00000200: a4cf 31be 95a0 1c3e 35bb edbd 14c1 dbbc
00000210: 54b5 0c3e 33e6 28be d1dc 723e 0dbc 013e
00000220: c04d 85bc 0348 c2bd 52ef a6bd 4b80 14be
00000230: 496b 9cbd 6dff 253c a97e ecbd 49e4 3e3c
00000240: 24ad d33d 4882 06bd 4f98 4cbd 87d3 023d
00000250: 1206 c7bb 9778 713d 9b55 ed3b d349 353e
00000260: b7a7 343d f1df 0b3d 7078 8a3d ab74 14be
00000270: 39ac efbd 98f8 a8bb bca3 893e 0107 ca3d
00000280: 10ed 213c 34c6 6e3d e924 84bd 4eb8 953e
00000290: 0da5 1fbe a236 21be d986 4a3d 5278 4abd
000002a0: 1f6f c83d df6e 72be 0471 1ebe 3b54 953d
000002b0: 9137 693d eb79 b5bd 8819 243e e8a6 93bd
000002c0: f65e e53c 4714 8f3c d749 43be ac7a 34be
000002d0: f893 aa3d bf1c 58bd a84a 7ebe e376 673c
000002e0: 6acb 753d fb20 fa3d 14c1 7b3b 9eac 773e
000002f0: 2984 113e e8e2 8fbc b578 b4be 89f2 44be
00000300: c51d e9bc 1ac9 8a3d c924 983d 3fdc 0dbe
00000310: 2076 683d 9ecb 86be fb75 74be 77a3 1f3e
00000320: 48d4 87bd 4ad4 44bd 5105 243e 37c0 29be
00000330: b58b ba3d b9d2 9bbd bbaa a23d 5ea4 67bd
00000340: e6b6 3a3e 26da d63d 8606 a23d 5a80 163e
00000350: a963 27be c895 9abd 3a61 a03e e259 323e
00000360: e937 403d bdde 99bd 6fe1 6a3d ab6e 893d
00000370: 82ac eb3c e907 e8bd 7e36 3a3d ff12 40bd
00000380: 2eca 25bd a1a5 6abe 64cd 0cbc 33fb f0bc
00000390: eabd 043e 905c d5bb 50ec 3a3e 483d 5b3e
000003a0: 82dc 503e 1914 833e 156c 54bd 0681 c3bd
000003b0: 9870 2ebe 2884 02bd f7bf 4bbe a226 1cbc
000003c0: 29cb 553e 2085 64be a9e7 31be cefe 5a3d
000003d0: 4e98 6abe 0aeb 333d 6bd0 a03d 68d3 c33d
000003e0: fe66 2dbe c961 09be 4d1f c9bc ace3 96bc
000003f0: ba4a 62bd af8c 0abe e211 a2bd 4bcf 78ba

gats.gnn_layers.2.gat_conv.attn_l f4 [1, 4, 32]
0.3415953 0.12461823 0.15967897 0.35124025 0.08506446 0.03171124 0.071255356 -0.15562986
0.32730016 0.13912418 0.36999345 -0.16721195 0.07224125 -0.12518047 0.08881728 -0.23831463
-0.056065496 -0.12143423 0.104025915 0.30648047 0.111152224 -0.105655774 0.019462176 0.15728235
0.07610153 -0.092795454 -0.38178962 -0.0864818 0.016040549 0.047109082 0.13173884 -0.22152789
0.005518706 0.15409753 -0.045101237 0.09336433 0.098819844 -0.1239811 0.18831141 0.23169695
0.084907755 0.30512068 0.16631435 0.011517862 -0.07756639 0.12896934 -0.03398629 -0.02420313
-0.09939502 0.11110923 0.23336306 0.06901785 0.22055902 -0.023319293 0.10636801 -0.17001092
0.10730947 -0.103366174 0.042248335 -0.08205367 0.059932176 0.1042791 -0.005290554 0.36984426
-0.045615666 -0.18505047 -0.16635002 0.14894979 -0.112966895 -0.15844387 0.015758764 -0.15640935
-0.30246842 0.1741432 0.0356055 0.3315739 0.28520164 -0.15737689 -0.21190824 -0.21603666
0.10413355 0.06540414 -0.1705453 -0.012497781 0.35395685 -0.17350979 0.20012362 -0.07168703
0.26005197 -0.22809638 -0.36828256 0.0046133166 -0.033195402 0.08247342 -0.23507215 0.0033569962
0.0035404162 0.12412879 -0.2864295 0.12672281 -0.116037115 0.0961986 0.38796586 -0.34829652
0.26673245 0.18900295 -0.20078833 0.31665227 0.08628748 -0.21109298 0.03730096 0.088321246
-0.3923002 0.008951118 0.019847741 0.110623606 -0.18118118 -0.07008434 -0.21763656 -0.21376595
0.034388497 -0.059763342 -0.36167142 0.20401913 0.1872074 -0.2103468 0.2335088 -0.037091054
00000000: 94e5 ae3e d837 ff3d e282 233e c3d5 b33e
00000010: 4736 ae3d a5e3 013d 54ee 913d 6f5d 1fbe
00000020: e393 a73e 9276 0e3e c86f bd3e 9c39 2bbe
00000030: 38f3 933d 4f2f 00be d6e5 b53d c008 74be
00000040: efa4 65bd 82b2 f8bd 8a0b d53d 02eb 9c3e
00000050: c7a3 e33d 0e62 d8bd 246f 9f3c a00e 213e
00000060: 1edb 9b3d 8b0b bebd ee79 c3be 5f1d b1bd
00000070: 7867 833c 74f5 403d 8ce6 063e 35d8 62be
00000080: 43d6 b43b becb 1d3e 13bc 38bd cc35 bf3d
00000090: 0f62 ca3d cee9 fdbd b5d4 403e f741 6d3e
000000a0: 1ee4 ad3d c738 9c3e 4f4e 2a3e 6ab5 3c3c
000000b0: 21db 9ebd 8a10 043e 3535 0bbd a445 c6bc
000000c0: 9e8f cbbd 3c8d e33d baf6 6e3e 3b59 8d3d
000000d0: 39da 613e 1a08 bfbc 79d7 d93d 5817 2ebe
000000e0: 11c5 db3d a5b1 d3bd 970c 2d3d c10b a8bd
000000f0: 717b 753d 4890 d53d 625c adbb 3a5c bd3e
00000100: 7ed7 3abd df7d 3dbe a957 2abe 4b86 183e
00000110: 305b e7bd 1c3f 22be 8618 813c c629 20be
00000120: 24dd 9abe 9852 323e 13d7 113d 0ec4 a93e
00000130: f305 923e 6827 21be 79fe 58be b738 5dbe
00000140: f843 d53d 9bf2 853d 6da3 2ebe 7ec3 4cbc
00000150: d539 b53e 8dac 31be 35ed 4c3e a6d0 92bd
00000160: 8825 853e 1992 69be 888f bcbe 4e2b 973b
00000170: e7f7 07bd d3e7 a83d c1b6 70be 0d01 5c3b
00000180: 5406 683b 3c37 fe3d e3a6 92be a0c3 013e
00000190: dea4 edbd c603 c53d 76a3 c63e ec53 b2be
000001a0: 2891 883e fd89 413e 759b 4dbe 3f20 a23e
000001b0: 7eb7 b03d c228 58be e4c8 183d c5e1 b43d
000001c0: 92db c8be b6a7 123c bb97 a23c a18e e23d
000001d0: 8f87 39be 6188 8fbd 1edc 5ebe 76e5 5abe
000001e0: f4da 0c3d 68ca 74bd ff2c b9be 64ea 503e
000001f0: 4cb3 3f3e 2765 57be ee1c 6f3e caec 17bd

gats.gnn_layers.2.gat_conv.attn_r f4 [1, 4, 32]
-0.105475396 -0.2082743 -0.22666983 -0.317636 -0.15917087 0.22772363 -0.13538983 0.14905214
0.15145761 0.005689486 -0.03932208 0.14576621 -0.28613132 0.091929674 -0.26248235 0.02069136
0.14728186 0.0036194164 -0.039339863 0.28156212 -0.15254883 0.052749686 -0.010455901 0.07398268
0.104190536 0.18093866 0.0044462555 -0.016328245 -0.48117748 -0.10163155 -0.14455192 0.03865296
-0.084671445 0.3130882 0.32541972 0.042509895 0.078993835 -0.1188879 -0.22595143 -0.19391349
-0.1291942 0.040404614 0.16382828 0.19246703 -0.047807824 -0.11260743 -0.102766365 0.37656167
0.16103739 0.07763963 -0.064912975 0.18357173 -0.002179795 -0.058599908 -0.40114257 0.020316439
-0.63372326 -0.3181107 -0.16057302 -0.011735381 0.24229978 -0.37485966 0.25415772 -0.12160855
-0.08315261 -0.16316995 0.12542193 0.15249974 -0.3570321 -0.14039992 0.08351863 0.21023676
0.116353 -0.12072193 -0.004299626 -0.48049295 -0.010595082 0.12657025 -0.21358447 -0.071862966
-0.017167374 0.017444871 -0.15706953 0.090445176 -0.3368456 -0.19475895 -0.061898857 0.14451277
0.007912745 0.2447433 -0.15177183 -0.2727194 -0.07445409 0.10230768 0.07740984 -0.14239992
-0.29704303 0.034602832 0.059275057 -0.023025015 0.00045959937 -0.06665316 -0.29749706 0.11230142
0.40499458 0.13713583 -0.07216805 0.053215772 0.23395917 0.2976754 -0.06700182 0.17060576
0.10823567 0.31995395 0.03288205 -0.1330795 0.030904725 0.15393925 -0.555453 0.2264376
0.27057478 -0.29101133 0.084591344 0.10754602 -0.18925408 0.047960233 0.13484944 -0.012611524
00000000: 7c03 d8bd dc45 55be 231c 68be 30a1 a2be
00000010: b0fd 22be 6230 693e a2a3 0abe 20a1 183e
00000020: b417 1b3e de6e ba3b 3010 21bd bd43 153e
00000030: ce7f 92be a045 bc3d 1664 86be ed80 a93c
00000040: 0ed1 163e bb33 6d3b d622 21bd e928 903e
00000050: c335 1cbe 0e10 583d 3a4f 2bbc 3b84 973d
00000060: d961 d53d fc47 393e e5b1 913b d0c2 85bc
00000070: e55c f6be 3424 d0bd 6b05 14be 9152 1e3d
00000080: 3968 adbd 194d a03e 6a9d a63e db1e 2e3d
00000090: 85c7 a13d 807b f3bd d05f 67be 4291 46be
000000a0: 7c4b 04be 4f7f 253d 9ac2 273e 1416 453e
000000b0: 23d2 43bd b99e e6bd 2c77 d2bd b1cc c03e
000000c0: fce6 243e 8701 9f3d 18f1 84bd 3afa 3b3e
000000d0: e4da 0ebb 7506 70bd 8f62 cdbe a96e a63c
000000e0: b03b 22bf 68df a2be 416d 24be c145 40bc
000000f0: 6f1d 783e 9bed bfbe f620 823e e70d f9bd
00000100: ea4b aabd 0616 27be 9b6e 003e e428 1c3e
00000110: e9cc b6be ffc4 0fbe d10b ab3d 4e48 573e
00000120: 7b4a ee3d 0f3d f7bd e1e3 8cbb 2c03 f6be
00000130: ff96 2dbc a29b 013e e3b5 5abe e42c 93bd
00000140: 98a2 8cbc 8ce8 8e3c d6d6 20be 523b b93d
00000150: 0777 acbe e46e 47be a889 7dbd 28fb 133e
00000160: 75a4 013c fd9d 7a3e 136a 1bbe e1a1 8bbe
00000170: 637b 98bd b086 d13d 0d89 9e3d 49d1 11be
00000180: 0616 98be b3bb 0d3d 67ca 723d f59e bcbc
00000190: 62f6 f039 7481 88bd 8951 98be 49fe e53d
000001a0: 735b cf3e 566d 0c3e d8cc 93bd c8f8 593d
000001b0: fe92 6f3e e968 983e 4038 89bd 47b3 2e3e
000001c0: aaaa dd3d 01d1 a33e 54af 063d fe45 08be
000001d0: e82b fd3c 40a2 1d3e 2b32 0ebf 42df 673e
000001e0: c788 8a3e 70ff 94be 3a3e ad3d 1641 dc3d
000001f0: d2cb 41be f371 443d f915 0a3e 91a0 4ebc
