models/5/GAT.pt (torch, 119651 bytes, 19 tensors)

gats.gnn_layers.0.gat_conv.attn_l f4 [1, 4, 14]
000000 70 f1 a2 be 63 b6 52 be d3 c0 29 3e 05 6b 16 3f
       -0.31824827 -0.20577388 0.16577463 0.5875705
000010 bb b2 28 bf fe 5e 25 3c 2f 19 b0 bd 24 e9 17 3f
       -0.6589772 0.010093449 -0.085985534 0.5934012
000020 38 b4 2a be 74 0c db 3e 42 1a 32 3e ce f9 ce 3e
       -0.1667031 0.42782938 0.17392829 0.4042496
000030 b2 9e ca 3e 88 03 f5 be 66 7b 37 3e e7 be f0 3d
       0.395742 -0.47854257 0.17918167 0.11755162
000040 e9 2c 97 be db 87 ba 3d ad b6 2f 3f 4b 50 c6 be
       -0.2952645 0.091079436 0.68638116 -0.38733134
000050 fe 1a 82 be 49 85 9b 3e 1e a9 12 bf 60 04 b5 be
       -0.25411218 0.30375126 -0.572893 -0.353549
000060 65 cd ab be 41 70 74 3e 22 52 e4 3e a4 a4 90 be
       -0.3355514 0.23870946 0.44593912 -0.2825061
000070 42 5c 0e 3f 82 b7 55 be 6e 02 43 3e 95 d3 40 be
       0.55609524 -0.20870784 0.19043896 -0.18830712
000080 47 4c ed 3e 8d 67 a1 3e 38 fe 7d be 1d 12 01 bd
       0.46347257 0.31524315 -0.24804008 -0.031511415
000090 57 38 8a 3e 4a 08 7d bd 2b 04 07 bd 87 71 4c be
       0.2699611 -0.061775483 -0.03296296 -0.19965182
0000a0 ed 50 14 3e e4 74 a7 be f6 f2 3c 3e 44 b5 04 bd
       0.14483996 -0.32706368 0.18452057 -0.03239943
0000b0 e3 e0 b2 3e be e0 ad bc 2a 38 0e 3e 43 38 a5 3e
       0.349372 -0.02122533 0.13888612 0.32269487
0000c0 c2 fd 63 be 3d 8d 8d be 6f 9e 81 be 78 92 88 be
       -0.2226477 -0.2764682 -0.25316188 -0.26674247
0000d0 be ce 1e be 79 7c e6 be 2b 9d 29 be 90 5d af 3c
       -0.15508553 -0.4501684 -0.16563861 0.021406919

gats.gnn_layers.0.gat_conv.attn_r f4 [1, 4, 14]
000000 e1 99 51 bd e3 db 8a 3d 4a bb 85 bd a0 ce 29 be
       -0.05117214 0.06780221 -0.06529863 -0.16582727
000010 25 9b 06 be 48 12 32 3e b8 fd 1c 3e cf e8 49 bd
       -0.1314512 0.17389786 0.15331161 -0.04929429
000020 08 15 22 3f 1e 01 df 3d d9 6d 16 be dd b3 d8 3d
       0.6331334 0.10888885 -0.14690341 0.10581181
000030 ba b8 1e 3c bc bd 06 be 1c 71 a0 3e c2 fe 05 3e
       0.009687597 -0.13158315 0.31336296 0.13085464
000040 44 a7 1f 3e 29 f6 56 be 60 2c ec 3e 8f 45 22 bd
       0.1559115 -0.2099234 0.46127605 -0.039617117
000050 c8 3b 05 be 23 e0 5a be 54 d8 41 be ca 77 82 3e
       -0.13011086 -0.21374564 -0.18930179 0.25482017
000060 4a b2 0d 3e 97 68 e3 bd ea 45 77 3e 08 75 5a 3d
       0.13837543 -0.11103933 0.24147764 0.053334266
000070 78 cb 30 be e8 83 47 be 45 67 f6 bb 42 7e 81 3e
       -0.17265117 -0.19483912 -0.007519635 0.2529164
000080 2d 5b d0 bd a1 eb a8 be f1 61 f7 3b 34 69 0d 3e
       -0.101736404 -0.3299227 0.0075495173 0.13809663
000090 cf d7 2d 3d 7c dc b2 be c7 cc 26 3e ff 54 08 be
       0.04244214 -0.3493384 0.16289054 -0.13313673
0000a0 bc 8d 79 3e 33 ae d6 be dd 5f de bd 06 3d fb 3e
       0.24370474 -0.41929778 -0.10858128 0.49069995
0000b0 e0 88 67 be a9 8f 12 3e 1a a1 8a bc 4d c6 90 3e
       -0.22610807 0.14312615 -0.016922522 0.2827629
0000c0 49 72 50 3e bd bc 3e bd ee 1d 78 3e c6 30 b4 3d
       0.20356096 -0.046566714 0.24230167 0.08798365
0000d0 d6 b2 cb bb c2 ef 3f 3d 85 53 e1 3c f3 12 07 bd
       -0.0062163873 0.04685951 0.027505646 -0.032977056

gats.gnn_layers.0.gat_conv.fc.weight f4 [56, 74]
000000 e2 41 4f be e1 6c 3b bd 40 fd c9 be ce 91 38 3e
       -0.20239976 -0.045758132 -0.39451027 0.1802437
000010 bd 33 1e bc f0 0a 39 3c 42 0e 95 3e c8 eb 9b bc
       -0.00965589 0.011294112 0.2911244 -0.019033328
000020 64 0a c7 3e 0b 59 ba ae 89 82 10 a7 2c 5e 02 24
       0.38875115 -8.474118e-11 -2.0054778e-15 2.8269023e-17
000030 d0 aa 0e a8 0e 81 10 a6 50 7e 99 ac fb b4 44 3f
       -7.9196225e-15 -5.013494e-16 -4.362545e-12 0.76838654
000040 3a e1 d1 27 fd 3d 89 22 88 b4 e6 a5 b6 a0 90 a5
       5.8253344e-15 3.7199557e-18 -4.0020973e-16 -2.508892e-16
000050 4a 85 54 a3 f2 3a ba 1e ee 6e 02 3e 1c 55 51 ad
       -1.1520768e-17 1.9717895e-20 0.12737629 -1.1899173e-11
000060 19 50 a0 2c 2a 2a 78 21 f8 0a 4b a4 ec ed 56 27
       4.556366e-12 8.408147e-19 -4.40279e-17 2.9827444e-15
000070 6a 65 57 22 88 18 81 2c 5d 92 9b 34 48 ff aa 25
       2.9191622e-18 3.669124e-12 2.8977493e-07 2.9663284e-16
000080 96 e9 d9 2f ba 25 ee 25 fb 58 91 27 3c 01 32 25
       3.9638043e-10 4.1311983e-16 4.0342057e-15 1.5439457e-16
000090 0f 3f 72 25 24 f9 08 27 b3 73 81 25 23 e8 67 25
       2.1011519e-16 1.900885e-15 2.2456334e-16 2.0114707e-16
0000a0 b9 de a7 9f 47 05 81 2e 4d 8e a7 a6 93 b6 7c ab
       -7.1095715e-20 5.867178e-11 -1.1626524e-15 -8.978176e-13
0000b0 3c 1a 05 3e 5d 19 6f be 70 76 aa bc 2b 1b e2 3e
       0.12998289 -0.23349519 -0.020808429 0.44161353
0000c0 56 e0 5b a5 b3 6f f9 2d 27 7b 96 ac 49 11 a7 a6
       -1.907123e-16 2.8357627e-11 -4.276929e-12 -1.1592638e-15
0000d0 3a e4 95 b1 89 e0 18 2f e8 c0 53 3e 55 40 dd be
       -4.362417e-09 1.390409e-10 0.20679057 -0.43213144
0000e0 1a 49 2d be c9 7c 50 be 45 1e b5 a5 05 37 50 22
       -0.16922417 -0.20360102 -3.1419006e-16 2.8218384e-18
0000f0 f6 9b 66 24 4c 3d 03 bf 72 b7 92 2e c4 d9 49 bd
       5.0005404e-17 -0.51265407 6.671898e-11 -0.049279943
000100 ff bc 6a 3d 8b bf 0a 3e 1b a3 29 a2 a2 60 0c af
       0.057309147 0.1354963 -2.2990118e-18 -1.2767257e-10
000110 64 b0 94 3e 99 79 18 3e 18 1d 80 bd e3 37 68 3c
       0.29040825 0.14890136 -0.06255549 0.014173481
000120 aa 6a 83 be b6 26 21 a0 80 2b 09 bd 73 2b ce 3e
       -0.25667316 -1.3650039e-19 -0.03348875 0.40267524
000130 f6 07 af bd b1 c8 05 3e d6 35 3f be 0c 11 c4 be
       -0.0854644 0.13064839 -0.1867288 -0.38294256
000140 e6 2e a2 3e 18 f8 e0 3d 92 a2 30 3e ca 56 ff 2e
       0.31676406 0.1098482 0.17249516 1.1611474e-10
000150 fc ce 07 25 d2 84 e1 25 43 f4 02 23 12 d2 b4 a5
       1.1779512e-16 3.912128e-16 7.0990386e-18 -3.1367372e-16
000160 a9 87 25 ac 5a 99 33 be 8f 6d 25 2d 42 20 60 22
       -2.3523217e-12 -0.17538968 9.403491e-12 3.0374738e-18
000170 6f 9d 0f a3 9d b2 25 1b 2c d4 3a 2c fa c4 94 24
       -7.785383e-18 1.3706193e-22 2.6549969e-12 6.451846e-17
000180 20 4c 25 be a5 3f 5d 27 27 94 47 25 42 f8 92 2e
       -0.1614232 3.0704413e-15 1.7310695e-16 6.683411e-11
000190 2c 44 b6 a3 6a 2c f5 9d 87 5f a9 2b f5 1b 38 24
       -1.9761351e-17 -6.4896883e-21 1.2034686e-12 3.992232e-17
0001a0 ed 1c b6 2a 9c ee 71 a6 c5 a9 56 ac fb ed 53 ad
       3.2349766e-13 -8.393705e-16 -3.050547e-12 -1.2046804e-11
0001b0 5a ac bc a5 51 aa 83 a2 11 a7 a4 2c 65 41 a3 2c
       -3.272959e-16 -3.568795e-18 4.6797084e-12 4.639999e-12
0001c0 6a 40 b4 1d 4e 99 98 24 e3 3d 9c 2c 12 cf 3e 25
       4.7712206e-21 6.61792e-17 4.4406575e-12 1.6550031e-16
0001d0 0f ce c2 a1 00 98 38 26 36 d5 e8 3d da 3e 68 3e
       -1.3200495e-18 6.404382e-16 0.11368792 0.22680226
0001e0 e1 6f 50 3e fa a3 4e 3d 0f cd da aa 25 bb fa a0
       0.20355178 0.05044935 -3.8866867e-13 -4.247549e-19
0001f0 a6 3d ce 26 67 5b 8b 2c cf fd 0a ac c4 ad 0a a3
       1.4310831e-15 3.9607653e-12 -1.9751872e-12 -7.517791e-18
000200 ce fb ba bd dd a4 14 be 82 a5 a1 bd 94 a0 0c 3d
       -0.09130059 -0.14516015 -0.07892896 0.034332827
000210 17 2f b1 a2 42 87 a6 2e 08 2b 36 2e 05 eb 86 3e
       -4.8025804e-18 7.5728326e-11 4.142023e-11 0.2635118
000220 31 9d aa a4 2f 4f d0 3d fc 3e b5 bd 1b 80 45 3e
       -7.399204e-17 0.10171353 -0.08849904 0.1928715
000230 b5 57 93 b2 26 92 a3 2c cb b9 3c 3e cd 7f c5 bd
       -1.7152937e-08 4.6489644e-12 0.1843025 -0.09643517
000240 31 48 0e 3d 64 1c c0 bd c5 2a eb bb 2d fe 2f 29
       0.034736816 -0.09380415 -0.0071767294 3.9078268e-14
000250 e3 48 ab 3e 48 3c b8 3e bc 97 f4 3d 80 7f 23 be
       0.33454046 0.3598349 0.119430035 -0.15966606
000260 31 8e 42 3e 8c c9 92 bc 5a a6 49 3e 4c 56 36 be
       0.18999554 -0.01791837 0.19692364 -0.17806357
000270 3f fb 85 3e f6 82 55 2b 0b fe 0b a4 ef d3 dc a0
       0.26168248 7.5854546e-13 -3.0356003e-17 -3.7409696e-19
000280 dd be e8 2e 14 11 d7 33 5c cb f0 a6 9d 63 91 3e
       1.0584043e-10 1.0014824e-07 -1.6708466e-15 0.2839631
000290 6f 36 8d 20 5a ab b3 9d 22 6c ec a3 2a fb e8 26
       2.392235e-19 -4.755808e-21 -2.5632967e-17 1.6166312e-15
0002a0 08 bd cc a1 58 5e ad ae ed 7a 64 3e 69 76 dd 2f
       -1.3873614e-18 -7.883888e-11 0.22312517 4.02838e-10
0002b0 c7 bb a4 ac af 9a 5b 2f de 84 e2 22 41 83 a4 a5
       -4.682008e-12 1.9972889e-10 6.13981e-18 -2.8538406e-16
0002c0 2e 92 23 a2 b6 5a 21 a5 d5 bd a0 ac 29 f2 fe 24
       -2.2168006e-18 -1.3995258e-16 -4.568549e-12 1.10565176e-16
0002d0 47 57 eb 23 06 7a 0c 21 54 77 f8 2d 1d 71 e3 a0
       2.5515714e-17 4.759534e-19 2.8247328e-11 -3.8530148e-19
0002e0 dc 57 0f b1 9d bf b9 2d 01 66 fb 2a 60 05 87 24
       -2.085918e-09 2.1117158e-11 4.4657336e-13 5.855602e-17
0002f0 03 32 21 a5 73 d9 9a ad 1f c3 4c 2d 11 5b c4 2c
       -1.3981469e-16 -1.760434e-11 1.1639383e-11 5.5807655e-12
000300 de d3 2d bd 31 82 8e bd 73 eb 42 3e 06 e8 cb 3e
       -0.04243838 -0.06958426 0.19035129 0.39825457
000310 6b 27 79 25 d6 16 a3 25 51 a2 3b 24 61 13 5e af
       2.1610663e-16 2.8291467e-16 4.068665e-17 -2.0197667e-10
000320 ba a2 a2 b0 2f fe a5 21 5e 75 15 bd cb 97 e7 bc
       -1.1833301e-09 1.1248117e-18 -0.036488883 -0.028270623
000330 ec 20 93 bd 6e 43 b3 be 08 44 40 ac 6a 57 ab 28
       -0.07184014 -0.35012382 -2.7322606e-12 1.9022724e-14
000340 12 48 15 25 2a 61 8f be 87 6c de 30 ee a0 0f 3e
       1.2948108e-16 -0.28003818 1.6183471e-09 0.14026234
000350 da 33 c6 bd 4c e1 62 be 30 68 04 26 d6 d7 cf af
       -0.09677859 -0.22156256 4.59379e-16 -3.780644e-10
000360 8a 44 b0 bc e5 2f be 3d 36 b3 7a be 1b 79 26 3d
       -0.021517057 0.09286479 -0.24482426 0.04064284
000370 a0 3a e9 bd dd d9 96 ad e8 06 24 be 22 1a 8a be
       -0.11388135 -1.7149776e-11 -0.1601826 -0.26973063
000380 1e 8a a9 3e 84 57 bc 3d 9c 39 4e be 9d bd e6 3d
       0.33113188 0.0919638 -0.20139164 0.112666346
000390 ff 9e 62 3d f5 0b 9b be 8e 4e 47 be ce e3 75 25
       0.05532741 -0.3028256 -0.1946356 2.1327546e-16
0003a0 2e 22 41 23 fe f9 8a af a7 6e 1b a3 7d 2e fa 2a
       1.0469789e-17 -2.5279684e-10 -8.425998e-18 4.444118e-13
0003b0 84 db 1d 2f 7f d5 d7 3c 98 a5 34 33 17 23 09 2d
       1.4357054e-10 0.02634692 4.2060122e-08 7.79534e-12
0003c0 08 66 c7 a9 0c 52 3b a4 ac b0 92 25 39 40 69 2b
       -8.855075e-14 -4.0618658e-17 2.544668e-16 8.2867356e-13
0003d0 34 55 0b be da c8 8d 2b 5c 64 f0 aa d6 48 e5 ad
       -0.13606721 1.00744e-12 -4.2702202e-13 -2.6066631e-11
0003e0 41 3f 3e 20 28 68 3b a9 d0 c9 d4 af 7f be 94 24
       1.6114555e-19 -4.1612682e-14 -3.8705972e-10 6.450748e-17
0003f0 20 ee d5 ad 40 10 aa 23 80 19 64 2a b2 2e 85 a9
       -2.4321045e-11 1.8438319e-17 2.0259315e-13 -5.914487e-14

gats.gnn_layers.0.gat_conv.res_fc.weight f4 [56, 74]
000000 52 e5 b5 bd bd 2b 81 3e eb 44 d3 be 15 89 51 3e
       -0.0888163 0.25228682 -0.41263518 0.20462449
000010 f6 12 84 bd c5 17 ac 3e d2 2a 11 be a5 6b ce 3d
       -0.06448929 0.33611885 -0.14176491 0.10079125
000020 38 d8 47 3e 81 48 2e aa 52 14 61 26 b0 c8 f2 9d
       0.19516075 -1.547946e-13 7.8090096e-16 -6.4264373e-21
000030 5d d6 13 2d 94 a5 2e 2d 13 bb 18 a4 a9 1e 8b 3e
       8.403581e-12 9.927521e-12 -3.3118204e-17 0.2717183
000040 33 86 82 26 7d 83 fa a6 59 cc 97 a7 ae 0d 4f b2
       9.056937e-16 -1.7382875e-15 -4.2132473e-15 -1.2052096e-08
000050 bf 02 5b a7 29 54 14 33 8f b0 a2 3e 13 b5 19 25
       -3.0393844e-15 3.453548e-08 0.3177533 1.3331985e-16
000060 11 92 b5 aa d9 ac cb ab 38 8d 5f 24 30 20 84 ae
       -3.2253413e-13 -1.4471992e-12 4.8475034e-17 -6.008383e-11
000070 5d d1 f4 26 fa ce 05 a7 c3 4f 15 af 73 72 d5 2b
       1.6987649e-15 -1.856966e-15 -1.3579808e-10 1.5166326e-12
000080 01 4e 8e 25 f5 a8 50 24 23 4e 49 30 1d 65 a9 2e
       2.468593e-16 4.5245923e-17 7.3234413e-10 7.7031916e-11
000090 69 09 4b a7 30 5e 53 2d 58 45 6b 25 a5 55 1b 9d
       -2.817701e-15 1.2014875e-11 2.0406495e-16 -2.0558356e-21
0000a0 ac 3b 2b a6 53 c4 36 30 4e 6f ee a6 45 1b 01 27
       -5.9408413e-16 6.649021e-10 -1.6544737e-15 1.791713e-15
0000b0 16 95 50 be d7 fb f7 bc 32 db 38 3d 49 2f 9f be
       -0.20369372 -0.030271454 0.045130916 -0.31090763
0000c0 f5 41 f2 a6 0e 35 78 2e d1 93 ea aa 4b a8 68 ae
       -1.6810001e-15 5.6435794e-11 -4.1669318e-13 -5.2900167e-11
0000d0 89 cc 6e a5 f1 25 9e 26 92 e5 cd 3d 01 53 c6 3e
       -2.0712509e-16 1.0973736e-15 0.10053553 0.38735202
0000e0 b0 26 95 3e c6 54 aa bd a3 b2 1c a4 18 56 9c a4
       0.2913108 -0.083169505 -3.397842e-17 -6.7800064e-17
0000f0 a5 78 91 29 8e 96 05 3f 70 bd 1a 2c 52 77 29 be
       6.460222e-14 0.52182853 2.1989875e-12 -0.16549423
000100 b6 26 a8 be 84 31 a6 3e c3 0f e9 a4 03 03 28 24
       -0.32842034 0.32459652 -1.01074344e-16 3.6431744e-17
000110 1e 7c 5d bd c0 f8 a0 3d 7d 6f 12 be 7d 55 3b be
       -0.054073445 0.07859945 -0.14300342 -0.1829433
000120 0f f7 8a 3d e5 6f 06 26 ee 0f 25 be 71 be 99 3e
       0.06785404 4.6642235e-16 -0.16119358 0.30028108
000130 a3 27 15 3e 49 84 a7 3d 63 e1 b1 3e 5f a4 e1 bd
       0.14565901 0.08179528 0.3474227 -0.110176794
000140 2b 55 4f 3e 10 c3 cf bc d8 9d e5 3c f1 0d 8c 29
       0.20247333 -0.025361568 0.028029367 6.2196674e-14
000150 7b 78 aa 24 b9 ce 77 a5 ce 7d b8 af 51 65 00 aa
       7.392985e-17 -2.1493875e-16 -3.3558795e-10 -1.1403835e-13
000160 5c 18 9a ac 13 7e f8 be 17 ad 70 27 9d 5a 14 25
       -4.3796477e-12 -0.48533687 3.3400523e-15 1.2867655e-16
000170 5d 68 b0 ad cf 84 74 ae 90 85 39 20 d2 0c 88 a7
       -2.005523e-11 -5.5597135e-11 1.5714302e-19 -3.7761483e-15
000180 9d de 25 bd 6e 06 8a 24 aa d0 ed 22 d7 14 96 a6
       -0.040495504 5.985885e-17 6.445991e-18 -1.041399e-15
000190 e6 94 20 2f 4b f9 2f a5 7e 98 ab af b1 20 d5 9e
       1.4604815e-10 -1.5263294e-16 -3.121307e-10 -2.2565773e-20
0001a0 16 29 92 a5 0d 8f 54 33 1d e5 eb a6 07 43 0d a5
       -2.5354804e-16 4.94902e-08 -1.6368502e-15 -1.225251e-16
0001b0 6a f3 27 af 97 3e 3d a7 bd ef 13 29 96 5f 8f 26
       -1.527504e-10 -2.626295e-15 3.2848497e-14 9.948527e-16
0001c0 1d e0 e6 ad cf 2d ea 2a 0d 0b b4 22 0d ae 24 27
       -2.6247499e-11 4.1598536e-13 4.88008e-18 2.2853925e-15
0001d0 e0 22 90 ae 66 f7 16 a6 bb 3a 59 be e6 f6 45 be
       -6.554557e-11 -5.237699e-16 -0.2121381 -0.19332466
0001e0 30 27 2c bd 95 c6 1e 3c b0 5d 47 a4 74 51 b4 a1
       -0.04202956 0.0096909 -4.3230603e-17 -1.2218835e-18
0001f0 a5 ef e5 a8 33 4d d9 2d a5 56 b6 24 1b 5f d6 2b
       -2.5528037e-14 2.4704327e-11 7.90767e-17 1.5232012e-12
000200 b2 d5 ac bd c4 9a 5e 3e b7 8a b6 bd 11 b7 b2 3d
       -0.08439197 0.21738726 -0.089131765 0.087263234
000210 56 27 6f a4 7e 21 f5 a4 6f 09 4b 2a c3 39 dc 3d
       -5.1858183e-17 -1.0630855e-16 1.8033295e-13 0.10753205
000220 eb 1d 42 ad 6b 32 9e bd cc 69 60 bd 3a 3e 2b 3e
       -1.1034266e-11 -0.0772446 -0.054788396 0.16722956
000230 6a 1e 8b aa ea 77 a1 25 4a 60 20 3d 42 49 73 3e
       -2.4712464e-13 2.8010305e-16 0.03915433 0.23758414
000240 63 e3 84 3d 0a 45 ea 3d 85 3e 57 3e 53 10 b9 ab
       0.06488683 0.114389494 0.21019943 -1.3149571e-12
000250 9f d7 8e bd 64 6a d7 3e d5 2f 3e bd b6 8c 71 3e
       -0.0697472 0.42073357 -0.046432335 0.23588833
000260 33 ed a4 3d 7c 9c ac be 77 1c ce 3e 2e 4d ad 3d
       0.08053055 -0.33713138 0.40256092 0.084619865
000270 f5 1a 16 3e b5 aa eb a5 84 d4 a6 af 24 c0 ec 2f
       0.14658721 -4.0881677e-16 -3.0346226e-10 4.3064674e-10
000280 5c 4f af 2d a3 fc 42 a6 65 92 23 ab 2f 3c 2c 3e
       1.993044e-11 -6.764966e-16 -5.8112396e-13 0.16819833
000290 7d ca d4 2c d1 25 d9 2b 52 5b ce 25 e1 70 32 ad
       6.047883e-12 1.5429274e-12 3.5797185e-16 -1.0143193e-11
0002a0 78 3d d9 a6 09 d1 f3 aa 0f f6 8e be b5 78 09 a3
       -1.5074061e-15 -4.3310518e-13 -0.27922103 -7.452346e-18
0002b0 a8 7d 80 b0 8e b4 76 27 7e 1f b5 ac 30 c2 ff a6
       -9.348939e-10 3.4237237e-15 -5.1478257e-12 -1.7746814e-15
0002c0 90 f7 dd 25 18 ef 58 a5 13 be dd a4 ef 46 aa 26
       3.8505144e-16 -1.8816022e-16 -9.616547e-17 1.1815346e-15
0002d0 fd f2 c1 a4 bb 39 49 ac 80 c3 01 24 b5 c9 17 24
       -8.4112046e-17 -2.8595865e-12 2.813801e-17 3.2913758e-17
0002e0 3b 91 82 a4 e6 f2 93 25 36 c9 4e 23 0a 4e d9 a4
       -5.662454e-17 2.566503e-16 1.12098904e-17 -9.424095e-17
0002f0 52 8a 84 2e 64 fa 22 25 75 0e 68 27 75 83 47 2d
       6.027236e-11 1.4136096e-16 3.2204305e-15 1.134103e-11
000300 21 3a 33 be 32 88 dc bd 64 98 2d bd 3e 04 25 bb
       -0.17502643 -0.10768165 -0.04238166 -0.002517953
000310 2b ee 0c 2f 4a 66 12 23 cb e9 38 34 f8 c4 1a 25
       1.281754e-10 7.936336e-18 1.7221389e-07 1.3424106e-16
000320 80 d8 1b 25 c2 79 e7 2a 00 39 bd 3c 3c fc 57 bd
       1.351746e-16 4.111833e-13 0.023098469 -0.052730784
000330 e8 b2 0c bd 7a ed 6a bd 30 b6 f3 1e 8b a4 62 b4
       -0.034350306 -0.05735538 2.5803977e-20 -2.110775e-07
000340 14 2e 2c 25 d3 74 39 3f 5a a5 83 a3 e6 7e 0c 3e
       1.4934234e-16 0.72443885 -1.4273078e-17 0.13720283
000350 ec c6 b2 bd 34 97 65 bd 45 86 4f 28 0b 1c 24 2b
       -0.087293476 -0.0560524 1.1519923e-14 5.830342e-13
000360 7a af 34 bd 0a 0f d3 bd bd 19 1b 3e e8 2b 10 3e
       -0.04411266 -0.10305603 0.15146537 0.14079249
000370 29 8e 59 bc 3f e2 7a 23 55 29 6a be 17 59 92 3e
       -0.0132785225 1.3600437e-17 -0.2286733 0.28583595
000380 55 bb 88 3d c4 b4 2e be 3f 9d c5 be 4c 3c 1e 3e
       0.06676356 -0.17061144 -0.38596532 0.15452689
000390 5e 3b 13 3d 20 e3 9b be 8b b3 f2 bd 65 93 51 ad
       0.03594529 -0.3044672 -0.11850651 -1.1913003e-11
0003a0 74 0e 15 27 0e 93 3f a4 9d 90 d4 a5 5e 7a 89 ac
       2.0685739e-15 -4.1541083e-17 -3.6874131e-16 -3.9073597e-12
0003b0 d0 d6 fc ad 95 18 b1 be 83 cc 6c 26 d6 77 8a ad
       -2.8744479e-11 -0.34589067 8.2156113e-16 -1.5742001e-11
0003c0 90 2e fd 2b 62 df 97 24 93 64 11 a5 e8 ac c3 aa
       1.7989655e-12 6.5864236e-17 -1.2610821e-16 -3.4758936e-13
0003d0 1d 22 b8 bd 4d bb 01 a4 8e 96 8d a4 f9 c1 07 ac
       -0.089908816 -2.8131066e-17 -6.140405e-17 -1.929233e-12
0003e0 09 ec fd ab 6a ac 9a 29 fe 7e 7b a6 49 97 8a aa
       -1.8042244e-12 6.868883e-14 -8.7255225e-16 -2.46187e-13
0003f0 a0 ca 54 2e bd 17 db a2 2c 1c 60 ac 4e 83 24 30
       4.8383186e-11 -5.9385203e-18 -3.1847953e-12 5.984945e-10

gats.gnn_layers.1.gat_conv.attn_l f4 [1, 4, 14]
000000 ec 5e c3 3d 19 f2 30 bd c5 39 e0 3d 95 41 09 3f
       0.09539589 -0.043199632 0.10948519 0.53615695
000010 6c 68 c0 bd af 2a 46 be e9 4c c9 bc b1 4b 98 be
       -0.09394917 -0.1935222 -0.024572806 -0.29745248
000020 c4 d0 b7 3d 86 d6 67 be 23 ec a5 bc f1 04 02 3f
       0.08975366 -0.22640428 -0.0202542 0.5078879
000030 34 e2 2d 3f 15 97 c5 be 6d b1 62 be 88 49 4c bd
       0.67923284 -0.3859183 -0.22137995 -0.049874812
000040 bf a7 0d bc b4 be a2 3e bb de 8b 3d 04 8a 1e 3c
       -0.008645951 0.3178612 0.06829592 0.00967646
000050 59 51 33 3e a2 ca 99 be 3e 68 b3 3d 95 22 2b bd
       0.175115 -0.3003741 0.08760117 -0.041781027
000060 f8 e1 8a bd 58 52 8f 3d c0 03 7b 3e b7 12 ab 3e
       -0.06781381 0.06998128 0.2451315 0.33412716
000070 04 4c d4 3c 9e d4 9b 3c 73 79 3f 3e 70 bb 3b be
       0.025915153 0.019022282 0.18698673 -0.1833322
000080 c7 79 24 be ae 3c 59 3e 1d 89 fb 3e da ea 89 3e
       -0.1606208 0.21214554 0.49128047 0.2693699
000090 9d 93 14 3e fe ce fa 3c 4c 14 c4 bd 80 e4 cf 3e
       0.14509435 0.03061628 -0.09574184 0.4060402
0000a0 a1 86 aa 3e 17 5a 9b 3e 7c 24 ab be ae c5 71 3e
       0.3330584 0.3034217 -0.33426273 0.23610565
0000b0 91 27 4d 3e 99 d2 07 bf 9a 83 47 3e e1 5b 9f 3d
       0.20034625 -0.5305572 0.19483796 0.077811964
0000c0 bc 94 d7 3e b0 1e da bd 21 11 3f bb 81 42 f4 3e
       0.42105663 -0.106503844 -0.0029154497 0.47706988
0000d0 a1 72 75 be 3e 51 9a 3d d2 9f 5d 3d ce 9c 27 be
       -0.23969509 0.07535027 0.054107495 -0.1636841

gats.gnn_layers.1.gat_conv.attn_r f4 [1, 4, 14]
000000 2f 55 36 be 31 54 0c bd c4 05 51 be 8c d3 6e 3e
       -0.17805932 -0.03425998 -0.20412356 0.23322886
000010 0c 33 a8 3d 9e 24 13 3b 30 b0 bf 3e 80 a0 dd 3d
       0.082128614 0.0022452245 0.37439108 0.108216286
000020 d3 e1 22 bd ec 76 26 be e1 26 ef be 90 b6 f4 3d
       -0.039766144 -0.16256303 -0.4670935 0.119488835
000030 27 24 98 be cf 69 84 3e 4d 6e d7 3e 23 d5 63 3d
       -0.29715082 0.25861976 0.4207634 0.055623185
000040 f4 b5 31 bf 53 0c 10 3f a2 7d 80 bd 8a c2 04 be
       -0.69418263 0.56268805 -0.062739626 -0.12964836
000050 16 51 9d bd 36 8c 63 3e 32 a2 74 bb d7 c3 7a be
       -0.076814815 0.22221455 -0.0037328121 -0.2448877
000060 10 e1 0e be f9 aa b2 be 1f 6a 07 bf 2d 44 56 3d
       -0.13953042 -0.34896067 -0.528963 0.05231111
000070 7e d2 67 bd bd d0 82 be 36 4c ab 3e d4 a0 9c 3e
       -0.056597225 -0.2554988 0.33456582 0.30591452
000080 90 63 88 3e a2 94 f8 3d 91 2d 49 3e b5 e9 e2 bd
       0.2663846 0.121377245 0.19646288 -0.11079732
000090 23 81 81 3d cb 04 0e 3e 96 bb 2f 3d 62 7d 3f 3e
       0.06323459 0.13869016 0.042903505 0.18700173
0000a0 a8 ff 13 3e 67 a5 90 be 01 b5 95 be 41 04 c8 bb
       0.14452994 -0.28251192 -0.29239658 -0.0061040227
0000b0 d8 68 0b 3e 46 77 a3 bd b4 67 83 3e c1 1d fa 3e
       0.13614213 -0.07981734 0.25665057 0.48850825
0000c0 03 ca 84 be c0 5d 06 bf 18 36 d3 3e 4f 13 4e be
       -0.25935373 -0.524868 0.41252208 -0.20124553
0000d0 7a 2e 5f be 22 23 19 3e 0b 3a 86 be 97 23 78 3d
       -0.21795073 0.14954808 -0.26216158 0.060580816

gats.gnn_layers.1.gat_conv.fc.weight f4 [56, 56]
000000 cb 8c c9 3c b9 36 47 be 82 11 e5 bc 5b f1 72 be
       0.024603268 -0.19454469 -0.02796245 -0.23724882
000010 f0 4a 19 3e c1 83 42 be c7 a5 46 bc 12 a0 15 3e
       0.14969993 -0.18995573 -0.012124485 0.14611843
000020 e0 80 38 be e2 7f 23 3d 3d 0b 69 be fa 2e 60 3d
       -0.18017912 0.03991688 -0.22758193 0.0547323
000030 7c d6 81 3c 7d 4a a8 bd f5 29 01 3e 57 89 06 be
       0.015849344 -0.082173325 0.12613662 -0.13138328
000040 4d 0d ff 3d b4 34 69 3c 40 16 10 be b3 70 9d 3e
       0.12453709 0.014233757 -0.14070988 0.30750045
000050 27 5b 23 be 6b 0d 40 bd 39 9f 88 3d 64 55 85 3d
       -0.1595274 -0.046887796 0.06670994 0.065104276
000060 00 e3 0f 3e ae 55 8e be 35 17 15 bf 7e 3b 6d be
       0.14051437 -0.27799743 -0.58238536 -0.23167226
000070 88 7c 9c 3d 2c 4b 1f be 76 29 b0 bd 0f f9 19 3c
       0.0764094 -0.1555602 -0.08601658 0.009397759
000080 3f 28 9b 3e 48 25 3a 3d 7d 05 95 3d f4 83 7f bc
       0.30304143 0.04544571 0.072764374 -0.015595425
000090 3d 5e 1b 3e d0 e9 05 3e 34 57 84 3e 31 c7 ce bb
       0.15172668 0.13077474 0.2584778 -0.0063103666
0000a0 3e e0 f6 bd bf 9d 7a 3e 8a 02 2c be e9 10 c9 3d
       -0.120544896 0.24474238 -0.16797844 0.098176785
0000b0 fa 2a 11 be e4 ab 64 3e bf c5 7b be 71 ba f4 3d
       -0.1417655 0.22331196 -0.24587153 0.119496234
0000c0 3b 2d 89 bd 85 5e 04 be 86 45 fb bd d2 ba 69 be
       -0.0669808 -0.12926681 -0.1226912 -0.22825173
0000d0 53 9f c7 3d 93 15 85 be 56 93 f3 3e fe 3a 40 bc
       0.097471856 -0.25993022 0.47573346 -0.011732815
0000e0 a0 b2 3b 3e a7 11 b3 3d 39 9d e9 ba d5 d9 20 be
       0.18329859 0.08743601 -0.0017823345 -0.15708096
0000f0 32 78 ed 3d f8 8c 8a be 81 fc 1b 3d 6d be 25 bd
       0.11595191 -0.27060676 0.038082603 -0.040464807
000100 28 a2 09 bb 20 87 47 3e 5d 07 8d 3e 50 07 08 be
       -0.0021001194 0.1948514 0.2754468 -0.1328404
000110 3b 69 e3 bd 79 ef 80 bd 52 99 e8 3d 84 19 dc bd
       -0.111040555 -0.06295676 0.113573685 -0.10747054
000120 d3 89 41 3e b3 47 34 3e 11 5e ae bd 3f a3 c1 be
       0.18900232 0.17605476 -0.085140355 -0.3781986
000130 81 e2 fa bd 8c 9f b7 3d 0e 0c 99 bd be 5c 81 bd
       -0.122502334 0.08965978 -0.074730024 -0.06316517
000140 12 8b 10 be a4 ab 12 3e cc bc ad be 2b 75 46 3e
       -0.14115551 0.14323288 -0.33933103 0.19380634
000150 10 f9 02 3d c9 de 9d be 10 87 29 be 4a be 39 3e
       0.031975806 -0.30834034 -0.16555429 0.18138996
000160 0d af 94 3d cf a8 86 3d e3 c9 4a 3d d3 81 bf bc
       0.07259951 0.065751664 0.04950894 -0.023377335
000170 24 5f 4c bd 7f a2 a0 3d 39 32 f0 3c 91 d2 81 bd
       -0.04989542 0.07843494 0.029320823 -0.063389905
000180 75 54 7e be 99 c8 9d bd f6 fe bb 3d b9 dd 05 3e
       -0.24836905 -0.077042766 0.09179489 0.13072862
000190 25 36 41 be 1d 81 0d be 1c 7a 9f be cf e9 dd bd
       -0.18868311 -0.13818784 -0.3114785 -0.10835611
0001a0 ae f5 47 bc 5c 42 5a bd 07 be 86 be 3f 4e 3a be
       -0.012204571 -0.05328594 -0.26316854 -0.18193911
0001b0 5f 20 46 3d 15 b5 5f bc 85 df 46 3e da a6 31 be
       0.048370715 -0.013654013 0.19421203 -0.17348805
0001c0 65 ed 65 3d 5c ce 4a 3e 45 cc f6 bc 62 f8 87 bd
       0.0561346 0.19805282 -0.0301267 -0.06639172
0001d0 9c df 78 bd f7 ed a0 bd cc ad 67 be 71 95 1f 3e
       -0.060760126 -0.07857888 -0.22624892 0.15584351
0001e0 be 73 84 3e 6a ab af bc fe 83 3a be 95 e1 aa be
       0.25869554 -0.021444041 -0.18214414 -0.3337523
0001f0 c8 bf 52 3d 43 eb 15 3e 11 5d 43 be 59 c7 95 bc
       0.051452428 0.14640526 -0.19078471 -0.018283533
000200 e9 04 c5 3e bd 11 07 bd 7e d0 29 be 30 45 50 3e
       0.3848031 -0.0329759 -0.1658344 0.20338893
000210 3e bd 12 be f7 aa 59 3c 78 64 9d 3d 8e 55 a4 bd
       -0.14330003 0.01328539 0.076851785 -0.08024131
000220 b4 86 1f be 82 39 e9 be 9f ce d2 3e 21 5a 57 be
       -0.15578729 -0.45551687 0.41173264 -0.21030475
000230 84 f9 83 3d bb 64 b2 bd 23 f2 ff 3d db f3 f0 bd
       0.06444076 -0.08710619 0.12497356 -0.11765262
000240 b2 18 6d bd e0 54 c3 3e e1 2e 80 be e7 4e 49 be
       -0.05788488 0.38150692 -0.25035766 -0.19659005
000250 98 ba a4 3d e6 42 60 bd 15 12 d5 3d c2 94 d5 3c
       0.080434024 -0.0547513 0.104038395 0.02607191
000260 2b 9f 1e be 0d ec fe bb 8c de 23 3d 89 1c 98 bd
       -0.15490405 -0.0077796043 0.04000716 -0.07427318
000270 3c f4 44 3d d0 0f f0 bd 7e d4 3c be 10 eb 17 be
       0.048084483 -0.11721766 -0.18440434 -0.14835763
000280 f4 62 dd 3d 8a f1 f7 3c 8d cb ed bd f6 c0 78 be
       0.108098894 0.030266542 -0.1161109 -0.24292359
000290 76 a2 2c 3e 02 ea ba 3d e6 25 1f be f2 2a 81 3e
       0.16858849 0.09126665 -0.15541801 0.25228077
0002a0 a0 0d 8b 3e cc ad 7b bd 75 74 8d 3e f2 29 57 3e
       0.27158833 -0.061445042 0.27627912 0.21012095
0002b0 6e e5 9a 3d d1 f7 0d be 18 e2 e0 3d 87 5c b6 3e
       0.075632915 -0.13864066 0.10980624 0.35617468
0002c0 31 52 4a be ca da 42 be 4b 21 75 bd ea 6a 0d 3e
       -0.19757916 -0.19028774 -0.059846204 0.13810316
0002d0 2d 0c 03 3f 08 1e 0c 3e 75 aa 30 3e 13 16 86 bd
       0.51190454 0.13683331 0.17252524 -0.06547179
0002e0 41 61 2a 3e 89 c8 d3 bd 50 8b a7 3d 55 c1 65 be
       0.16638662 -0.103409834 0.081808686 -0.22437032
0002f0 55 a1 81 bd ad 47 de bd c3 f9 6f be 19 c6 60 bb
       -0.063296 -0.10853515 -0.2343512 -0.0034297763
000300 ba fa 09 be 53 f9 0c 3e e2 00 8f 3c fd 66 28 3d
       -0.13474551 0.13766985 0.017456476 0.041113842
000310 71 f6 98 3d 80 7f 05 bd 16 75 8b 3e d4 87 d9 3d
       0.0746888 -0.032592297 0.27237767 0.1062161
000320 9a 03 d7 be 7f 96 e4 3c cb 2d 20 3e d2 76 f8 3d
       -0.41994935 0.027903793 0.15642469 0.12132038
000330 3b ff 62 be cf 7c 4d 3e aa 00 2f 3e 86 6c ed 3e
       -0.22167675 0.20067142 0.17090097 0.4637186
000340 c5 91 56 3d cc 06 c4 bd 99 d2 a4 3d 85 c3 46 3e
       0.05238511 -0.09571609 0.08047981 0.19410522
000350 0c 82 f8 be cb 01 f4 3e e6 e5 58 be 43 28 08 be
       -0.48536718 0.47657618 -0.2118145 -0.13296609
000360 2d 5e 9e be 28 5e a9 be 51 dc 8e 3d b1 63 c5 3e
       -0.30931225 -0.33079648 0.06975616 0.3855262
000370 10 25 c0 3d 37 86 43 3e 3b d7 20 bb 81 59 a3 be
       0.09382069 0.19094168 -0.002454235 -0.31904224
000380 06 e4 6f be 31 60 09 be 3b 59 8c bd e4 13 ed 3d
       -0.23426828 -0.134156 -0.06852957 0.115760595
000390 26 b7 6f 3e 57 5d b0 3d 82 8e 8a 3e f6 92 f8 3c
       0.2340971 0.08611553 0.2706185 0.030343514
0003a0 43 ff f4 3d 18 f0 1d be f4 fa a1 bb ef 51 8f bd
       0.1196275 -0.1542362 -0.004943246 -0.069980495
0003b0 ae 85 f5 3d 90 11 09 be 21 c1 91 bd da 58 b5 3e
       0.11988388 -0.13385606 -0.071169145 0.3541935
0003c0 eb a4 a9 be 47 b9 75 3d cb de 88 3e 01 fc be bd
       -0.33133635 0.059991147 0.26732478 -0.0932541
0003d0 65 e6 42 be 1c be e3 3d 22 11 f9 3c de 71 8d 3e
       -0.19033201 0.11120245 0.030403677 0.27625936
0003e0 8d 04 0c be ac a2 a3 3d 38 1e 5e 3e 5c fd 4e 3e
       -0.13673611 0.079900116 0.21691215 0.20213836
0003f0 e8 7b db bc a5 de 87 3e e1 22 42 bd fe 88 74 3e
       -0.026792482 0.26537052 -0.047396544 0.23880383

gats.gnn_layers.1.gat_conv.res_fc.weight f4 [56, 56]
000000 5e 01 84 3d 84 a1 3b be 92 29 fa bd 8d ae e5 be
       0.06445573 -0.18323332 -0.1221496 -0.44859734
000010 87 24 f0 3d 5d 5b 61 3e 70 24 88 be 12 ef 13 3e
       0.11725717 0.22007509 -0.265903 0.14446667
000020 68 e5 0e 3d 6b 26 85 3d 38 6e 73 3e fe d5 af bd
       0.034886748 0.06501468 0.23772514 -0.08585738
000030 16 68 32 bd 34 11 c9 3b 5a 38 25 3e 91 d3 2e 3e
       -0.043556295 0.006136084 0.16134778 0.17072894
000040 f8 22 1e bd 40 b2 e1 bc 56 be 4b 3e 0e e4 a7 3d
       -0.038607568 -0.027550817 0.19896826 0.08197795
000050 9e 36 9e 3e 1d eb 40 3e 2a 9c b8 bd 8c a4 9e 3e
       0.30901045 0.18839689 -0.09014161 0.30984914
000060 6d 84 8b be f3 32 92 bd 75 b0 0b 3d 70 e2 cc 3c
       -0.2724947 -0.07138624 0.03410383 0.025010318
000070 e4 90 b5 3c de a7 57 3e 79 69 0e be 31 9d d5 3e
       0.022163816 0.2106013 -0.13907422 0.4172149
000080 e4 f7 9d be 08 86 70 3d dc c7 94 3d 04 99 83 3e
       -0.30853188 0.058721572 0.07264683 0.2570268
000090 48 21 5f 3e 38 8e fa bd 04 e7 86 3e 0f af 0e be
       0.2179004 -0.12234157 0.26348126 -0.13933967
0000a0 51 c8 62 bd 05 ca 3e be 18 10 a6 3d 5a b0 99 3e
       -0.055366818 -0.18631752 0.081085384 0.30017358
0000b0 21 f1 9f 3e d2 d8 34 3c 1b c6 db 3c e4 73 28 3e
       0.31238654 0.011038022 0.026827862 0.16450459
0000c0 a4 30 2e be 11 ec 8e 3e 9a d8 87 3e b5 94 4d be
       -0.17010742 0.2791448 0.2653244 -0.20076258
0000d0 1f ed d9 bd ce c3 11 be 5d ea 62 3e c7 0f d9 bd
       -0.106409304 -0.1423485 0.22159715 -0.105987124
0000e0 09 4c bf 3d a8 c9 d8 3d bb 13 04 3e 82 3f 7f 3e
       0.093406744 0.10585338 0.12898152 0.2492657
0000f0 30 6d 52 3d 4b 71 7a 3e 36 a8 00 bd 88 2b 59 be
       0.05137366 0.2445728 -0.03141042 -0.21208012
000100 2d 52 a6 3d 82 f6 56 be bd 0a 9c be 36 0b 01 3d
       0.081211425 -0.20992473 -0.30476943 0.031504832
000110 b8 6b 10 3d 5e 9d 94 bd f5 ac 73 bb 84 74 98 be
       0.03525898 -0.07256578 -0.0037181948 -0.29776394
000120 20 55 67 3e bb 71 16 bd 25 57 10 be 9c 54 eb bd
       0.22591066 -0.036729556 -0.14095743 -0.11490747
000130 e6 33 2d 3f d3 f0 6c bd a1 2e 29 be 18 35 d9 be
       0.67657316 -0.057846855 -0.16521694 -0.4242332
000140 c4 b2 6d 3e 39 a4 42 be 14 df 9d 3e 03 f5 7c 3e
       0.23212725 -0.19007958 0.30834258 0.2470284
000150 3c 78 21 be 91 38 bd be 54 d9 8f be e6 72 cd bc
       -0.15768522 -0.3695722 -0.28095496 -0.025079202
000160 9f 13 b4 3d f5 4d 30 bd 37 da 8c 3c c2 f7 73 3d
       0.08792805 -0.043043096 0.017193897 0.059562452
000170 d8 a3 ac 3d b4 4f d5 be 52 73 e5 bd dd 1f d2 3b
       0.08429688 -0.4166237 -0.11203636 0.00641249
000180 d5 b1 f1 bc 72 08 0d 3d 1b ad 3c 3e b4 8b 3f 3e
       -0.029503742 0.034431882 0.1842541 0.18705636
000190 80 40 16 be c5 f2 5e 3e 7b ef 63 bc 30 8d c0 be
       -0.14673042 0.21772297 -0.013912077 -0.37607718
0001a0 e3 2b c7 3e 8d ea 90 3d 98 29 bc be c9 13 0e bd
       0.3890067 0.07075987 -0.36750484 -0.034686837
0001b0 ea ad 1e be 3f 07 1c be 4e 14 42 be 82 9e 49 3e
       -0.1549603 -0.15237139 -0.18953058 0.19689372
0001c0 d6 2d f3 3c 39 8d d9 bd de 44 03 3e 22 3b 67 3e
       0.029684942 -0.10622639 0.1281924 0.22581151
0001d0 0f d9 65 bd 47 2f 0c bd 80 2b 61 bd e9 ed a7 bd
       -0.056115206 -0.034224775 -0.054973125 -0.08199675
0001e0 9a d1 e5 3d 98 43 38 bd d8 c5 c4 3e 58 b1 78 3e
       0.11221619 -0.044986337 0.38432193 0.24286401
0001f0 44 7a 8d bd d0 b8 d1 3b 5e 71 11 bd 0e 97 d2 3d
       -0.06908086 0.006400205 -0.035508506 0.10282718
000200 92 d0 0a 3e 2d 8f 56 3c 03 2d 09 3e 32 96 28 3e
       0.13556126 0.013095659 0.13396077 0.16463545
000210 0b e1 84 bd a8 ed 72 bd 4a ea 9f be 08 ad 02 be
       -0.06488236 -0.059308678 -0.31233436 -0.12761319
000220 58 97 e3 be 54 ec 56 3d 16 b6 15 3e 3a 14 93 bd
       -0.44451404 0.052471474 0.14620242 -0.07181592
000230 ca c7 12 3e 5a 69 20 bc d1 56 b9 be 7c 2d bc bd
       0.14334026 -0.009790743 -0.36199048 -0.09188363
000240 60 ea 98 bb c8 03 61 3e a6 34 8a bd a5 a0 46 3c
       -0.0046666116 0.21974099 -0.06748323 0.012123262
000250 17 8b 9f 3e 33 b2 02 be a5 15 fd bd bb 4d 04 3e
       0.31160805 -0.1276329 -0.12357644 0.12920277
000260 d2 69 f2 bd 64 6d 6a 3d c9 d6 98 be 7b ec 0e 3f
       -0.1183659 0.05723323 -0.29851368 0.5582959
000270 76 00 4d 3e d8 7b 05 be 4a c9 3d bd eb 38 53 3e
       0.20019707 -0.13035524 -0.046334542 0.20627181
000280 c9 c4 29 be 92 84 da 3e 2f 7a 2f be 6c dc 48 3d
       -0.16578974 0.42679268 -0.17136453 0.049038336
000290 a4 0c b4 be 4b 44 0e 3e df 4a 08 be 0c 51 89 3e
       -0.35165894 0.13893239 -0.13309811 0.26819646
0002a0 75 18 10 3d e0 4f 89 be 39 87 2f 3e a9 6d ba 3d
       0.035179574 -0.26818752 0.17141427 0.09102947
0002b0 25 37 ea 3d d8 3d 05 be dc b5 43 3e ad 07 3a 3e
       0.11436299 -0.13011873 0.19112343 0.1816699
0002c0 a6 04 81 be fa c8 2f 3e 50 4e 18 3e 91 ae 73 bc
       -0.2519886 0.1716651 0.14873624 -0.014873163
0002d0 46 ec 4e 3e f1 12 1a be a4 bd 1b 3e 91 35 9a bd
       0.20207319 -0.15046288 0.15209061 -0.07529748
0002e0 c3 55 7c be 9d e2 73 3c 99 d0 bb 3e e4 55 64 be
       -0.2464209 0.014885572 0.36682585 -0.2229839
0002f0 a1 e0 62 3d b2 43 df bd bc 32 86 3b 97 4a a3 bd
       0.055390004 -0.10901584 0.0040954035 -0.07973211
000300 fa e4 8f be 53 d3 94 bd dc 02 58 3e 59 58 34 3e
       -0.28104383 -0.072668694 0.21094841 0.17611827
000310 40 e0 fe bb 90 3e 33 3e ae f3 2a be 6e d9 db bd
       -0.0077781975 0.17504334 -0.16694519 -0.10734831
000320 2b 78 39 be bd 8e c6 3e d5 21 ed bd 9c 6d ca 3d
       -0.18112247 0.38780776 -0.115787186 0.098841876
000330 57 db bd bc a5 78 3c 3e eb 5c 4e 3d 21 fd 87 3e
       -0.023175878 0.18405397 0.050381582 0.2656031
000340 8f 3e 85 3c a6 eb d7 3d 8f b7 59 bd 02 34 84 3e
       0.016265182 0.10542993 -0.05315357 0.2582093
000350 6c 30 37 ba 8d 51 72 3e 76 b1 40 bd a6 4e 64 3e
       -0.00069881114 0.23663922 -0.04704424 0.22295627
000360 b4 90 b1 bd b9 4c ed 3b 22 19 65 be df 1b 32 3c
       -0.08670178 0.007241812 -0.22372869 0.010870903
000370 03 34 88 be 98 a7 91 be 54 5c 8b 3d 4a dc c6 3e
       -0.26602182 -0.28448176 0.068047196 0.38839942
000380 bc 78 09 3d 91 8e 8f be bb c8 c1 3d 0f b9 0c bd
       0.033562407 -0.28038457 0.094621144 -0.034356173
000390 6f 83 7d 3d d4 a0 47 3c 5a 02 c9 bd ff e4 5f be
       0.061892923 0.0121843405 -0.09814902 -0.21864699
0003a0 9e a4 ec be dc 68 52 be 2e 37 17 be 77 8d ae bc
       -0.46219343 -0.20547813 -0.14767143 -0.02130769
0003b0 d9 0c 1a be ab 31 87 3e 55 86 b2 3d db e6 72 3e
       -0.15043963 0.2640508 0.08717028 0.23720877
0003c0 cb 65 1f bd fd ac 14 3d 9a 21 02 3f cb d8 8d bd
       -0.038915437 0.036297787 0.5083252 -0.069261156
0003d0 00 cc 3c be c2 ad 6b 3d de a7 12 3e a7 62 8c 3c
       -0.18437195 0.057538755 0.14321849 0.017136885
0003e0 4a dd 9f 3d c4 af c8 be ce b6 2d 3e 67 39 87 bd
       0.078058794 -0.391966 0.16964266 -0.066027455
0003f0 d4 d4 8b bc eb ab c7 3c d7 92 a8 3e d3 ed a6 bd
       -0.017069258 0.024373969 0.3292453 -0.0815083

gats.gnn_layers.2.gat_conv.attn_l f4 [1, 4, 14]
000000 d7 72 cf 3e ed a1 7b 3e 72 80 2f be b0 2e a5 be
       0.40517303 0.24573489 -0.17138842 -0.32262182
000010 c7 3c 80 bd b5 a9 16 3e 17 e6 d9 bd 7e 09 1a bd
       -0.06261592 0.14713176 -0.10639589 -0.03760671
000020 30 ce e0 3d a9 f5 61 3e 93 48 6c bd 3c 19 36 3e
       0.10976827 0.22066368 -0.0576864 0.17783064
000030 19 03 30 3e 91 72 fa 3e 91 3f 54 3d 29 f9 f2 bd
       0.17188682 0.48915532 0.051818434 -0.1186393
000040 60 6b 97 bd b7 dc 3f 3d 39 2f 9e be e3 0a 83 3e
       -0.07393527 0.04684135 -0.30895403 0.25594243
000050 76 0b f1 bc ea 3f 2d 3e 12 53 42 3d cc 92 43 3e
       -0.02942441 0.16918913 0.047442503 0.19098967
000060 70 a1 5a be 9f 23 33 be 22 09 b7 3e 1f 6e 30 3e
       -0.21350646 -0.17494057 0.35749155 0.17229508
000070 17 32 b9 bd c6 c8 16 bc 90 4c 01 3e bc 82 7b 3e
       -0.09042757 -0.009203142 0.12626863 0.2456159
000080 0e 70 3b bd c3 d7 3f 3c a2 74 c2 3d 15 2e b0 3d
       -0.04576116 0.011709156 0.09494902 0.086025394
000090 6a 4d c0 bd 4e 67 85 3d 99 6e af be 29 c7 e3 3d
       -0.093897656 0.065138444 -0.34264067 0.11121971
0000a0 07 92 8e be 50 c6 d9 3e 86 f0 ee bd 2d c6 0d be
       -0.27845785 0.42534113 -0.1166697 -0.1384513
0000b0 eb 44 21 bf 27 6c d4 bd b6 36 16 be 2e 6b 3e 3e
       -0.62995785 -0.10372191 -0.14669308 0.18595573
0000c0 dd 9b 93 3e ce 0f 07 bd a3 9c a4 3c 18 36 ab bd
       0.28829852 -0.032974057 0.020094221 -0.08359927
0000d0 21 3b 20 be ba 91 3a 3e b0 0d c8 3a 54 51 af 3e
       -0.15647556 0.18219653 0.0015262868 0.34241736

gats.gnn_layers.2.gat_conv.attn_r f4 [1, 4, 14]
000000 77 1c 8b 3e 62 c9 ee be 11 6d ea bc 4d 28 52 bd
       0.27170154 -0.46638018 -0.02861646 -0.051307965
000010 18 39 13 3d ea 34 d5 3d a2 95 93 be 5c 3c 91 3e
       0.03594312 0.10410483 -0.28825098 0.28366363
000020 40 74 15 3e 41 c3 d7 bd 58 65 5e 3e 90 f2 c0 be
       0.14595127 -0.105352886 0.21718347 -0.3768506
000030 1c 5c 63 3d 45 05 b8 bc 20 f7 ae 3c 5c 04 42 be
       0.055507764 -0.02246345 0.021358073 -0.18946975
000040 0b 1e eb bc 73 a4 0f 3e b4 bb 87 bd 8b 18 ab 3e
       -0.028700849 0.14027576 -0.066275984 0.33417162
000050 e9 46 c9 3c 13 2f 9d bd f5 07 80 bd bb 57 8c 3e
       0.024569945 -0.07674994 -0.06251518 0.27410683
000060 18 3b a1 3e 15 56 67 be 9e 60 85 3e 68 d9 9c 3d
       0.31490397 -0.22591431 0.26050276 0.076586545
000070 0e 2b 06 3e 1f 68 a0 be 41 e1 a6 3e 02 4a de be
       0.13102362 -0.31329438 0.3259373 -0.43415838
000080 ed 3a a9 bd 37 70 8c bd 81 21 4f be 9d 36 f3 bd
       -0.08263192 -0.06857341 -0.20227624 -0.11875651
000090 ad 60 f6 be 71 b0 c9 3e 8e 7e 05 be 15 95 a4 bd
       -0.48120633 0.39392427 -0.13036558 -0.08036248
0000a0 5a a1 fc bd 37 68 88 3d f6 6a 45 be 1d b9 c0 be
       -0.12335463 0.066605024 -0.19279084 -0.3764123
0000b0 c5 bc 2f 3e 0d ff 1e 3e 8b 75 e8 3d 57 96 0c bd
       0.17161854 0.15526982 0.113505445 -0.034323063
0000c0 8c f0 7a 3d 5f f8 fa bd f9 67 5d be ac 0d 47 be
       0.06126456 -0.12254404 -0.21621694 -0.19438809
0000d0 0c b3 e2 3d b0 6c 9c be 04 06 20 bd 7e 51 08 3f
       0.11069307 -0.30551672 -0.039068237 0.5324935

gats.gnn_layers.2.gat_conv.fc.weight f4 [56, 56]
000000 14 c7 45 3e 06 fd a8 3d 13 69 4d 3d 28 6b 3c bd
       0.19314224 0.082513854 0.050149035 -0.04600063
000010 fc b1 cf 3d be 75 cf bc df 0a 08 be 5c 7a 73 3e
       0.1014137 -0.025324699 -0.13285397 0.23777145
000020 a6 76 73 be aa 9d 63 3e 40 9f 0c bd 20 e3 94 3e
       -0.2377573 0.22228113 -0.03433156 0.29079533
000030 80 70 c6 3d 3a b2 fb bc 55 27 3b bd f3 4c 33 3e
       0.096894264 -0.030724633 -0.045691807 0.17509823
000040 e4 46 41 be a4 24 ef 3d b1 73 9d be bc 54 17 3c
       -0.18874699 0.116769105 -0.30752328 0.009236511
000050 56 bc f4 be 77 55 15 be 45 84 10 be 11 52 7e 3d
       -0.4779994 -0.14583384 -0.14112957 0.062089983
000060 2a 33 d0 3d d4 8d ce 3c 10 71 b4 bd 74 5f 00 3f
       0.10166009 0.025214113 -0.088106275 0.5014565
000070 a5 60 41 3d 3a 17 8a be d0 61 86 bd 61 be 2b be
       0.047211308 -0.26970845 -0.06561625 -0.16771843
000080 8f 99 b0 3e cb ab 90 3d 7d f7 e8 bc ab 8b f3 3d
       0.34492156 0.07064017 -0.028438324 0.11891874
000090 40 13 13 be 60 6a 21 3e f0 1b d4 3d e9 47 a3 bd
       -0.14362812 0.15763235 0.10356891 -0.079727
0000a0 39 b9 76 3e f4 30 ae bc 7f ab a1 3d c3 b5 42 be
       0.24094094 -0.021263577 0.078940384 -0.19014649
0000b0 da ca 81 3d 65 ee 86 3e 91 5b 65 be da f0 52 be
       0.06337519 0.26353756 -0.22398211 -0.2059969
0000c0 07 04 78 be f1 5c d9 be 47 01 25 3e 51 af 1a 3d
       -0.24220286 -0.4245372 0.16113769 0.03776485
0000d0 ff 45 43 3e e8 77 3c bd 40 34 1f 3c 17 db 99 3c
       0.1906967 -0.04601279 0.009717047 0.018781228
0000e0 fb c5 78 bc e4 e1 83 3e 1a 00 27 be c4 3a 1a be
       -0.015183921 0.25758278 -0.16308632 -0.1506148
0000f0 64 de 1d 3e 64 cd 08 3e c1 f2 28 3e 19 ea 6a be
       0.15416867 0.133596 0.16498853 -0.22940864
000100 1b ae 78 be bc ff af 3e 2f 60 b4 3d d8 33 c6 bd
       -0.24285166 0.34374797 0.08807408 -0.09677857
000110 da 33 85 bd 78 6c 0d be 6a 6c 12 be 4c bb 31 3e
       -0.065040305 -0.13810909 -0.14299169 0.17356604
000120 34 60 8e bd 24 33 17 3e b8 4c 63 bd 97 e2 e4 bc
       -0.06951943 0.14765602 -0.055493087 -0.027940078
000130 03 2d b3 3d 7d 0f c6 bc a4 b4 2a 3d f4 e9 1c 3e
       0.0874882 -0.024177307 0.04167618 0.15323621
000140 f1 1a 4d 3c e7 66 94 be c0 6b 0f 3e 47 0e c4 ba
       0.01251863 -0.28984758 0.14005947 -0.0014957868
000150 a8 29 32 be b0 4d 89 be 49 af 70 bd 1f 34 de 3d
       -0.17398703 -0.26817083 -0.058760915 0.10849785
000160 57 bb 77 be d3 88 88 3e 0f 99 32 3e 0d 7f 24 be
       -0.24192558 0.2666689 0.174412 -0.16064091
000170 aa 27 13 be 5b 91 c9 bd b2 69 4b 3e 01 9e 89 3d
       -0.143706 -0.098421775 0.19864538 0.0671959
000180 ff 18 36 3c 79 96 03 bf ec 6a 1a be 9a 32 b4 bd
       0.011114358 -0.5140148 -0.1507985 -0.08798714
000190 84 85 62 bd 47 18 73 3d 6a 7d a9 bd 27 bd 79 3e
       -0.05530311 0.059349325 -0.08275874 0.24388562
0001a0 52 65 6b 3e d8 11 88 be 23 d7 c5 bd 5c 3a 49 bc
       0.2298787 -0.26576114 -0.09660175 -0.01228198
0001b0 43 96 bd 3d 0b b9 09 3e d6 e1 0b 3e 94 09 eb 3e
       0.09257176 0.13449495 0.13660368 0.45905745
0001c0 0c e2 d9 3d 93 d5 8c bd af 54 02 bf 1d df 6b 3c
       0.10638818 -0.068766735 -0.50910467 0.014396456
0001d0 c9 d3 b4 3e cd 02 65 3e 68 b7 89 be 28 78 b7 bc
       0.3531783 0.2236435 -0.2689774 -0.022396162
0001e0 15 1c 03 3e 0d c0 2a be 09 6d a1 be db f5 36 bc
       0.12803681 -0.16674824 -0.315285 -0.011167015
0001f0 f3 49 1d be 10 f0 c6 bd 5a 61 e3 bd b0 be 4a be
       -0.1536024 -0.09713757 -0.11102553 -0.19799304
000200 c6 62 0b 3d b2 1e 15 3d 6e 6f 46 bd bf 23 80 3e
       0.034029745 0.036406226 -0.04844611 0.25027272
000210 6f 8b c9 3e 1a cd 83 3c c8 68 4d 3e 1e 3d 95 bc
       0.39364192 0.016089011 0.20059502 -0.01821762
000220 2d 2e 55 be 99 c6 a6 bd db 68 cd 3e 2b 30 c8 3e
       -0.20818396 -0.08143348 0.4011906 0.3909925
000230 6c 1b 63 3e 54 b7 8a 3d b1 8f 31 3d b8 cf f1 3d
       0.2217843 0.06773248 0.043349925 0.11807197
000240 6b 8e c9 bc b1 4d 9f be 62 0e e1 bd 4a e1 20 3e
       -0.024604043 -0.3111396 -0.109890714 0.15710941
000250 8e 4b 4c be 67 bd d7 3e ed 36 2b 3e a9 82 7e bc
       -0.19950697 0.4213669 0.16720171 -0.0155340815
000260 5a 03 3d be e2 0c d4 3e 67 83 bd bc 40 10 f9 bd
       -0.1845831 0.4141608 -0.023133947 -0.121613026
000270 63 55 98 bd f5 3f 25 3e 96 eb e3 3d 1f f1 59 3e
       -0.07438161 0.16137679 0.11128919 0.21283387
000280 c4 8b d6 bc 9b e3 f2 bd 33 14 98 3c 88 b5 a6 be
       -0.026189692 -0.118598185 0.01856432 -0.32560372
000290 71 24 80 be cc 74 d6 bc 1e 75 77 3d 06 b5 07 be
       -0.25027803 -0.02617874 0.060414426 -0.13252649
0002a0 6e 72 2b 3e b9 ae 92 be 67 e7 0d be dc 3b 71 3e
       0.1674287 -0.28648928 -0.13857804 0.23557991
0002b0 dc c0 96 bd 43 12 61 be 0b 5a 13 3e 2e bb de be
       -0.07361004 -0.21979623 0.14389817 -0.43502182
0002c0 7a 9c 63 be ac 44 3e be c1 08 9b 3e 07 a3 61 be
       -0.2222766 -0.18580884 0.30280116 -0.22034846
0002d0 3f 95 32 bf b5 f4 14 be fb 7d 1b 3e a6 84 42 3e
       -0.6975898 -0.14546473 0.15184776 0.18995914
0002e0 25 04 33 3d d2 4f 45 bc 59 5e 01 3e 91 83 64 3e
       0.043705124 -0.012042956 0.12633647 0.22315814
0002f0 b6 bd e6 3d 6a bd 01 3e c9 90 16 3e 5c 12 a9 3e
       0.11266653 0.12669912 0.14703669 0.3302182
000300 fa 21 87 bd 0f c4 a9 bc 71 b2 c2 bd a7 f3 1a be
       -0.065982774 -0.02072337 -0.09506691 -0.15132008
000310 ac a4 12 3e d2 f3 8e be e4 6c a5 bb 1e 45 2c 3e
       0.1432063 -0.27920395 -0.005048381 0.16823241
000320 9f 67 a9 be 96 68 44 3e 83 13 59 bd 91 ac 39 be
       -0.3308687 0.19180521 -0.052997123 -0.18132235
000330 74 08 4a 3e 9b 32 40 3e 49 54 c0 3c 4d d6 4b bc
       0.19729787 0.18769304 0.02347769 -0.01244123
000340 6e 1e e3 3d 78 4b 7b be 82 3f 83 bd 99 83 e0 3d
       0.110897884 -0.24540508 -0.064085975 0.109626
000350 8f 03 95 bd 12 a8 40 bd 70 ca c7 be 5a 65 15 3e
       -0.072760694 -0.047035284 -0.39021635 0.14589444
000360 ce 16 d8 be a3 70 f8 3d 1c 65 42 3e 36 90 f5 bd
       -0.422049 0.12130859 0.18983883 -0.11990397
000370 fa 27 3b be 1e f4 3d be 4e bd 94 bd 7b 51 e9 be
       -0.18276969 -0.18550155 -0.072626695 -0.45569977
000380 56 32 93 3d 5e 08 01 bd 61 5f 83 3e a2 2b 77 3e
       0.07187335 -0.03150212 0.25658706 0.24137738
000390 95 66 09 3f d5 06 32 bd 53 8c 02 be 94 b8 8f 3b
       0.5367215 -0.043463547 -0.12748842 0.004386017
0003a0 39 90 16 3e 57 de c3 be ac 6a 01 be ed c3 25 3e
       0.14703454 -0.3825557 -0.12638348 0.16188021
0003b0 f8 8f 56 3e ec 51 a7 be 8e c8 02 3e f0 5a 2b bd
       0.20953357 -0.3267969 0.12771818 -0.04183477
0003c0 e2 b8 27 be 81 10 d6 3e cd 03 0a be f4 8c 98 bd
       -0.16379121 0.41809466 -0.13478012 -0.0744876
0003d0 50 5e 8d be cd 4b 53 3e 2e f9 05 be 0a f0 b9 3e
       -0.27611017 0.20634384 -0.13083336 0.36315948
0003e0 66 6d d7 3d fd dc 0d be c9 95 06 3d 4b 8d d8 bd
       0.10518913 -0.13853832 0.03285769 -0.105738245
0003f0 27 5e 00 3e af b0 9d bc c8 b9 19 be b6 e4 89 3d
       0.12535916 -0.019249288 -0.15012276 0.06733076
