models/3/GAT.pt (torch, 119651 bytes, 19 tensors)

gats.gnn_layers.0.gat_conv.attn_l f4 [1, 4, 14]
0	0x3e7b878a	0.24563423
1	0x3ea844a0	0.32864857
2	0x3ec69568	0.38785863
3	0xbe03090c	-0.1279642
4	0x3f00b3a4	0.5027411
5	0x3e46a217	0.1939777
6	0x3ed7bc14	0.4213568
7	0xbf0371d8	-0.51345587
8	0xbeab7863	-0.33490285
9	0x3e2acf35	0.16680606
10	0xbe69096d	-0.22757502
11	0xbcea9bdb	-0.02863877
12	0xbd5894f6	-0.052876435
13	0xbf45d67f	-0.7728042
14	0x3e30d11b	0.17267267
15	0xbdf79311	-0.120885976
16	0xbe7e33c6	-0.24824437
17	0x3ed2fdd1	0.41209272
18	0xbd9be4a3	-0.07611968
19	0xbde548f7	-0.111955576
20	0xbeeb69e4	-0.45979226
21	0x3be7cc1f	0.0070738937
22	0xbd20f8c7	-0.039299753
23	0xbd2d3b36	-0.042292796
24	0xbe23b5df	-0.15987347
25	0x3eb6061d	0.3555154
26	0xbe94c0a4	-0.29053223
27	0xbee965f5	-0.455856
28	0xbe79467f	-0.24343298
29	0x3edd87e9	0.43267754
30	0xbda6021e	-0.081058726
31	0x3d7bf172	0.061509557
32	0x3e60ef03	0.21966176
33	0xbe777528	-0.24165785
34	0xbe614225	-0.21997888
35	0xbe9179c6	-0.28413218
36	0xbede62ea	-0.4343484
37	0x3eced543	0.4039708
38	0x3e3770b1	0.17914082
39	0xbcfcd0bf	-0.030861257
40	0x3e73e2ad	0.23816939
41	0xbeab1adc	-0.3341893
42	0x3caafb7e	0.020871874
43	0x3e17d58d	0.14827557
44	0x3de00342	0.109381214
45	0x3e1e0cf0	0.15434623
46	0xbdc9f9ac	-0.09862074
47	0xbde34353	-0.110968255
48	0xbdcbaaba	-0.09944673
49	0x3e207cba	0.1567258
50	0x3e38df11	0.18053843
51	0xbdcd2436	-0.10016672
52	0x3d2a6266	0.041597746
53	0xbdb64903	-0.08900645
54	0x3c89d1e8	0.016823724
55	0xbdbcca26	-0.09218244

gats.gnn_layers.0.gat_conv.attn_r f4 [1, 4, 14]
0	0xbe3d3b13	-0.18479566
1	0x3e2e45d2	0.17018822
2	0x3d0c7a8e	0.034296565
3	0x3e68b878	0.22726619
4	0xbe88f439	-0.26748827
5	0xbef24831	-0.47320703
6	0x3dd52f7d	0.10409448
7	0xbe199b46	-0.15000638
8	0x3deb53c5	0.11490587
9	0x3dadbd43	0.084833644
10	0x3e28f386	0.16499147
11	0xbf06df89	-0.5268484
12	0xbd9996a2	-0.07499434
13	0x3e4e8bfd	0.20170589
14	0xbe8c7d6c	-0.2743944
15	0x3da91cc1	0.082574375
16	0x3e1c9f55	0.15295155
17	0x3f3b8518	0.7324996
18	0x3ded2373	0.11579027
19	0x3e4c4ed5	0.19951947
20	0x3e1a14a4	0.15046936
21	0xbd25bed1	-0.04046518
22	0x3e5b3dfc	0.21410364
23	0x3e2d414d	0.16919442
24	0xbe95072b	-0.2910703
25	0x3dd6cf08	0.10488707
26	0x3e73f066	0.23822173
27	0xbde241a7	-0.110476784
28	0xbda8f36d	-0.08249555
29	0x3e9d204c	0.30688703
30	0xbe4e87f6	-0.20169052
31	0xbec483f5	-0.38381925
32	0x3e7916ac	0.24325055
33	0x3ed172f4	0.40908015
34	0x3dfa9783	0.1223593
35	0x3e26b0d9	0.162784
36	0xbe2686e0	-0.16262388
37	0x3f56c6fe	0.8389739
38	0xbe82b17e	-0.2552604
39	0x3d9a85f6	0.07545082
40	0xbd6194ee	-0.05507367
41	0x3e006f04	0.12542349
42	0x3e0d62d1	0.13807227
43	0x3e85e6cd	0.2615265
44	0xbd330775	-0.043708283
45	0xbc849ee4	-0.016189046
46	0xbe4d2a91	-0.20035769
47	0x3d5c37d0	0.053764164
48	0xbe5c58e4	-0.21518284
49	0x3dcd114b	0.10013064
50	0x3e4b3464	0.19844204
51	0x3e3013a3	0.17194991
52	0xbe44fd3d	-0.19237228
53	0x3e5eb32e	0.21748039
54	0x3e1cdf91	0.15319659
55	0xbdd60aca	-0.104512766

gats.gnn_layers.0.gat_conv.fc.weight f4 [56, 74]
0	0x3c4399af	0.0119384965
1	0x3e6e73e0	0.2328639
2	0xbe8340c7	-0.2563536
3	0xbe1f17a8	-0.15536368
4	0xbd1f4c01	-0.038890842
5	0x3ea8fe1d	0.33006373
6	0xbd594c12	-0.053051062
7	0xbc870253	-0.0164806
8	0x3d3c878b	0.0460277
9	0x33e5a6d2	1.0693988e-07
10	0xb48a42eb	-2.5753192e-07
11	0x24494bc2	4.3649097e-17
12	0xb2b35b36	-2.087982e-08
13	0xa5895508	-2.382333e-16
14	0xb2751bd2	-1.42672025e-08
15	0x3e339a62	0.17539361
16	0x2651bb89	7.27656e-16
17	0xa86d3b42	-1.3168992e-14
18	0x2d158f22	8.501451e-12
19	0xa6cc46fa	-1.4174582e-15
20	0x250c0e82	1.214798e-16
21	0x29adf491	7.725169e-14
22	0x3e8081f2	0.2509914
23	0x22669ba1	3.1253202e-18
24	0x3645173b	2.936881e-06
25	0xa6ae549a	-1.2096607e-15
26	0x25ccecdc	3.554886e-16
27	0xbe0e3c12	-0.13890103
28	0xb79c9fa7	-1.8670993e-05
29	0xaf827223	-2.372796e-10
30	0xb39ab7d0	-7.204619e-08
31	0x2679e62c	8.670117e-16
32	0x33ccc7af	9.5358125e-08
33	0xb05faac4	-8.13696e-10
34	0x2ca99c52	4.820624e-12
35	0x28cf57f6	2.3019764e-14
36	0x2514320e	1.2853913e-16
37	0xa7561109	-2.97077e-15
38	0x31738bd4	3.5440637e-09
39	0x38d8aaa3	0.00010331466
40	0xa69cdd93	-1.0884732e-15
41	0x2cf12d71	6.854677e-12
42	0x3033533a	6.523809e-10
43	0xbacc8b62	-0.0015605504
44	0xbd6a989c	-0.057274446
45	0x3e8bb007	0.27282736
46	0xbdb663c6	-0.08905749
47	0x3eb3f628	0.3514874
48	0x3434ff79	1.6856747e-07
49	0x26234ac5	5.6653317e-16
50	0x287e1821	1.41050645e-14
51	0x29be0b06	8.439607e-14
52	0x2c16fea9	2.1457647e-12
53	0x322bf1a8	1.0008456e-08
54	0x3e17aa11	0.14810969
55	0xbd5ab374	-0.053393796
56	0x3e1ceece	0.15325472
57	0xbec9871a	-0.39360887
58	0x205d1fb0	1.8729913e-19
59	0xa4181792	-3.297971e-17
60	0xb377c1a4	-5.7685284e-08
61	0x3eadce93	0.33946666
62	0xa85def8d	-1.2319909e-14
63	0xbecc683e	-0.3992328
64	0xbeca8bb2	-0.39559704
65	0x3d7bb546	0.061452173
66	0xa593d554	-2.5644992e-16
67	0x30868231	9.786786e-10
68	0xbeb8dd05	-0.36106125
69	0x3c9fdd96	0.01951484
70	0x3ebbd81c	0.36688316
71	0x3ccfed06	0.025381576
72	0x3d77da2a	0.06051079
73	0x249ab004	6.7085036e-17
74	0x3df228f4	0.118242174
75	0x3d3124cd	0.043247987
76	0x3d9f472a	0.07777245
77	0xbeccb036	-0.39978188
78	0xb9065543	-0.00012810998
79	0xbe8ccdce	-0.27500767
80	0xbe00c47d	-0.12574954
81	0xbef40ae0	-0.47664547
82	0xbd956c7a	-0.07296081
83	0xa09622d3	-2.5434033e-19
84	0x25484fa0	1.7374213e-16
85	0xb3ffc94c	-1.19109785e-07
86	0x3395d348	6.976785e-08
87	0x33d5741d	9.939706e-08
88	0x265c5c2c	7.645275e-16
89	0x3d14f2ea	0.036364473
90	0xa3f3329a	-2.6367543e-17
91	0xb577e481	-9.234719e-07
92	0xa9ce0b68	-9.1502164e-14
93	0xa673f4f3	-8.463953e-16
94	0xa853ccc7	-1.1757257e-14
95	0xb2b34547	-2.0869846e-08
96	0x3d1258a5	0.03572907
97	0xaf6c3c36	-2.1485466e-10
98	0x2487f363	5.895923e-17
99	0xa6d0f766	-1.4499957e-15
100	0xa68960e0	-9.532543e-16
101	0x3ca3b51b	0.019983819
102	0xb66456d1	-3.4025181e-06
103	0x26b50cc5	1.2562859e-15
104	0xb21712ac	-8.793602e-09
105	0x2468bdf0	5.0467864e-17
106	0x2242dd15	2.6408943e-18
107	0x2883b5fb	1.4622843e-14
108	0xb3ec32a6	-1.0998819e-07
109	0x353f32a7	7.1226754e-07
110	0x33b01f02	8.201279e-08
111	0xa9cf9909	-9.219194e-14
112	0x22b17ad4	4.8105995e-18
113	0xa98e1b29	-6.310778e-14
114	0x266fecf7	8.324093e-16
115	0x27abd619	4.769416e-15
116	0xb6d876e2	-6.4511414e-06
117	0xa55177e8	-1.8168486e-16
118	0xbbe7bf43	-0.0070723607
119	0xbabed991	-0.001456069
120	0xbe04a86e	-0.12954876
121	0xbd3d7b62	-0.046260245
122	0xa1544ec4	-7.193264e-19
123	0x258a2b6c	2.3968608e-16
124	0x24067ca6	2.91622e-17
125	0xa6c3dd2a	-1.359079e-15
126	0x313321b8	2.6067095e-09
127	0x34ab0c9c	3.1860407e-07
128	0x3e088e2f	0.13335489
129	0xbea65268	-0.32484746
130	0xbd0c00ce	-0.034180455
131	0x3da64650	0.0811888
132	0x287c30ff	1.39994344e-14
133	0x23b09619	1.9145527e-17
134	0xa5211836	-1.3972727e-16
135	0x3d72f9aa	0.05932013
136	0xacd44b64	-6.0337724e-12
137	0xbd144b7b	-0.036204796
138	0xbe602ce7	-0.21892129
139	0xbe809f08	-0.2512133
140	0xa8e0b8c1	-2.494912e-14
141	0x260cd710	4.886372e-16
142	0x3e1dbe5a	0.15404645
143	0x3e91251f	0.28348634
144	0x3d2c815b	0.04211555
145	0x3e8a2e2a	0.26988345
146	0xbd203b24	-0.0391189
147	0x280e5fef	7.903386e-15
148	0xbc7e297d	-0.015512821
149	0x3eda6a7c	0.42659366
150	0x3e8a15ec	0.2696985
151	0xbe34baff	-0.17649458
152	0x3dc1a5e2	0.09455468
153	0x3f014fd0	0.5051241
154	0xbdda1785	-0.10649017
155	0x3ea0655c	0.3132733
156	0x3e677f27	0.22607099
157	0xa6c1fbd4	-1.3460323e-15
158	0x325e5788	1.2942003e-08
159	0xa7976067	-4.201544e-15
160	0x23ef6c89	2.5958398e-17
161	0xacf1c631	-6.8716356e-12
162	0xa9933c38	-6.538558e-14
163	0x3e958e9f	0.29210374
164	0xa78a116b	-3.832158e-15
165	0xb536d08c	-6.810376e-07
166	0xaaca05b1	-3.5886357e-13
167	0x32a659be	1.9365753e-08
168	0x3a749fb0	0.00093316566
169	0xaf8603f7	-2.4377275e-10
170	0x3e018347	0.12647735
171	0xa0180894	-1.2877739e-19
172	0x25d44636	3.6823714e-16
173	0xa43e1ecb	-4.1225765e-17
174	0x3122752d	2.364071e-09
175	0xbe5d08d4	-0.21585399
176	0x23632fb0	1.2315793e-17
177	0x2c33a638	2.55297e-12
178	0x23749723	1.3259271e-17
179	0xa5d338bb	-3.6641107e-16
180	0xa4a1b8e5	-7.0135843e-17
181	0x23de16cc	2.4078943e-17
182	0x25eeb940	4.141195e-16
183	0xac32bebe	-2.5401205e-12
184	0xb51d71ea	-5.8652824e-07
185	0x32a540c4	1.923798e-08
186	0xb136e2a3	-2.6613314e-09
187	0x281248c3	8.120406e-15
188	0x38434bb7	4.6562138e-05
189	0x26682774	8.054464e-16
190	0x3875cc18	5.860263e-05
191	0xa792e1e2	-4.0768043e-15
192	0xb9986a9d	-0.00029071132
193	0x3b9522f6	0.004551287
194	0xbe7298e9	-0.23691143
195	0x3ebda41d	0.3703927
196	0x290cda00	3.127533e-14
197	0xb3879732	-6.31393e-08
198	0xa951edf9	-4.661373e-14
199	0x2f73709a	2.2140725e-10
200	0xa6f45d83	-1.6956248e-15
201	0xa0cb58fb	-3.444842e-19
202	0xbdbc4e09	-0.091945715
203	0xbd3303f0	-0.043704927
204	0x3d0cc188	0.034364253
205	0x3e3b9d6b	0.18321769
206	0x2f07d40e	1.2353515e-10
207	0xa69c9f8f	-1.0867923e-15
208	0xaf50449f	-1.8941869e-10
209	0xbe24df87	-0.16100894
210	0xa5624161	-1.9624527e-16
211	0xbe5912ff	-0.21198653
212	0x3dfad432	0.12247504
213	0xbd83f523	-0.064432405
214	0x30e101ad	1.6371381e-09
215	0x34001196	1.1927327e-07
216	0x3e517c11	0.20457484
217	0x3e7b9690	0.24569154
218	0x3e8c7357	0.27431747
219	0x3d668d27	0.056286957
220	0xbe5550e1	-0.20831634
221	0x28153b69	8.284044e-15
222	0xbe1e424d	-0.15454979
223	0x3cd65f43	0.026168471
224	0x3e8dbb39	0.27681902
225	0x3c8aadea	0.016928632
226	0xbe3d02ed	-0.18458147
227	0xbeafe348	-0.3435309
228	0xbe1669ef	-0.14688848
229	0xbe3730a4	-0.17889649
230	0xbe90156d	-0.28141347
231	0xa68de7b7	-9.846647e-16
232	0xa2995610	-4.1561855e-18
233	0x244beb51	4.421793e-17
234	0xa6202c19	-5.5570915e-16
235	0xb3cbfc32	-9.498798e-08
236	0x2f137a0e	1.3412935e-10
237	0x3d1821ea	0.037141718
238	0x23330b00	9.705939e-18
239	0xa4cf19a0	-8.981535e-17
240	0xa41c15b8	-3.3845504e-17
241	0x338f4b8b	6.6726976e-08
242	0xa6aa857c	-1.1832301e-15
243	0xb0e65ceb	-1.6761111e-09
244	0x3e8bccfa	0.27304822
245	0xacdb74bf	-6.237316e-12
246	0xb1d0b6bc	-6.0743712e-09
247	0xb12f4abb	-2.550833e-09
248	0x2f748fcd	2.2242759e-10
249	0xbaae4242	-0.0013294893
250	0x29c66bbf	8.811657e-14
251	0x31b85d53	5.3657145e-09
252	0x2ee4ac88	1.0398887e-10
253	0xa82a6bed	-9.460298e-15
254	0xa62beb7b	-5.964668e-16
255	0xa5b7ceb9	-3.188552e-16

gats.gnn_layers.0.gat_conv.res_fc.weight f4 [56, 74]
0	0xbd4c4cc0	-0.049877882
1	0xbd932b1b	-0.07185956
2	0xbe03de84	-0.12877852
3	0xbde93dad	-0.11388717
4	0x3d426a29	0.047464523
5	0x3e53c8c0	0.20682049
6	0xbe45a67e	-0.19301793
7	0xbd7f757d	-0.062367905
8	0x3de5e10d	0.11224566
9	0xb53b9500	-6.987975e-07
10	0x3367be73	5.395709e-08
11	0xa7b5ba24	-5.0439406e-15
12	0xa5955cce	-2.5910267e-16
13	0xb516b4e3	-5.614258e-07
14	0xb5922233	-1.0887801e-06
15	0x3d08d887	0.03340962
16	0x321ae42a	9.015858e-09
17	0xa66b6b76	-8.167764e-16
18	0xa6ade7e9	-1.2067146e-15
19	0x26b61a94	1.2635991e-15
20	0x27a5f412	4.606132e-15
21	0xa4b655e6	-7.9075436e-17
22	0x3eacbaa7	0.33736154
23	0xb2a1e0c1	-1.8845073e-08
24	0xb10bda2f	-2.0351185e-09
25	0xaf0fc6cf	-1.3076405e-10
26	0xa6da0b61	-1.5129873e-15
27	0xbe56ac01	-0.20964052
28	0xa58ef8fc	-2.4801792e-16
29	0xa5e3ad08	-3.9495473e-16
30	0x26b3821c	1.2455886e-15
31	0xa9ade209	-7.721954e-14
32	0xa321f2f1	-8.779272e-18
33	0x265e2df7	7.7084016e-16
34	0xaead27e9	-7.8742186e-11
35	0xa369834a	-1.2658757e-17
36	0x29073fdb	3.0031407e-14
37	0x274cbe12	2.8413724e-15
38	0x2495356a	6.4708936e-17
39	0xaf83b0d8	-2.3954416e-10
40	0x3589e359	1.0273462e-06
41	0x33e0e5ea	1.0472634e-07
42	0x2424453b	3.5620472e-17
43	0x2cb6f52d	5.199971e-12
44	0x3c0679ba	0.008207733
45	0xbe53150d	-0.20613499
46	0x3e0d62c3	0.13807206
47	0x3e3b29ca	0.1827766
48	0x9e9ae893	-1.6401575e-20
49	0x2f5b3433	1.9936479e-10
50	0x20f547dc	4.1552167e-19
51	0x313a8f5c	2.7148053e-09
52	0xa7f689c2	-6.8428073e-15
53	0xa6651bab	-7.948783e-16
54	0xbe641109	-0.22272123
55	0xbd38c43c	-0.04510902
56	0xbe47391d	-0.1945538
57	0xbe2fcbb4	-0.1716755
58	0x2752e2f2	2.9266382e-15
59	0x9ffc0f21	-1.0675118e-19
60	0x27b87ca1	5.120538e-15
61	0x3e5628e4	0.20914036
62	0xa72e36b5	-2.4177008e-15
63	0xbcbbbcf8	-0.022917256
64	0x3d8c4d47	0.06850677
65	0x3dfe9665	0.12431029
66	0x26bb23eb	1.2985467e-15
67	0xa48f2da5	-6.209369e-17
68	0x3e788354	0.24268848
69	0x3eab5112	0.3346029
70	0xbe244aba	-0.16044131
71	0x3e85adb6	0.26109093
72	0x3df07b1a	0.1174223
73	0x2525b1d6	1.4371722e-16
74	0x3e8dc14c	0.27686536
75	0xbe447741	-0.19186117
76	0x3dae30b2	0.08505382
77	0x3dcd8420	0.100349665
78	0xbcad4717	-0.021152062
79	0xbc35f7e9	-0.01110647
80	0x3e8c73fd	0.27432242
81	0xbec63e7c	-0.38719547
82	0xbf060b15	-0.5236066
83	0x23f15bf0	2.616821e-17
84	0x2f002679	1.16552e-10
85	0xb2803101	-1.4923446e-08
86	0x2e2cf98c	3.9329914e-11
87	0x2e42e3eb	4.4312925e-11
88	0xa6100693	-4.9968946e-16
89	0x3e4e88f8	0.20169437
90	0x26a9d1a0	1.178355e-15
91	0x24a94c06	7.3420856e-17
92	0x29ada86c	7.71196e-14
93	0x2e3a0ae3	4.2301173e-11
94	0x30e63cfc	1.6752035e-09
95	0xa749d496	-2.8009597e-15
96	0xbe102afb	-0.14078896
97	0x241a44b8	3.3451634e-17
98	0xb4012808	-1.2028624e-07
99	0x32329d41	1.0396719e-08
100	0x261bee28	5.409919e-16
101	0x3deb065b	0.114758216
102	0x29b466ee	8.011461e-14
103	0xa7314199	-2.4599245e-15
104	0x33efd292	1.1167607e-07
105	0x26100633	4.996844e-16
106	0x24b078ad	7.6532266e-17
107	0xa6aa6902	-1.1824582e-15
108	0x2c8e2dc5	4.040964e-12
109	0x2650d786	7.2456585e-16
110	0x39694cc4	0.00022249209
111	0xa5a54bc4	-2.8674278e-16
112	0x1f258da4	3.505727e-20
113	0x32cee821	2.4087116e-08
114	0xb4930b68	-2.7389183e-07
115	0x224cbdc0	2.7747608e-18
116	0x36e6275c	6.859116e-06
117	0xb2ad2e91	-2.0161027e-08
118	0xbe9de377	-0.30837604
119	0x3d5766ba	0.052588202
120	0x3da4d1e0	0.08047843
121	0xbeb6e1e3	-0.35719213
122	0x2734f857	2.5114643e-15
123	0x2f6aa33c	2.1340169e-10
124	0xa7111c5d	-2.0138168e-15
125	0x2f23e81b	1.4907224e-10
126	0xb2b11a63	-2.0617511e-08
127	0x2ba285ad	1.1547895e-12
128	0xbdacc1fe	-0.084354386
129	0x3e4cb710	0.19991708
130	0x3e07f9d1	0.13278891
131	0xbde7bba9	-0.1131509
132	0x9dfe0c85	-6.7246185e-21
133	0x273533f1	2.5146953e-15
134	0x2c6789e8	3.2903628e-12
135	0xbd88fbb8	-0.066886365
136	0xa61e442f	-5.490967e-16
137	0x3e1bc477	0.15211664
138	0xbe4688b6	-0.19388089
139	0xbdbec6a3	-0.09315231
140	0xa31123b2	-7.8680245e-18
141	0xa08e4973	-2.410434e-19
142	0xbd1b965b	-0.037985187
143	0xbe5ae1d8	-0.21375215
144	0x3e1dda89	0.15415396
145	0x3d1a287b	0.03763626
146	0x3c93a6f6	0.01802395
147	0xa8130922	-8.16212e-15
148	0xbde146fb	-0.109998666
149	0x3d0e3841	0.034721617
150	0x3d32169c	0.043478593
151	0x3d4ce4cc	0.050022885
152	0x3dc54c60	0.09633708
153	0x3e6f9d6a	0.23399892
154	0x3df0c9e2	0.11757256
155	0x3e55665a	0.20839825
156	0xbd53d704	-0.051718727
157	0xa31b31b9	-8.413096e-18
158	0xa451f30f	-4.552553e-17
159	0x9d9e9914	-4.198053e-21
160	0x2cc53651	5.605107e-12
161	0xa514fb99	-1.2922198e-16
162	0xb10835d6	-1.9821207e-09
163	0x3eabf6b9	0.33586672
164	0x28828678	1.4491216e-14
165	0x21e628d7	1.5596216e-18
166	0x30a31d77	1.1868185e-09
167	0xb0928dbf	-1.0663185e-09
168	0xa089806d	-2.3293688e-19
169	0xb5287c56	-6.276581e-07
170	0xbdd18f29	-0.10232384
171	0xacfb3669	-7.13989e-12
172	0x25f26c94	4.2053884e-16
173	0xa73f4754	-2.6545242e-15
174	0xb2b4a2b8	-2.1028754e-08
175	0xbe5dfa59	-0.21677531
176	0x2f61e10a	2.0543581e-10
177	0x261841ec	5.2824934e-16
178	0x30ad91bc	1.2628827e-09
179	0x248cf977	6.113793e-17
180	0x36517bf2	3.1215573e-06
181	0xa559b365	-1.8882531e-16
182	0x25321b27	1.5448239e-16
183	0x23595adb	1.1782833e-17
184	0x2579c984	2.1665583e-16
185	0x2f463340	1.8026203e-10
186	0x2f84400f	2.4056176e-10
187	0x2310fc26	7.85965e-18
188	0x2f38b206	1.6797949e-10
189	0xa641d6c3	-6.725138e-16
190	0xa774c447	-3.3968204e-15
191	0x2022262e	1.3734566e-19
192	0xbc9f0784	-0.019412763
193	0xbe5b4b10	-0.21415353
194	0xbe450a62	-0.19242242
195	0xbd39aa2a	-0.045328297
196	0xa7841405	-3.6659065e-15
197	0x29a3d150	7.274964e-14
198	0x24a5353d	7.164753e-17
199	0xa606e88d	-4.6805754e-16
200	0x28ef6082	2.6576184e-14
201	0xa9e0846f	-9.970572e-14
202	0x3ec38138	0.38184524
203	0x3b4c3fcf	0.0031165963
204	0xbcd73a39	-0.02627288
205	0xbcc86b35	-0.024465183
206	0x244e7c4f	4.4774423e-17
207	0xb53a515a	-6.940878e-07
208	0x338f342d	6.668447e-08
209	0xbe8e1304	-0.27748883
210	0xb50b08e2	-5.179446e-07
211	0x3df890d2	0.12136997
212	0xbe4ab906	-0.19797143
213	0x3e13577d	0.14388843
214	0xa79afda3	-4.301858e-15
215	0x20f5d321	4.1644328e-19
216	0x3e9a812e	0.3017668
217	0x3e0e0ef6	0.13872895
218	0x3e7d8d3a	0.24760905
219	0x3d88f917	0.06688135
220	0x3e5d1df8	0.21593463
221	0xa6815ebb	-8.97685e-16
222	0x3e1fee14	0.15618163
223	0xbe3aa00b	-0.18225114
224	0x3e317046	0.17327985
225	0xbee835fc	-0.45353687
226	0xbdcd398e	-0.10020743
227	0x3e398c64	0.18119961
228	0xbdf73214	-0.120700985
229	0x3b07561b	0.0020650688
230	0xbdb5a219	-0.08868808
231	0x2397eed8	1.6472607e-17
232	0x2f4a9573	1.8424888e-10
233	0xa442109c	-4.2081113e-17
234	0x27ab5154	4.755021e-15
235	0x2633dfa5	6.2406195e-16
236	0x354033ee	7.160114e-07
237	0xbe114d77	-0.14189707
238	0xa9d7a9ad	-9.577352e-14
239	0x25a6d2aa	2.893916e-16
240	0x33d9a3c3	1.0134638e-07
241	0x33e44e8d	1.0631366e-07
242	0x20f544c8	4.155013e-19
243	0x9cabd942	-1.1371991e-21
244	0x3dee5af4	0.11638442
245	0x2eb5f878	8.275064e-11
246	0x3067a083	8.426541e-10
247	0x240e2d7f	3.082988e-17
248	0xa353762d	-1.1463358e-17
249	0xbda290d2	-0.079377785
250	0x30dccd41	1.6065443e-09
251	0xb3c1724e	-9.008055e-08
252	0x20712e85	2.0428886e-19
253	0xb5b40076	-1.3411179e-06
254	0xa1baa9b4	-1.264877e-18
255	0xb6d237b9	-6.2649747e-06

gats.gnn_layers.1.gat_conv.attn_l f4 [1, 4, 14]
0	0x3d88280e	0.06648265
1	0xbeb41cbf	-0.35178182
2	0xbbb460a9	-0.005504687
3	0xbe8e74f6	-0.2782361
4	0x3dd96da8	0.106166184
5	0xbd09d5d0	-0.033651173
6	0x3e057501	0.13032915
7	0xbdbc4225	-0.091923036
8	0x3cfc78cf	0.030819325
9	0xbeeb1ca3	-0.45920286
10	0xbe9348ce	-0.28766483
11	0xbe042bc1	-0.12907316
12	0xbda80340	-0.08203745
13	0xbe917cf7	-0.28415653
14	0xbda32621	-0.07966257
15	0xbe131b7e	-0.14365956
16	0x3c7ecf6a	0.015552381
17	0x3ea60e09	0.32432583
18	0x3ee03ada	0.437949
19	0x3eb4c9ba	0.35310155
20	0x3c4bd2e4	0.012440417
21	0xbf0231dc	-0.5085733
22	0x3d759aed	0.059962202
23	0xbec40eca	-0.38292533
24	0x3ec1b17f	0.3783073
25	0xbc964dd6	-0.018347662
26	0xbc06c305	-0.008225207
27	0xbea9f858	-0.33197284
28	0xbe630ab8	-0.22172058
29	0xbe9ad9f0	-0.30244398
30	0xbdcf3088	-0.101166785
31	0xbec5a9f9	-0.3860624
32	0xbe2e07a6	-0.16995105
33	0x3e895600	0.26823425
34	0x3e7dbb33	0.24778442
35	0xbcd19a59	-0.025586294
36	0x3de4cb8e	0.111716375
37	0xbf1eecbb	-0.6207997
38	0xbe53c2d9	-0.20679797
39	0xbe300e4d	-0.17192955
40	0xbeaee09f	-0.34155747
41	0x3e0043a2	0.125258
42	0x3e3acf12	0.18243054
43	0x3e9d8fc8	0.3077376
44	0x3de1ab40	0.110189915
45	0x3d2f2ecd	0.042769242
46	0xbe9e300d	-0.30896035
47	0xbe343dca	-0.17601696
48	0xbe5028ab	-0.20328014
49	0xbe9d25a1	-0.3069277
50	0xbd08fdbc	-0.033445105
51	0x3e3a1a42	0.18174079
52	0xbe50a05d	-0.20373674
53	0xbe2b4d67	-0.16728745
54	0x3e978601	0.29594424
55	0x3d07bf77	0.03314158

gats.gnn_layers.1.gat_conv.attn_r f4 [1, 4, 14]
0	0xbd70889c	-0.05872403
1	0x3e65a29a	0.22425309
2	0xbe6a28d9	-0.22867145
3	0xbda6e3d1	-0.08148921
4	0x3ebb702b	0.36609015
5	0x3d04de6d	0.032438684
6	0x3dcf0e60	0.10110164
7	0x3ed8f36b	0.42373213
8	0x3e94f159	0.29090384
9	0x3edb2426	0.42801017
10	0xbe91b20b	-0.28456149
11	0x3e86bbd2	0.2631517
12	0xbed92da9	-0.42417648
13	0xbe30dc36	-0.17271504
14	0x3e0caafd	0.13737102
15	0x3e923982	0.285595
16	0xbe852ec0	-0.2601223
17	0xbe348dc4	-0.17632204
18	0xbec0c78d	-0.37652245
19	0xbc7f39e5	-0.015577768
20	0x3c37b63e	0.0112128835
21	0x3efb4147	0.4907324
22	0xbe2b8cf5	-0.1675299
23	0xbe389fb1	-0.18029667
24	0xbf045d04	-0.5170443
25	0x3e0dd0a0	0.13849115
26	0xbeaae188	-0.33375192
27	0xbe515368	-0.20441973
28	0xbd34a50d	-0.044102717
29	0xbdfb2510	-0.122629285
30	0x3dd0fa82	0.102040306
31	0x3e4ec1c4	0.20191103
32	0x3e836740	0.2566471
33	0xbe2e220e	-0.17005178
34	0x3e5ab717	0.21358906
35	0x3e81a12d	0.2531828
36	0xbd990f35	-0.07473604
37	0x3e9e584f	0.3092675
38	0x3d2278a3	0.03966583
39	0xbe21df42	-0.15807822
40	0xbd5380e4	-0.05163659
41	0xbdb028d4	-0.08601537
42	0x3d9308ee	0.071794376
43	0x3e1e9ddb	0.15489905
44	0x3efa4fe5	0.4888908
45	0xbe0ca35f	-0.13734196
46	0xbea41fcc	-0.3205551
47	0x3e15488b	0.14578454
48	0xbd7db647	-0.06194141
49	0xbebd1f84	-0.36938107
50	0xbea7d0ad	-0.32776394
51	0x3e82a596	0.25516957
52	0x3d8e6395	0.069525875
53	0xbe25af8d	-0.16180249
54	0x3de5bbbb	0.11217447
55	0x3ee380af	0.44434115

gats.gnn_layers.1.gat_conv.fc.weight f4 [56, 56]
0	0xbe94488f	-0.28961608
1	0xbde29c0b	-0.11064919
2	0xbdb8e618	-0.09028262
3	0x3dd41c88	0.103570044
4	0xbe4d97f1	-0.20077492
5	0xbe53ccd1	-0.206836
6	0x3d93f6ec	0.07224831
7	0xbe53269c	-0.20620197
8	0xbd12f283	-0.03587581
9	0x3cf01196	0.02930526
10	0xbd63b641	-0.055593733
11	0x3e3abc3a	0.18235865
12	0xbc636fde	-0.013881652
13	0x3e6fe438	0.23426902
14	0xbdf48108	-0.11938673
15	0x3db70b6c	0.089377254
16	0x3e88b4ad	0.26700345
17	0x3dc98629	0.09840042
18	0xbd94f59d	-0.072734095
19	0xbc0ef2fa	-0.008724922
20	0xbddc0d9e	-0.10744785
21	0xbd70a599	-0.058751676
22	0xbe7a32a1	-0.24433376
23	0x3d246c4e	0.04014235
24	0x3ed60ac1	0.4180508
25	0xbee067b0	-0.43829107
26	0x3de6d396	0.112708256
27	0xbd990581	-0.07471753
28	0xbd39990f	-0.045311984
29	0x3dab41d9	0.08362169
30	0xbdb423fe	-0.087959275
31	0xbe805dd6	-0.2507159
32	0x3e8f4576	0.27982682
33	0xbcf5fe2d	-0.030028427
34	0x3dff767d	0.12473772
35	0xbec97520	-0.39347172
36	0xbdcea0ac	-0.100892395
37	0x3de430da	0.1114213
38	0x3ba99ade	0.0051759323
39	0x3d164b47	0.036692884
40	0x3ea9197e	0.33027261
41	0xbe3ca191	-0.18421008
42	0x3ed92ed1	0.4241853
43	0xbeb49f90	-0.35277987
44	0x3e7ea32d	0.24866934
45	0xbd251db4	-0.04031153
46	0xbe0ebef6	-0.13940033
47	0xbd774ab0	-0.060373962
48	0xbdee93c5	-0.116492786
49	0x3e10abd0	0.14128041
50	0xbddf7282	-0.109105125
51	0xbd1a4e3a	-0.03767226
52	0xbe1179c5	-0.14206608
53	0xbe76e1ff	-0.24109648
54	0xbc407636	-0.011746934
55	0xbe20b0b1	-0.15692402
56	0x3d9b12c6	0.0757194
57	0xbd81fb55	-0.06346766
58	0xbe7cad8f	-0.24675582
59	0xbe03a634	-0.1285637
60	0xbca712b2	-0.020394657
61	0xbea198b8	-0.31561828
62	0x3de00c73	0.109398745
63	0xbe5d8669	-0.21633305
64	0x3e041390	0.12898088
65	0x3e90fdc5	0.2831861
66	0x3b480ac7	0.0030524002
67	0x3efecc27	0.4976513
68	0x3e2bcffb	0.16778557
69	0x3ce16df9	0.02751826
70	0x3ea21bd3	0.31661853
71	0xbe224cde	-0.15849635
72	0xbe2af5e0	-0.16695356
73	0xb9fcec9c	-0.00048241473
74	0xbee9a513	-0.45633754
75	0x3d779f4d	0.060454655
76	0x3cb591f8	0.02216433
77	0x3eb83eb4	0.3598534
78	0x3d898f01	0.06716729
79	0xbec953f8	-0.39321876
80	0x3ed3466c	0.41264665
81	0xbd485b9c	-0.04891549
82	0x3d90ab08	0.070638716
83	0x3e80660b	0.25077853
84	0x3da6a90c	0.08137712
85	0xbd3b0425	-0.04565825
86	0x3d65d471	0.056110803
87	0xbe3a1cd6	-0.18175063
88	0x3e0e6852	0.13906983
89	0xbdee5fe0	-0.116393805
90	0xbe0f38c2	-0.13986495
91	0x3e11413c	0.14185041
92	0x3f126b07	0.5719456
93	0xbe62940f	-0.22126792
94	0x3d813bdd	0.06310246
95	0x3e35df3d	0.1776094
96	0xbe9b119c	-0.30286872
97	0x3d67d7ca	0.056602277
98	0x3e02ff81	0.1279278
99	0xbdd42103	-0.10357859
100	0xbdce2ec6	-0.10067515
101	0xbe7a61f6	-0.24451432
102	0xbe309874	-0.17245656
103	0x3cb811ff	0.022469519
104	0xbea7689c	-0.32696998
105	0x3d786c29	0.060650025
106	0xbd5dcda4	-0.054151192
107	0x3d6cf0c7	0.05784681
108	0xbe9d7a94	-0.30757582
109	0x3db52cfa	0.08846469
110	0x37a247ef	1.9345402e-05
111	0x3e06aebf	0.13152598
112	0xbde66f42	-0.112516895
113	0xbe936f52	-0.28795868
114	0x3db974b5	0.09055463
115	0x3e10ace2	0.1412845
116	0x3d198d59	0.037488315
117	0xbddb52c7	-0.10709148
118	0xbe762697	-0.24038158
119	0x3e88e793	0.26739177
120	0x3e8b5db3	0.27219924
121	0xbee29ca6	-0.44260138
122	0xbde33b26	-0.11095266
123	0xbe880f83	-0.26574335
124	0xbcd119bf	-0.025524972
125	0xbe23340a	-0.1593782
126	0xbd9186f2	-0.07105817
127	0x3b28806e	0.0025711316
128	0x3e631d32	0.22179106
129	0xbe0ffe81	-0.1406193
130	0xbca85af1	-0.020551177
131	0xbdd0fe38	-0.102047384
132	0xbe73df2d	-0.23815604
133	0x3d0e377d	0.034720886
134	0x3e2b6bc0	0.16740322
135	0xbe229e9c	-0.15880817
136	0xbe34a65c	-0.17641586
137	0xbb79c107	-0.0038109438
138	0x3da6b4fa	0.08139987
139	0x3b68ae9c	0.0035504466
140	0x3e42edac	0.19035977
141	0xbe8b2db3	-0.27183303
142	0x3d423ac9	0.047419343
143	0xbe52c580	-0.20583153
144	0x3e9a4f6f	0.30138728
145	0xbd9439cf	-0.072375886
146	0x3dd79893	0.10527148
147	0xbe4a4932	-0.19754484
148	0xbebf40dd	-0.37354174
149	0x3dbc22b2	0.09186305
150	0xbe8aec6c	-0.271335
151	0xbe25a55d	-0.16176362
152	0xbe11dcb9	-0.14244355
153	0xbe9944bf	-0.29935262
154	0xbdc5ed55	-0.09664408
155	0xbde8a3cf	-0.11359369
156	0xbe8040ce	-0.25049442
157	0x3e04515c	0.12921661
158	0x3e88230c	0.2658924
159	0xbd6adf04	-0.05734159
160	0xbd07ee8e	-0.033186488
161	0x3e8daf30	0.2767272
162	0x3f0a24cd	0.53962404
163	0x3e83800c	0.2568363
164	0x3e93656a	0.2878831
165	0x3dc04c4d	0.09389553
166	0xbe0d3b80	-0.13792229
167	0xbe5e82b2	-0.21729544
168	0x3e02f29c	0.1278786
169	0x3d7e1232	0.06202907
170	0x3e2a0e39	0.16606988
171	0xbd990ecf	-0.07473528
172	0x3b78679a	0.0037903548
173	0x3ce4cd39	0.027929889
174	0xbdab7aaa	-0.08373006
175	0x3d866178	0.065615594
176	0xbd1437b8	-0.03618595
177	0xbe00c42b	-0.12574832
178	0xbdd6d7e0	-0.10490394
179	0xbe31ffa5	-0.17382677
180	0x3e2234e0	0.15840483
181	0x3c87529f	0.016518889
182	0x3c963e6e	0.018340316
183	0xbea3eb8e	-0.3201565
184	0x3e486441	0.19569494
185	0x3ecf59ad	0.40498105
186	0x3d8e7c9b	0.0695736
187	0xbe70b414	-0.23506194
188	0x3da7a536	0.08185808
189	0xbd745a56	-0.059656464
190	0xbe9c14e3	-0.30484685
191	0xbe5617dc	-0.20907539
192	0xbd3a9dc2	-0.045560606
193	0x3eb70e37	0.35753033
194	0xbd7d4fe1	-0.061843757
195	0xbe468eaf	-0.19390367
196	0xbdf04d79	-0.11733527
197	0xbd83a4f3	-0.06427946
198	0xbe7d68f0	-0.24747062
199	0x3d7bfa11	0.06151778
200	0x3d202518	0.039097875
201	0xbc9227f2	-0.017841313
202	0x3e0c3de6	0.13695487
203	0x3dbd731b	0.0925047
204	0xbe8828c4	-0.26593602
205	0x3e810b52	0.2520395
206	0xbdfee7b6	-0.12446539
207	0x3dbaf493	0.0912868
208	0x3e51918f	0.20465682
209	0xbd833d88	-0.064082205
210	0x3e944a47	0.2896292
211	0xbd0be363	-0.0341524
212	0x3e48df62	0.19616464
213	0x3e4d1393	0.20026998
214	0x3e4e8a9a	0.2017006
215	0x3d178432	0.036991306
216	0x3d3b4d9a	0.045728303
217	0xbb4b12c2	-0.0030986522
218	0xbe592875	-0.2120684
219	0xbe807035	-0.25085607
220	0x3e2530aa	0.16131845
221	0x3cf1ad24	0.029501505
222	0x3db34300	0.087530136
223	0xbc04c724	-0.008104119
224	0x3d5c9a8f	0.053858336
225	0xbe0eddb6	-0.13951764
226	0xbe3e1710	-0.18563485
227	0x3ebddffd	0.37084952
228	0xbdd631e9	-0.10458738
229	0xbe5783b9	-0.21046342
230	0xbdde3092	-0.10849108
231	0x3ef4d714	0.47820342
232	0xba1ad3a2	-0.00059061695
233	0x3e93dede	0.28880972
234	0xbe024a63	-0.12723689
235	0xbe3e9442	-0.18611243
236	0xbc3290d9	-0.010898792
237	0x3d51e576	0.05124422
238	0x3da7ee69	0.0819977
239	0x3e656de3	0.224052
240	0x3e9c4dca	0.30528098
241	0xbe624477	-0.2209643
242	0xbe331245	-0.17487438
243	0x3e4b3ddc	0.19847816
244	0xbcd47c8d	-0.025938297
245	0xbe52b7f3	-0.20577984
246	0x3e30c106	0.17261133
247	0xbec8f6ae	-0.39250702
248	0xbdcf2828	-0.10115081
249	0x3e2ee88d	0.17080899
250	0x3eadda59	0.3395565
251	0x3e3fc305	0.18726738
252	0xbeafbbeb	-0.34323058
253	0xbe5e06e1	-0.21682312
254	0xbe9b7b28	-0.30367398
255	0x3d8dc512	0.06922354

gats.gnn_layers.1.gat_conv.res_fc.weight f4 [56, 56]
0	0xbe1f46b1	-0.1555431
1	0x3eb9b86d	0.36273518
2	0xba1aa748	-0.00058995606
3	0x3f336a23	0.70083827
4	0x3c310ba4	0.010805998
5	0xbe1259c3	-0.14292054
6	0xbe97deef	-0.29662272
7	0xbdeae56e	-0.114695415
8	0x3cf6d32a	0.030129988
9	0x3e25c6b9	0.16189088
10	0xbe3f40fc	-0.18677133
11	0xbe3ee0a1	-0.18640377
12	0xbcf21bf6	-0.029554348
13	0x3d81924a	0.063267305
14	0xbdc8534b	-0.09781512
15	0xbd6cb0af	-0.057785686
16	0xbec08bd0	-0.37606668
17	0xbe3b84be	-0.18312356
18	0xbe20f20c	-0.15717334
19	0x3e27f42f	0.16401742
20	0xbd42e8da	-0.047585346
21	0xbdbc174e	-0.091841325
22	0x3bbaed14	0.0057045314
23	0x3ec24688	0.37944436
24	0x3e96541c	0.29361045
25	0x3d169bb6	0.03676959
26	0xbdc02142	-0.093813434
27	0x3e835b67	0.25655672
28	0x3e31f878	0.1737994
29	0x3d70d22d	0.05879419
30	0x3e3e7be2	0.18601945
31	0xbed94d7f	-0.42441937
32	0x3d829fe5	0.06378154
33	0x3cfce98a	0.030873079
34	0xbd706888	-0.05869344
35	0xbe380956	-0.17972311
36	0xbdc9f067	-0.09860306
37	0x3ddbf999	0.10740966
38	0x3e0e6cbb	0.13908665
39	0x3e859b1a	0.26094896
40	0xbe88ff65	-0.2675735
41	0x3dcbb6cc	0.09946975
42	0x3c56e921	0.013117106
43	0xbe85e2e6	-0.26149672
44	0xbe9f1de7	-0.310775
45	0x3ebe4b3b	0.3716677
46	0x3e1a57ef	0.15072607
47	0xbd3dd85f	-0.046348926
48	0xbe37396a	-0.17892995
49	0xbd1b5ea8	-0.037932068
50	0x3e129863	0.14315943
51	0xbd929af0	-0.07158458
52	0xbe9af0f8	-0.3026197
53	0x3cc49396	0.023996156
54	0x3eaf8ddb	0.34287915
55	0x3ea726fa	0.32646924
56	0xbd44482f	-0.047920402
57	0xbb72029c	-0.0036927825
58	0x3be596e7	0.0070065144
59	0x3e63678f	0.22207473
60	0x3e617da6	0.22020587
61	0xbd979bde	-0.07402776
62	0x3e6cb6fe	0.23116681
63	0xbe05c979	-0.13065137
64	0x3ca85e08	0.02055265
65	0x3e34af77	0.1764506
66	0xbd87a59d	-0.06623385
67	0xbe46b058	-0.19403207
68	0xbe0a9cd8	-0.13536394
69	0x3d85f9ca	0.06541784
70	0xbcf24af9	-0.029576765
71	0x3cd0ea8b	0.025502464
72	0x3eb405f3	0.3516079
73	0xbd7cafd3	-0.061691117
74	0x3d12fa35	0.035883147
75	0xbdcb0c6b	-0.09914478
76	0xbda4d91f	-0.08049225
77	0x3e78fab5	0.24314387
78	0xbc0af3b2	-0.008480953
79	0x3da940f4	0.08264342
80	0x3e32d8cc	0.17465514
81	0xbd6ea92e	-0.05826681
82	0x3dd3199d	0.1030762
83	0x3e433127	0.19061719
84	0xbd9ea473	-0.0774621
85	0xbedd3307	-0.43202993
86	0x3e60f09d	0.21966787
87	0x3eddbfe2	0.43310457
88	0xbc5b4dc0	-0.013385236
89	0x3de71d60	0.112849
90	0x3e25e35b	0.1620001
91	0xbc96523d	-0.018349761
92	0xbdcdfa14	-0.10057464
93	0xbdc3da2d	-0.09563098
94	0x3da12e8f	0.078702085
95	0x3ea4f2ab	0.3221639
96	0xbc917c27	-0.017759396
97	0xbd8b1c5e	-0.0679252
98	0x3e0265b2	0.12734106
99	0xbe00a1f7	-0.12561785
100	0xbde9e298	-0.114201725
101	0x3e018fc3	0.12652497
102	0xbdb8319b	-0.089938365
103	0x3e32cf19	0.17461814
104	0xbc93f939	-0.018063175
105	0x3e91c795	0.28472582
106	0xbdeac89d	-0.11464045
107	0xbe2bd8fc	-0.16781992
108	0xbe18b52a	-0.14912859
109	0x3e45749d	0.19282766
110	0x3e815612	0.2526098
111	0x3db9f03f	0.090790264
112	0x3e0a0f07	0.13482295
113	0xbd90c82a	-0.07069428
114	0x3e1a8539	0.15089883
115	0xbd630ca7	-0.055431988
116	0xbf23657a	-0.63826716
117	0xbce8ebe6	-0.028432798
118	0x3d1092e3	0.035296332
119	0xbe2d380d	-0.16915913
120	0x3d8f7722	0.07005145
121	0x3ed39572	0.41324955
122	0xbd640e0e	-0.055677466
123	0x3eaba73f	0.33526036
124	0xbd2c3cf5	-0.04205032
125	0xba3bc141	-0.0007162281
126	0x3e5954ed	0.21223803
127	0x3f09a9cf	0.5377473
128	0xbe305334	-0.1721924
129	0x3dcd6a45	0.10030035
130	0x3e8e424c	0.27784956
131	0x3da2da97	0.07951849
132	0x3d890d39	0.06691975
133	0xbe198818	-0.14993322
134	0x3e541837	0.20712362
135	0xbe71e9cc	-0.23624343
136	0x3e3442f8	0.17603672
137	0xbddc5a91	-0.10759462
138	0xbce5fe0c	-0.02807524
139	0xbe2b3f3e	-0.16723344
140	0xbec4900c	-0.3839115
141	0xbe0e4b74	-0.1389597
142	0xbdcc3b0c	-0.099722
143	0x3da80b3a	0.08205266
144	0xbe9a3465	-0.301181
145	0x3dcb82ee	0.09937082
146	0x3e8a8cc1	0.27060512
147	0x3e88fc00	0.2675476
148	0x3c7a3368	0.015271045
149	0xbed42b22	-0.41439158
150	0xbe84c756	-0.2593333
151	0x3d251d52	0.040311165
152	0x3e627f67	0.22118913
153	0xbd9ab4f6	-0.07554047
154	0x3e5ced94	0.21575004
155	0x3d4f1a92	0.05056245
156	0x3d7a1e49	0.06106404
157	0x3e34b755	0.1764806
158	0x3e17511c	0.14777035
159	0xbe4582b6	-0.19288144
160	0xbd94b97f	-0.07261943
161	0x3cf273e7	0.029596282
162	0xbe18e103	-0.14929585
163	0x3bc38ad6	0.0059674783
164	0x3d38c9e3	0.04511441
165	0xbed7c18f	-0.4213986
166	0x3d1e132d	0.038592506
167	0xbe750897	-0.23929058
168	0xbdce3056	-0.10067813
169	0xbd845c00	-0.0646286
170	0x3f06fcd5	0.5272954
171	0xbc3eb328	-0.011639394
172	0xbd75c2f3	-0.06000037
173	0x3e691665	0.22762449
174	0xbe7f604e	-0.24939081
175	0x3e5a5f11	0.21325327
176	0xbde244ee	-0.110483035
177	0xbd9c4664	-0.076306134
178	0x3e88de7d	0.26732245
179	0xbe29e9c6	-0.16593084
180	0x3e0167cf	0.12637256
181	0x3d546c6b	0.051861208
182	0xbe96f42e	-0.2948317
183	0xbe4387a5	-0.19094713
184	0x3d840a82	0.06447317
185	0xbe7f0c27	-0.2490698
186	0x3df0c998	0.11757201
187	0xbe97f9ff	-0.2968292
188	0x3edc314e	0.43006366
189	0x3e467b1a	0.19382897
190	0x3dd4fee6	0.104001805
191	0xbea2142d	-0.31656018
192	0x3e947507	0.28995535
193	0x3d6bdeec	0.05758564
194	0x3d415dce	0.0472086
195	0xbe0cc42a	-0.13746706
196	0xbe4a0833	-0.1972969
197	0x3d81c268	0.06335908
198	0xbd961430	-0.07328069
199	0x3dd247d2	0.10267605
200	0xbeba5dc6	-0.36399668
201	0xbe91e6dc	-0.28496444
202	0x3d812479	0.06305785
203	0xbd760f97	-0.06007346
204	0x3e2062c0	0.1566267
205	0x3e6b32ad	0.2296855
206	0xbe852737	-0.2600648
207	0x3deea0fe	0.116518006
208	0xbd8f35a0	-0.0699265
209	0x3e37c83a	0.17947474
210	0xbd46e5e0	-0.04855907
211	0xbc8db7f4	-0.01729963
212	0xbf161fc8	-0.58642244
213	0x3c6c3b54	0.014418442
214	0xbe7dc641	-0.24782659
215	0xbc3655f2	-0.011128889
216	0xbe02e9cd	-0.127845
217	0xbd6f8080	-0.058472157
218	0xbe97f76e	-0.2968096
219	0x3d2c691b	0.042092424
220	0xbdecbd9a	-0.11559601
221	0x3eb9e2e4	0.36305916
222	0x3e5eff8a	0.21777168
223	0xbc75c332	-0.0150001515
224	0x3dc4c084	0.09607032
225	0xbde6ea30	-0.112751365
226	0xbdbe18f3	-0.092821024
227	0xbc30b621	-0.01078561
228	0x3e02970d	0.12752934
229	0x3dca6669	0.098828144
230	0x3ea76f24	0.3270198
231	0xbcd3b08d	-0.025841022
232	0xbe9809f2	-0.29695088
233	0x3cf796a8	0.030223206
234	0x3ca6c5fd	0.02035808
235	0xbe4051d7	-0.1878122
236	0xbe0bee8e	-0.1366522
237	0xbd50623e	-0.05087494
238	0x3dd8d63a	0.105877355
239	0xbe77a9fb	-0.24185936
240	0x3e80dae8	0.25167012
241	0x3db15551	0.08658851
242	0x3ec7d15e	0.39026922
243	0x3e037482	0.12837413
244	0xbe4a21dc	-0.19739479
245	0x3def9537	0.11698382
246	0xbe4e8c74	-0.20170766
247	0xbea335eb	-0.31877074
248	0xbd9039ae	-0.070422515
249	0xbe683415	-0.22676118
250	0xbcf0b182	-0.029381517
251	0x3e612846	0.2198802
252	0x3d9888ea	0.07447989
253	0x3e2902aa	0.16504923
254	0xbd3f6307	-0.0467253
255	0x3e5a5a6d	0.21323557

gats.gnn_layers.2.gat_conv.attn_l f4 [1, 4, 14]
0	0x3df08143	0.11743405
1	0x3d680774	0.056647733
2	0x3e147dbc	0.14501089
3	0xbe112061	-0.14172508
4	0xbe8cb89a	-0.2748459
5	0xbe8ba05b	-0.2727078
6	0xbe449193	-0.19196157
7	0x3e888a8d	0.26668206
8	0x3e77ee50	0.24212003
9	0x3e917418	0.28408885
10	0xbf005c5c	-0.5014093
11	0xbd8a9a4d	-0.06767712
12	0xbce1c285	-0.027558574
13	0xbdd871fe	-0.10568617
14	0xbdcccac4	-0.09999612
15	0x3dc40a9b	0.09572335
16	0xbe10b14c	-0.14130133
17	0xbdc0ffcd	-0.0942379
18	0xbd5b47dc	-0.053535327
19	0x3e50df4d	0.20397682
20	0x3dd03fe1	0.10168434
21	0x3eaa5b24	0.3327266
22	0x3dc5f80e	0.09666453
23	0xbe0ddece	-0.13854524
24	0x3e6b9429	0.23005737
25	0xbe0c998a	-0.13730446
26	0xbd5546df	-0.05206954
27	0x3e020a64	0.12699276
28	0xbe954348	-0.29152894
29	0x3e7dbafd	0.24778362
30	0x3db3aa77	0.08772748
31	0xbe959375	-0.29214063
32	0xbe69935a	-0.22810116
33	0xbe9cd84d	-0.30633774
34	0xbd53f33e	-0.051745646
35	0xbe6d9a12	-0.23203304
36	0xbe474910	-0.19461465
37	0xbe969856	-0.29413098
38	0xbebeb73a	-0.37249166
39	0x3c99debf	0.018782971
40	0x3cd90551	0.026491793
41	0x3d383e7b	0.04498146
42	0xbdde75e3	-0.10862329
43	0xbe4ac520	-0.1980176
44	0xbeaacdfe	-0.33360285
45	0xbe9af8f3	-0.30268058
46	0xbe2137f8	-0.15744007
47	0x3d274b4a	0.040843286
48	0xbe28b2e0	-0.16474485
49	0x3e0ea84f	0.13931392
50	0xbe963cb8	-0.293432
51	0x3c512e45	0.012767379
52	0x3f085319	0.53251797
53	0x3d9af313	0.07565894
54	0x3ce4a38d	0.027910018
55	0x3cf9c9c5	0.030491719

gats.gnn_layers.2.gat_conv.attn_r f4 [1, 4, 14]
0	0xbd444576	-0.047917806
1	0xbdc8bc68	-0.09801561
2	0xbdf9dadf	-0.121999495
3	0x3d6471d9	0.055772636
4	0x3e1ee291	0.15516116
5	0x3e9dbefa	0.30809766
6	0xbde91969	-0.113818
7	0xbecdb583	-0.40177545
8	0x3c1a02c8	0.009400077
9	0xbc83d4f0	-0.016092747
10	0xbe2f7da1	-0.17137767
11	0x3dc98e1f	0.098415606
12	0x3e8e07ec	0.2774042
13	0x3e991a5f	0.29902932
14	0xbe3a85d1	-0.1821511
15	0xbc836c79	-0.016042935
16	0x3e41929a	0.1890358
17	0x3f15cb2d	0.58513147
18	0x3da33acb	0.07970198
19	0x3eb6434e	0.35598224
20	0xbe66ace5	-0.22526892
21	0xbd4fea14	-0.050760344
22	0xbebc3b16	-0.3676383
23	0x3ee7d592	0.4528013
24	0x3e1e899c	0.15482181
25	0x3e8f84db	0.28031048
26	0x3e5eea82	0.21769145
27	0x3e138ccb	0.14409177
28	0x3e271002	0.163147
29	0xbc8c69c5	-0.017140279
30	0xbe447ca9	-0.19188179
31	0xbde5f06d	-0.11227498
32	0x3cff5a62	0.031171028
33	0xbdc105c2	-0.09424926
34	0x3e4ab9cb	0.19797437
35	0xbdf140e0	-0.11779952
36	0xbdc39ae3	-0.09551027
37	0x3e454b21	0.1926694
38	0xbe54373c	-0.20724195
39	0xbebeeda2	-0.37290674
40	0xbd5ae632	-0.053442188
41	0x3d4e6ab2	0.05039472
42	0x3b640291	0.0034791569
43	0x3da1d2fc	0.0790157
44	0xbe32080c	-0.17385882
45	0x3ebbf392	0.36709267
46	0x3d89ef0f	0.0673505
47	0x3ea48c6c	0.32138383
48	0xba0440cf	-0.00050450576
49	0x3e970ea3	0.29503354
50	0x3dd68a09	0.10475547
51	0x3e2ccbde	0.16874644
52	0xbed1cb87	-0.40975592
53	0xbdf1f1a3	-0.11813667
54	0xbd6d182e	-0.057884388
55	0xbb817e20	-0.003951803

gats.gnn_layers.2.gat_conv.fc.weight f4 [56, 56]
0	0xbea87d4c	-0.32908094
1	0xbe74a344	-0.23890406
2	0x3e4f8d13	0.2026866
3	0xbdb111bc	-0.08645961
4	0x3e53877b	0.2065715
5	0xbc4ab995	-0.012373348
6	0x3dbc1ebc	0.091855496
7	0xbee572da	-0.44814187
8	0x3eb0eb6b	0.3455461
9	0x3dc8e5b0	0.098094344
10	0x3ed7e63a	0.42167836
11	0xbe948eb3	-0.2901512
12	0xbdb57ec2	-0.08862068
13	0xbe27ddc3	-0.16393189
14	0xbe08650b	-0.13319795
15	0xbee18470	-0.44046354
16	0xbe36c5b0	-0.1784885
17	0xbdb9363c	-0.090435475
18	0xbe2657e2	-0.16244462
19	0xbeaf5716	-0.3424613
20	0x3d9fa0c6	0.07794337
21	0x3b1a1633	0.0023511767
22	0x3e655805	0.22396858
23	0x3c697d40	0.014251053
24	0x3ea4902d	0.32141247
25	0xbe1339e4	-0.14377552
26	0xbbe4b1a0	-0.0069791824
27	0x3e280a5e	0.16410205
28	0xbd393765	-0.045218844
29	0xbe1b9d3e	-0.15196702
30	0x3c8d16c3	0.017222768
31	0x3db03bbb	0.08605143
32	0xbeb32664	-0.34990227
33	0xbdbe5daa	-0.09295209
34	0xbd920059	-0.071289726
35	0x3c572348	0.01313097
36	0x3d472fce	0.048629574
37	0x3cac21bf	0.021012185
38	0xbe3522e6	-0.17689094
39	0xbcb46fe2	-0.022026006
40	0x3ead31f3	0.3382717
41	0xbd8bc130	-0.06823957
42	0x3e815d79	0.25266626
43	0xbdf6f36d	-0.120581485
44	0xbec695a5	-0.38786045
45	0xbd3f5744	-0.046714082
46	0x3ae23c98	0.001726049
47	0xbe6bd313	-0.23029737
48	0x3e5132ea	0.20429578
49	0xbe409f1c	-0.18810695
50	0xbd7d266c	-0.06180422
51	0x3dd94e6c	0.10610661
52	0xbe51078a	-0.20413032
53	0x3d50f2e5	0.051012892
54	0xbdff0f1e	-0.12454055
55	0xbe522500	-0.20521927
56	0x3e2e11f6	0.16999039
57	0x3c1156a2	0.0088707525
58	0x3e149c67	0.14512788
59	0xbdd1b832	-0.102402106
60	0xbe094315	-0.13404496
61	0x3d42326a	0.04741136
62	0xbe6065f2	-0.21913889
63	0x3db74357	0.08948391
64	0xbd8ce7fe	-0.068801865
65	0xbde55f00	-0.111997604
66	0xbe3fe144	-0.18738276
67	0xbdb4d69b	-0.08829995
68	0x3e5ef35f	0.21772526
69	0xbd76f55c	-0.060292587
70	0xbe763829	-0.24044861
71	0xbe1854bf	-0.14876078
72	0x3e45b57c	0.19307512
73	0xbbdc8fea	-0.006731023
74	0x3d72f335	0.05931397
75	0x3e02b53d	0.1276445
76	0x3d694d3a	0.056958415
77	0x3dc3f343	0.09567883
78	0xbe83041b	-0.2558907
79	0xbd971643	-0.07377293
80	0x3d88230a	0.06647308
81	0xbe92e9cd	-0.28694
82	0xbdaec6c5	-0.08534006
83	0xbdaae581	-0.08344556
84	0xbdc6c67d	-0.097058274
85	0x3dd12fd4	0.102142006
86	0x3e56b8b9	0.20968904
87	0x3d92f5dc	0.071758
88	0xbe3a01e9	-0.18164791
89	0xbd5b6e1c	-0.053571805
90	0xbecb7bd0	-0.397429
91	0x3e811ff7	0.252197
92	0x3e5dd25a	0.21662274
93	0x3e039936	0.12851414
94	0xbe76a9a5	-0.24088152
95	0xbddb0664	-0.10694578
96	0xbea3a3df	-0.3196096
97	0xbe97fc1f	-0.2968454
98	0x3e1283fe	0.14308164
99	0x3e8c9333	0.27456054
100	0xbc2d4714	-0.010576028
101	0xbd11ed66	-0.03562679
102	0xbdc6b413	-0.09702315
103	0xbd0df656	-0.034658752
104	0xbdf7bdf2	-0.12096776
105	0x3bbd773d	0.0057820366
106	0x3f0c8489	0.5488973
107	0xbe5865ed	-0.21132632
108	0x3e6ccbc2	0.23124602
109	0xbda091ad	-0.078402855
110	0xbe34c2ea	-0.17652479
111	0xbe827d78	-0.2548635
112	0xbe8ff5aa	-0.28117114
113	0x3e8df576	0.27726334
114	0x3d4152ac	0.047197983
115	0xbe1badf4	-0.15203077
116	0x3e514f66	0.20440444
117	0x3c0d4454	0.008622248
118	0xbe007df9	-0.12548055
119	0x3e12f5da	0.14351597
120	0xbe35dda1	-0.17760326
121	0x3d529aab	0.051417034
122	0xbd39a2c4	-0.04532124
123	0xbe3e174b	-0.18563573
124	0xbd47d030	-0.048782527
125	0xbe0ce607	-0.13759623
126	0xbe9d9457	-0.30777237
127	0xbeb4c02e	-0.3530287
128	0x3e0aa709	0.13540281
129	0xbe348fa8	-0.17632926
130	0xbd2d3a42	-0.042291887
131	0xbd2ea2dd	-0.042635787
132	0xbe3f2316	-0.18665728
133	0xbe0ecb0d	-0.13944645
134	0x3e8833bb	0.26601967
135	0xbeabbb25	-0.33541217
136	0x3e27e282	0.16395
137	0xbe5d37d7	-0.21603332
138	0x3dda618d	0.106631376
139	0x3b0a54d7	0.0021107697
140	0xbe828b15	-0.25496736
141	0x3d3591ac	0.044328377
142	0x3e93f943	0.2890111
143	0xbe11b763	-0.14230113
144	0xbe2054b5	-0.15657313
145	0x3de6006c	0.11230549
146	0x3e06fbcd	0.13181992
147	0xbdd5599c	-0.10417482
148	0xbd633587	-0.05547097
149	0xbe191222	-0.14948323
150	0x3e4e4f89	0.20147528
151	0xbe6a7ccc	-0.22899169
152	0xbd397eff	-0.04528713
153	0xbd88c28c	-0.06677732
154	0x3e2626c2	0.16225722
155	0xbce49554	-0.027903236
156	0x3e99095d	0.29889956
157	0xbddd7de0	-0.108150244
158	0x3f0a6d56	0.54073083
159	0x3dea1539	0.11429829
160	0xbddaa4f1	-0.10675991
161	0x3e7fde81	0.24987222
162	0xbe7c3433	-0.24629287
163	0x3ebf06bb	0.37309822
164	0x3e3a1b52	0.18174484
165	0x3dc1566d	0.094403125
166	0xbe953086	-0.29138583
167	0x3e2ba2ac	0.16761273
168	0x3ddb4dfa	0.10708232
169	0x3d946ed6	0.07247703
170	0xbb28a228	-0.0025731418
171	0x3e475009	0.19464125
172	0xbe29db6a	-0.16587606
173	0xbdccaa09	-0.09993369
174	0x3b4ab2a0	0.0030929223
175	0x3d8468f6	0.06465332
176	0x3de21d9b	0.11040803
177	0x3e1a1eca	0.15050808
178	0x3d0fd6c5	0.03511693
179	0x3d71300d	0.058883715
180	0xbea0c982	-0.31403738
181	0x3e1fc821	0.15603687
182	0x3de77244	0.11301091
183	0xbcd7fae2	-0.026364747
184	0xbe836ec0	-0.25670433
185	0x3ea975fe	0.33097833
186	0xbdd5b2bb	-0.10434481
187	0xbd218363	-0.03943194
188	0x3bb32022	0.005466477
189	0xbe50e338	-0.20399177
190	0x3dd7ffbd	0.10546825
191	0xbe550a54	-0.20804721
192	0xbdb4b2c4	-0.08823159
193	0xbec4a303	-0.38405618
194	0x3db1919d	0.08670352
195	0xbc159d09	-0.009131678
196	0xbeb79346	-0.35854548
197	0x3c91f812	0.017818484
198	0xbe2c72be	-0.16840646
199	0xbd7214a6	-0.059101723
200	0x3e31d4e0	0.17366362
201	0x3e511b6d	0.20420618
202	0xbe643091	-0.22284152
203	0x3e8e73c8	0.2782271
204	0xbe9cc374	-0.3061787
205	0x3eafc42a	0.3432935
206	0x3c3fa8de	0.011697976
207	0xbe36ed1e	-0.1786389
208	0xbe8374a0	-0.25674915
209	0xbd6691ca	-0.05629138
210	0x3d5bea40	0.053690195
211	0xbe67b222	-0.22626546
212	0x3ceb0c99	0.02869253
213	0xbe4ef652	-0.20211151
214	0xbeaee8a9	-0.3416188
215	0xbec4c6c3	-0.38432893
216	0xbcdcf933	-0.026974296
217	0xbd86e1d3	-0.06586041
218	0xbd94ea5c	-0.07271263
219	0x3e8b07fe	0.27154535
220	0x3e2f4830	0.17117381
221	0xbcc2668b	-0.023730537
222	0xbdf48f12	-0.11941351
223	0xbd7d3c3d	-0.061825026
224	0x3e2a09e6	0.16605338
225	0x3dbe4eff	0.09292411
226	0xbc5a595f	-0.013326972
227	0x3ed4ddda	0.4157551
228	0xbcfb2267	-0.030656053
229	0xbe41f5db	-0.18941443
230	0xbc8f51a8	-0.017494991
231	0xbe7fbdd2	-0.24974754
232	0x3e97c8eb	0.29645476
233	0xbd97536a	-0.07388957
234	0x3e4d7fc8	0.20068276
235	0x3e02d368	0.12775958
236	0x3e392950	0.18082166
237	0x3e1c9d20	0.15294313
238	0x3e0eb9e0	0.13938093
239	0xbe0e235e	-0.13880679
240	0xbd591abc	-0.05300401
241	0xbd2851bd	-0.041093577
242	0x3e668228	0.22510588
243	0xbdf19166	-0.11795311
244	0x3e312a46	0.17301282
245	0x3e331b0e	0.1749079
246	0x3e2b44c8	0.16725457
247	0x3e8e8b20	0.2784052
248	0xbb78cdb9	-0.0037964417
249	0xbdb5d450	-0.08878386
250	0x3e8bdd10	0.27317095
251	0x3f0f157a	0.55892146
252	0x3e3a03f0	0.18165565
253	0x3d91628c	0.070988744
254	0x3e87ca21	0.265214
255	0x3e573390	0.21015763

gats.gnn_layers.2.gat_conv.res_fc.weight f4 [56, 56]
0	0xbda81257	-0.08206623
1	0x3e0bc327	0.13648663
2	0x3e44672e	0.19179985
3	0xbd9dca6f	-0.07704627
4	0xbe9437a4	-0.289487
5	0x3e541351	0.20710494
6	0x3ec8a1ac	0.39185846
7	0x3c8be805	0.017078409
8	0xbd3093b5	-0.043109614
9	0x3d42e1f7	0.047578778
10	0xbea37c7c	-0.31930912
11	0x3e8fd823	0.28094587
12	0xbd9c2674	-0.07624522
13	0xbe9f8462	-0.31155688
14	0xbd3ca1b8	-0.046052665
15	0xbc8b582a	-0.017009813
16	0xbdaa254e	-0.083078966
17	0xbe2a4420	-0.1662755
18	0xbe2f976e	-0.1714761
19	0xbc56903a	-0.01309591
20	0xbdf0df98	-0.11761397
21	0xbee9043e	-0.4551105
22	0xbde5197f	-0.111865036
23	0xbe87a21b	-0.26490864
24	0xbe0e2461	-0.13881065
25	0xbe683896	-0.22677836
26	0x3e16eec9	0.14739527
27	0xbd17b318	-0.03703603
28	0x3dc4caea	0.09609015
29	0xbd401c14	-0.046901777
30	0xbdc6cd5a	-0.097071365
31	0x3e8870fc	0.266487
32	0xbe99e89c	-0.3006028
33	0xbc8091e8	-0.015694574
34	0x3c3a3f41	0.01136762
35	0xbd92662e	-0.071483955
36	0xbe705c4b	-0.23472707
37	0x3de05ae8	0.10954839
38	0x3e70ce3f	0.23516177
39	0x3e723871	0.23654343
40	0xbd34f806	-0.044181846
41	0x3d645fe9	0.05575553
42	0xbc27b7e2	-0.010236712
43	0xbd99db11	-0.07512487
44	0x3d564b31	0.052317802
45	0x3cb0c7ff	0.02157974
46	0xbdd74346	-0.10510878
47	0x3e770f95	0.24127038
48	0x3d6966d4	0.05698283
49	0x3b8c5275	0.0042822906
50	0x3e558f13	0.2085536
51	0x3ec139cd	0.3773941
52	0x3e36e322	0.17860082
53	0x3b324e1c	0.0027207201
54	0x3e20774a	0.15670505
55	0x3da9f938	0.08299488
56	0x3b030430	0.001999151
57	0x3e9f0bda	0.3106373
58	0xbea2c3fc	-0.3179015
59	0x3da3c9ef	0.079975
60	0x3d850ee8	0.06496984
61	0xbe3d0987	-0.18460666
62	0x3d0cdd5b	0.03439079
63	0x3da89330	0.08231199
64	0xbe2e11ab	-0.16998927
65	0x3eaf7590	0.3426938
66	0xbc224eaa	-0.00990645
67	0xbe0fc13f	-0.14038561
68	0x3e2192f4	0.15778714
69	0x3db3a3f0	0.08771503
70	0xbdd8995d	-0.10576127
71	0xbe64c6c8	-0.22341454
72	0xbd91b4c7	-0.07114559
73	0xbe8ee22e	-0.27906936
74	0x3ebb6bd0	0.36605692
75	0xbe219cc4	-0.15782458
76	0x3d98dcfc	0.074640244
77	0x3d270da3	0.04078449
78	0x3ddd131f	0.10794663
79	0x3d9047ce	0.07044946
80	0xbd258c68	-0.040417105
81	0x3d9fca99	0.07802314
82	0xbc6e74c1	-0.0145542035
83	0xbd7f6748	-0.062354356
84	0xbeb25718	-0.34832072
85	0xbd1fc964	-0.03901042
86	0xbba34a8c	-0.004983252
87	0xbe70ce7b	-0.23516266
88	0x3d20aaef	0.039225515
89	0xbda43cec	-0.080194324
90	0x3d59ec5c	0.053203925
91	0xbe424e90	-0.18975282
92	0x3e8d90e4	0.27649605
93	0x3e226597	0.15859066
94	0xbc29a7e6	-0.0103549715
95	0xbda09d3e	-0.078424916
96	0x3e8fe3f3	0.281036
97	0x3e2bae24	0.16765648
98	0x3da46cba	0.080285504
99	0xbe18694a	-0.14883915
100	0xbdd8c79d	-0.10584948
101	0xbe0455de	-0.1292338
102	0xbcc1c830	-0.023655027
103	0xbe67982a	-0.2261664
104	0x3e1905a0	0.14943552
105	0x3e3357ee	0.17514011
106	0xbe1522cc	-0.14564055
107	0xbe22c857	-0.15896736
108	0xbccc9b32	-0.024976347
109	0xbc8d3b30	-0.017240137
110	0x3da3ee28	0.08004409
111	0xbdf50bf4	-0.119651705
112	0x3e921565	0.28531948
113	0x3e3b6c39	0.18303002
114	0x3dda5ecb	0.106626116
115	0xbc8489bc	-0.016178958
116	0x3e844d9e	0.25840467
117	0x3f0d0509	0.5508581
118	0x3e8777f1	0.26458696
119	0xbed06d67	-0.40708467
120	0x3b67fdce	0.0035399082
121	0x3d6b57d6	0.057456814
122	0xbd980e4d	-0.07424603
123	0xbd141fa8	-0.036163002
124	0x3d7793b0	0.06044358
125	0xbdb4b25d	-0.088230826
126	0x3d12060f	0.03565031
127	0xbdd08cda	-0.10183115
128	0x3e2d7ed9	0.1694292
129	0x3e5d7c0a	0.21629348
130	0x3e9a12f3	0.30092582
131	0xbd5be24a	-0.053682603
132	0x3d9d48ff	0.076799385
133	0x3e3dff3c	0.18554395
134	0xbcec560f	-0.02884963
135	0xbd16ffdc	-0.0368651
136	0x3e8c6b8c	0.27425802
137	0xbe99b618	-0.3002174
138	0x3da73b43	0.081656
139	0xbd1e4611	-0.03864104
140	0x3df954ef	0.12174403
141	0x3de97d39	0.114008375
142	0x3e423cbd	0.18968482
143	0x3d8b0721	0.06788469
144	0xbc069753	-0.008214789
145	0xbd365138	-0.04451105
146	0xba8bc379	-0.0010663114
147	0x3cc15738	0.02360116
148	0xbdd1a61e	-0.102367625
149	0x3e5e4c27	0.21708737
150	0xbe7a1773	-0.24423008
151	0x3d470e49	0.048597608
152	0xbda810d2	-0.08206333
153	0x3e2f6ac6	0.17130575
154	0xbe67cd7d	-0.22636981
155	0xbebe2ae1	-0.3714209
156	0x3de21b23	0.11040332
157	0x3c0d3f40	0.008621037
158	0x3e998821	0.2998667
159	0xbe39f205	-0.1815873
160	0xbe782319	-0.24232139
161	0xbe97fd1c	-0.29685295
162	0x3e193eb6	0.14965329
163	0x3b0a0812	0.002106194
164	0x3d636746	0.05551841
165	0x3e375458	0.17903268
166	0xb806c175	-3.212826e-05
167	0xbd596770	-0.05307716
168	0x3e589751	0.21151473
169	0x3dc09285	0.094029464
170	0xbd922b63	-0.071371816
171	0xbcdb7c0b	-0.026792547
172	0xbe99c82e	-0.30035537
173	0xbdeb2508	-0.114816725
174	0xbd1ca5c6	-0.03824403
175	0x3d4e3c2e	0.05035036
176	0xbe699e49	-0.22814287
177	0x3aca47fe	0.0015432832
178	0xbd2f2257	-0.04275736
179	0xbe3f67ad	-0.18691893
180	0xbe0fe757	-0.14053093
181	0xbe9cdf0a	-0.30638915
182	0x3eb7f388	0.35927987
183	0x3df6c9af	0.12050187
184	0x3d8757b3	0.06608524
185	0xbea526ad	-0.3225607
186	0x3e2d6fb0	0.16937137
187	0xbd43cc83	-0.04780246
188	0x3e4519c1	0.19248106
189	0x3d18cefc	0.03730677
190	0xbf086e1e	-0.53293025
191	0x3b94e6b5	0.004544104
192	0x3e805f3f	0.25072667
193	0x3e0881df	0.13330792
194	0xbe41dc5c	-0.18931717
195	0x3e071464	0.13191372
196	0x3e3c59af	0.18393587
197	0xbe0f18d8	-0.13974321
198	0x3e63c1c4	0.22241884
199	0x3db7a4d0	0.08966982
200	0xbeaf1ee0	-0.34203243
201	0xbe425f76	-0.18981728
202	0xbe262626	-0.1622549
203	0xbd7db0e6	-0.06193628
204	0xbe01f76e	-0.12692043
205	0x3de69ba3	0.11260154
206	0x3e8acba6	0.27108496
207	0xbd81fdd2	-0.063472405
208	0x3dd403ba	0.10352273
209	0xbd5b78e7	-0.0535821
210	0xbe14a6f0	-0.14516807
211	0xbdcca98e	-0.099932775
212	0x3ddafd35	0.10692827
213	0x3e040924	0.12894112
214	0x3c8f85a1	0.017519774
215	0x3d0dbbf2	0.034603067
216	0x3caa88ed	0.020817244
217	0x3e1d7383	0.15376095
218	0x3d4c181b	0.049827676
219	0x3e300963	0.17191081
220	0xbe3b2afe	-0.18278119
221	0xbe1bc9fc	-0.1521377
222	0x3e83624b	0.2566093
223	0x3d9bf1de	0.07614492
224	0xbf05680b	-0.5211188
225	0x3e8822bb	0.26588997
226	0x3e73f5a4	0.23824173
227	0x3e4653f9	0.1936797
228	0xbe1893fb	-0.149002
229	0x3e7339e6	0.23752555
230	0x3e3de285	0.18543442
231	0x3e0c9181	0.1372738
232	0x3d23af3f	0.03996205
233	0xbe3e9ae1	-0.18613769
234	0xbe5b59ac	-0.21420926
235	0xbd31255b	-0.043248516
236	0x3e43316b	0.1906182
237	0x3e82c178	0.2553823
238	0x3ca67fe5	0.020324657
239	0xbe8b02d4	-0.27150595
240	0x3e70ace8	0.23503458
241	0x3d109972	0.035302587
242	0x3d160e88	0.03663495
243	0xbd5b489c	-0.053536043
244	0x3e195f55	0.14977773
245	0x3db6e5cc	0.08930549
246	0xbd8e3b50	-0.06944907
247	0x3ebda047	0.37036344
248	0x3ea8e217	0.32984993
249	0x3e70d01c	0.23516887
250	0x3da08c06	0.07839207
251	0xbe17f6d6	-0.14840254
252	0x3dd8e5b4	0.105906874
253	0xbe1da5ea	-0.15395322
254	0x3df6bb7b	0.12047478
255	0xbd26f267	-0.040758517
