models/4/GAT.pt (torch, 119651 bytes, 19 tensors)

gats.gnn_layers.0.gat_conv.attn_l f4 [1, 4, 14]
0	0xbe8425be	-0.25810045
1	0x3dff8da8	0.12478191
2	0xbd01e633	-0.031713676
3	0xbda4be04	-0.08044055
4	0xbcd4c8e8	-0.025974706
5	0x3e4c9952	0.19980362
6	0xbe879f13	-0.26488551
7	0x3e158cf0	0.14604545
8	0xbe464a64	-0.19364315
9	0xbe9bbfcf	-0.30419776
10	0x3e760b4d	0.24027748
11	0xbefa3685	-0.4886972
12	0x3e550cec	0.2080571
13	0x3e2de483	0.16981702
14	0xbd364788	-0.04450181
15	0x3e320b25	0.17387064
16	0xbea44515	-0.32083955
17	0xbf06be31	-0.5263396
18	0xbebfc5f2	-0.37455708
19	0xbc20f1db	-0.009823288
20	0x3ccd9c05	0.02509881
21	0xbf1a1f79	-0.60204273
22	0x3e845b65	0.25850978
23	0xbebe1ee3	-0.3713294
24	0x3db9aec3	0.09066536
25	0x3c5574c9	0.013028332
26	0xbf3eeab3	-0.7457687
27	0x3eeba881	0.46026996
28	0x3decbca9	0.115594216
29	0x3d111805	0.035423297
30	0x3ec16779	0.37774256
31	0xbf15d1bf	-0.5852317
32	0x3e37141f	0.1787877
33	0xbd02ca36	-0.031931125
34	0x3d96d897	0.0736553
35	0x3e76c657	0.24099098
36	0x3e67dc39	0.22642602
37	0xbdbb77e1	-0.091537245
38	0x3e214639	0.15749444
39	0xbeb38504	-0.3506242
40	0xbc88e5a0	-0.016711056
41	0xbe26e3ae	-0.1629779
42	0xbe98c9b9	-0.29841402
43	0x3d52fa6f	0.051508363
44	0xbc2dc2ef	-0.010605558
45	0xbba263ba	-0.004955736
46	0xbe9ba800	-0.3040161
47	0xbe15b0d9	-0.14618243
48	0xbdff11ba	-0.12454553
49	0xbe2f7df6	-0.17137894
50	0x3f05b197	0.52224106
51	0xbe8388cf	-0.25690314
52	0x3e9120d0	0.28345346
53	0xbd4611be	-0.048356764
54	0xbf36a5fb	-0.71347016
55	0xbe2c3c22	-0.16819814

gats.gnn_layers.0.gat_conv.attn_r f4 [1, 4, 14]
0	0xbdaca669	-0.08430178
1	0x3cba2200	0.02272129
2	0xbd90856b	-0.070566975
3	0xbe964e74	-0.2935673
4	0xbe063d6c	-0.13109368
5	0xbf5b5dcc	-0.8569
6	0x3f1f653b	0.6226384
7	0x3ec897f3	0.39178428
8	0xbdd189a8	-0.10231334
9	0xbc211a70	-0.009832963
10	0x3e65e80a	0.22451797
11	0xbc9f2734	-0.019427873
12	0x3ba69ce6	0.0050846217
13	0xbd525c4c	-0.051357552
14	0x3db076cd	0.086164095
15	0x3e917ce0	0.28415585
16	0xbe85cce2	-0.26132876
17	0x3e2a2c5b	0.16618483
18	0x3e2ae351	0.16688277
19	0xbe1676b3	-0.14693718
20	0xbe00a6f7	-0.12563692
21	0x3dcb96b0	0.09940851
22	0xbef5439a	-0.47903138
23	0x3d607660	0.05480039
24	0xbec299fc	-0.38008106
25	0xbb22fae1	-0.0024868774
26	0x3eaf0da1	0.34190086
27	0x3e791cb4	0.24327356
28	0xbf029321	-0.5100575
29	0x3dbfa6a2	0.093579546
30	0xbe29c3e6	-0.16578636
31	0xbe0c4ec0	-0.13701916
32	0x3ce85d6b	0.028364858
33	0x3de41b26	0.11137991
34	0x3ec211a9	0.379041
35	0xbe961289	-0.29311016
36	0x3d94acb9	0.07259507
37	0x3f428c5f	0.7599544
38	0xbe8ac877	-0.27106068
39	0xbc803103	-0.01564837
40	0x3ed1e6ad	0.40996304
41	0x3e39f5ed	0.1816022
42	0xbe74ccda	-0.2390627
43	0x3e0f7e31	0.14012982
44	0xbf01e30c	-0.5073707
45	0x3e8ece2c	0.27891672
46	0x3dd76ba3	0.10518577
47	0x3a91cdca	0.0011123952
48	0x3e39dcaf	0.1815059
49	0xbde10bc1	-0.1098857
50	0xbe9540c3	-0.29150972
51	0xbd81417c	-0.06311318
52	0xbe789506	-0.24275598
53	0xbe2baaad	-0.16764326
54	0xbee9d6ff	-0.45671842
55	0xbe3914de	-0.18074366

gats.gnn_layers.0.gat_conv.fc.weight f4 [56, 74]
0	0x385b7ac4	5.2328003e-05
1	0x3e3cfa70	0.1845491
2	0xbdf10c3f	-0.11769914
3	0x3d14ddb0	0.03634423
4	0xbda523cf	-0.080634706
5	0x3d07bc86	0.033138774
6	0x3e2221e7	0.15833245
7	0x3def1292	0.11673464
8	0xbe9b36c7	-0.3031523
9	0xa7d83a48	-6.001523e-15
10	0x9eff4879	-2.7029149e-20
11	0x9d195094	-2.029104e-21
12	0x1f913b3a	6.150787e-20
13	0xa4389e08	-4.0032498e-17
14	0xa604170a	-4.5827924e-16
15	0xbe17a90d	-0.14810582
16	0x9f3fdf32	-4.0630446e-20
17	0x22ce3e36	5.590228e-18
18	0x9f1c6fe6	-3.3126845e-20
19	0x9e8c4808	-1.4852868e-20
20	0x1c5df619	7.344084e-22
21	0x9dee80bb	-6.313118e-21
22	0x39ae62fd	0.00033261618
23	0x2a358b49	1.6124354e-13
24	0x9ee04936	-2.3747202e-20
25	0x9eb9950d	-1.9649283e-20
26	0x2a96b253	2.676909e-13
27	0xbe171e75	-0.14757712
28	0x1f488b2c	4.2466768e-20
29	0x1beab936	3.8831742e-22
30	0xa599a7ce	-2.6654978e-16
31	0x2472026e	5.2477443e-17
32	0x2427b8f4	3.6369014e-17
33	0xaa6ff1f4	-2.1311409e-13
34	0x1f03577c	2.7812694e-20
35	0x2072a24e	2.05519e-19
36	0xaace3385	-3.66287e-13
37	0x18941b94	3.828495e-24
38	0x1bd1dffe	3.47209e-22
39	0x1e35ac7d	9.61773e-21
40	0x299a4770	6.851366e-14
41	0x25db1d23	3.8010188e-16
42	0xa03f97e7	-1.622859e-19
43	0x1f9b0c6c	6.5665604e-20
44	0x3e5722ae	0.21009323
45	0xbe7dd09c	-0.2478661
46	0xbd3e5432	-0.046467014
47	0x3e26f6f6	0.16305146
48	0xa520d9a5	-1.3951529e-16
49	0x9ecf4eaa	-2.1949512e-20
50	0x1ce61fba	1.5228324e-21
51	0x9cd64899	-1.4180098e-21
52	0xa5671f65	-2.0046693e-16
53	0xab06ac69	-4.784563e-13
54	0x3b88ea3a	0.0041783126
55	0x3c8b5262	0.017007057
56	0x3e21b8a8	0.15793097
57	0x3dc4f9ff	0.096179955
58	0x290d3920	3.1357837e-14
59	0x1e5396a4	1.1201399e-20
60	0x1d25e5e6	2.1956423e-21
61	0xbea2db76	-0.3180806
62	0x191a3186	7.9716146e-24
63	0x3e567e27	0.20946561
64	0xbdc6e525	-0.097116746
65	0x3e1dbce2	0.15404084
66	0x160e71dd	1.1506598e-25
67	0x9e2c2ecf	-9.115284e-21
68	0x3e16db4c	0.14732093
69	0x3e88d65a	0.26726037
70	0xbe90026d	-0.2812685
71	0x3ddbddef	0.1073569
72	0xbe5ff7fe	-0.21871945
73	0x1d724947	3.2066317e-21
74	0xbdee3498	-0.11631125
75	0x3eb3039e	0.34963697
76	0xbec5867f	-0.38579175
77	0x3dffb94c	0.124865144
78	0xbde21236	-0.1103863
79	0xbeee2a81	-0.46516803
80	0xbc430e55	-0.0119052725
81	0x3d03ea37	0.032205787
82	0x3e0f91e5	0.14020498
83	0x9f456e14	-4.1807427e-20
84	0x9ee7a9f7	-2.4528372e-20
85	0xa5a3f09b	-2.8439033e-16
86	0x1e5fd4e0	1.1849543e-20
87	0x1f2b0694	3.62161e-20
88	0x9e900136	-1.5247094e-20
89	0xbe2fa598	-0.17153013
90	0x9e52a803	-1.11520514e-20
91	0x1d9429ea	3.921861e-21
92	0x2fefc5c7	4.3614376e-10
93	0xa78b2599	-3.8621014e-15
94	0xa7cbc9cc	-5.6562607e-15
95	0x27243832	2.2790036e-15
96	0xbe44b78b	-0.19210641
97	0x9eb29db9	-1.8911716e-20
98	0x17021db4	4.2042756e-25
99	0x2c8e6b6d	4.0478094e-12
100	0x9e9e2d7d	-1.6747714e-20
101	0xbf03be1b	-0.5146195
102	0x216141ee	7.632022e-19
103	0x9744364a	-6.339954e-25
104	0x1aa80836	6.949644e-23
105	0x1da684c6	4.407712e-21
106	0x1c3cd94c	6.248483e-22
107	0x1db8fa3d	4.8963135e-21
108	0xa5b642f4	-3.1617336e-16
109	0xaa16be50	-1.3388704e-13
110	0x9fdcc3aa	-9.3497323e-20
111	0x9d48adab	-2.6559564e-21
112	0xa0802633	-2.1709322e-19
113	0x208206ef	2.2027445e-19
114	0x21cb0fe2	1.3760019e-18
115	0x1f212f44	3.4132173e-20
116	0x27cec180	5.738628e-15
117	0x191a0d19	7.9642584e-24
118	0xbe59dfd6	-0.21276793
119	0x3ec39ddc	0.38206375
120	0xbbf6a595	-0.007527063
121	0x3d0b1c48	0.033962518
122	0x1ed08160	2.2076365e-20
123	0x9ee75eda	-2.4497306e-20
124	0x16bbdd3f	3.0351105e-25
125	0x1f277e64	3.5468173e-20
126	0x265b123a	7.600559e-16
127	0x1a0d0215	2.91598e-23
128	0xbc8fe202	-0.017563824
129	0xbc31427c	-0.010819074
130	0x3cfbad02	0.030722145
131	0xbe420e44	-0.18950754
132	0xaa4dcc06	-1.8278442e-13
133	0x2072aff3	2.0556414e-19
134	0xa5846151	-2.2964294e-16
135	0x3df1c739	0.11805577
136	0x242cec98	3.7496957e-17
137	0x3e869833	0.26287994
138	0x3e4bbbf2	0.19895914
139	0xbe16857e	-0.1469936
140	0x1f01c541	2.7479977e-20
141	0x2847879f	1.1076127e-14
142	0x3d21dbab	0.039516132
143	0x3dd13cf4	0.10216704
144	0x3e5e182b	0.21688907
145	0x3d3c07ad	0.045905758
146	0xbdb431bb	-0.08798548
147	0x9f626a44	-4.7945262e-20
148	0x3ce67b04	0.02813483
149	0xbe78a3c8	-0.24281228
150	0xbe379c39	-0.17930688
151	0xbdc4bf5b	-0.09606811
152	0x3d465024	0.04841627
153	0x3daa4baa	0.08315213
154	0x3cd12e6b	0.02553483
155	0x3eebeee8	0.46080709
156	0x3ecac839	0.39605883
157	0x2619ed15	5.3403844e-16
158	0x1d229122	2.1515553e-21
159	0x29882ffa	6.047936e-14
160	0x9f16d812	-3.1942465e-20
161	0xa2f70aab	-6.696078e-18
162	0x288244cb	1.4462734e-14
163	0x3e20bbe7	0.15696679
164	0x9f644649	-4.8339017e-20
165	0xa2207740	-2.1747174e-18
166	0x1900107b	6.620773e-24
167	0x2005133b	1.1271901e-19
168	0xa5423c9e	-1.6847356e-16
169	0x9bad0c42	-2.862837e-22
170	0x3db8c2f2	0.09021558
171	0xa30ac30d	-7.522299e-18
172	0x2067a356	1.9620504e-19
173	0x9c47f977	-6.6166e-22
174	0x9e910dc5	-1.5358167e-20
175	0x3d057968	0.032586485
176	0xa7b07c75	-4.898475e-15
177	0xa52fc6b0	-1.5246148e-16
178	0xa7182ad8	-2.1117463e-15
179	0x25aa1597	2.950493e-16
180	0x9d85c53b	-3.540874e-21
181	0xaa9ae250	-2.751293e-13
182	0x18c80e53	5.1713252e-24
183	0x9e3ca0bc	-9.985876e-21
184	0x1ee11e99	2.3835457e-20
185	0x1d02439d	1.7240312e-21
186	0x188ea690	3.6874325e-24
187	0x1f029e19	2.7659346e-20
188	0xa9829602	-5.799182e-14
189	0xab043198	-4.6964646e-13
190	0x1e0f23c5	7.577754e-21
191	0x2e952fff	6.7842613e-11
192	0xbe5b8ced	-0.21440478
193	0xbe0d8e7f	-0.13823889
194	0xbdfaaa0d	-0.12239466
195	0x3c34710e	0.011013282
196	0x21094800	4.6512697e-19
197	0x2156d208	7.2783994e-19
198	0x28d15cc8	2.3243899e-14
199	0x9e72d4f3	-1.285541e-20
200	0x2467bef5	5.0251887e-17
201	0x1cf3411e	1.6097224e-21
202	0xbdea1879	-0.11430449
203	0xbdf3c62d	-0.119030334
204	0xbf023c26	-0.5087303
205	0x3c1bdd8c	0.00951327
206	0x200480ca	1.1223448e-19
207	0x9f86b00a	-5.704244e-20
208	0x9da250b5	-4.2964492e-21
209	0xbeab0f31	-0.33410028
210	0x9d01981d	-1.7151649e-21
211	0x3d872615	0.065990604
212	0x3c96beec	0.018401586
213	0xbeb821de	-0.3596334
214	0x1de48453	6.0487918e-21
215	0x20be0a3f	3.2194032e-19
216	0x3e8cc596	0.27494496
217	0x3ecfa64b	0.4055656
218	0xbdbc4ceb	-0.091943584
219	0xbdf16518	-0.1178686
220	0xbe073591	-0.13204028
221	0x1e1acdd4	8.195256e-21
222	0x3e32dd73	0.17467289
223	0x3e4bdeb5	0.19909175
224	0xbeb91e0e	-0.36155742
225	0x3f15d7a2	0.58532155
226	0x3dee9d9a	0.11651154
227	0x3df0904e	0.11746274
228	0xbba38fe2	-0.0049915174
229	0x3ec06536	0.37577218
230	0x3f1a58ba	0.60291636
231	0xab8ff7fb	-1.022959e-12
232	0x9e94feeb	-1.5775541e-20
233	0x9c42693a	-6.432522e-22
234	0x21646cfe	7.7393655e-19
235	0xaa26d0e0	-1.481623e-13
236	0x20d85775	3.6649698e-19
237	0x3d9a5f36	0.07537691
238	0x28ab6e5a	1.9032671e-14
239	0x19adce17	1.797102e-23
240	0x9dce00a8	-5.4528425e-21
241	0x1b620656	1.8696329e-22
242	0x2ad442d1	3.7705128e-13
243	0x22ae81dc	4.730029e-18
244	0x3f117d39	0.568317
245	0x99140f0e	-7.654461e-24
246	0x28cd8ba9	2.282014e-14
247	0xa40768a6	-2.93621e-17
248	0x29a4e5b2	7.322909e-14
249	0xbed46f89	-0.41491345
250	0xa738336b	-2.5563003e-15
251	0x266e5967	8.2694e-16
252	0x2062e4a3	1.9218594e-19
253	0xa5c1cc58	-3.3618632e-16
254	0x261bd532	5.406536e-16
255	0x9934e4c5	-9.3519815e-24

gats.gnn_layers.0.gat_conv.res_fc.weight f4 [56, 74]
0	0xbe468eb9	-0.19390382
1	0x3e6cf4b6	0.23140225
2	0xbe07f566	-0.13277206
3	0x3e300736	0.17190251
4	0x3c5b1c06	0.0133733805
5	0x3e2c34c2	0.16817
6	0xbd4784db	-0.048710685
7	0x3deab21c	0.11459753
8	0xbe2c36b0	-0.16817737
9	0x203a470e	1.5778323e-19
10	0x214d7efe	6.9624774e-19
11	0x9d95f9d6	-3.9698296e-21
12	0x29ae8816	7.7507594e-14
13	0x2ae1d33e	4.0114608e-13
14	0x9eecb151	-2.5060808e-20
15	0xbef6f1dd	-0.48231402
16	0x2725bd57	2.3000991e-15
17	0x9e62938e	-1.1994854e-20
18	0xa3e6027b	-2.49377e-17
19	0x9dd5c79e	-5.658703e-21
20	0x98b0ae43	-4.5670893e-24
21	0x1e1c2edd	8.268262e-21
22	0x3cc9af35	0.024619678
23	0x1d77eee6	3.2813685e-21
24	0xa3bab13f	-2.0241227e-17
25	0xa149af52	-6.8333483e-19
26	0xa947e34b	-4.438402e-14
27	0x3ccc101b	0.024910023
28	0x9ca25aec	-1.0743763e-21
29	0x2c8e9495	4.0523787e-12
30	0x9e845e02	-1.4014924e-20
31	0x9cb8d71c	-1.2231703e-21
32	0x244be5fd	4.4213416e-17
33	0x2573d253	2.1148151e-16
34	0x9822a790	-2.1022607e-24
35	0x1f49ca03	4.2730506e-20
36	0x1c0fc3b0	4.756765e-22
37	0xaead008b	-7.8672256e-11
38	0x215cb778	7.478172e-19
39	0x9fa4cce2	-6.979565e-20
40	0xa6be2a47	-1.3195358e-15
41	0x987fcede	-3.3062419e-24
42	0x2b904db2	1.025338e-12
43	0xa711ab6c	-2.021572e-15
44	0xbb8f8ef7	-0.0043810564
45	0xbcb49ce5	-0.02204747
46	0xbe678f29	-0.22613205
47	0xbdd515a7	-0.104045205
48	0x1aae9aa9	7.221458e-23
49	0xa70a3ccc	-1.9184305e-15
50	0x1dcb8274	5.3868538e-21
51	0x1e717646	1.2782892e-20
52	0x1e03bb55	6.973822e-21
53	0x985c8d71	-2.8505743e-24
54	0xbec82506	-0.39090747
55	0x3c5e2429	0.013558426
56	0x3dd35dda	0.10320635
57	0x3ede5324	0.43422806
58	0x9d507b9b	-2.7592473e-21
59	0x28d239c7	2.333974e-14
60	0xa519c639	-1.3337795e-16
61	0xbdb13fff	-0.086547844
62	0x9891e2fd	-3.771082e-24
63	0xbdb6d366	-0.0892704
64	0x3e131d6f	0.14366697
65	0xbc07ac9d	-0.0082809
66	0x1eddebc5	2.3496797e-20
67	0xa75bce1e	-3.0504092e-15
68	0xbd1badf8	-0.038007706
69	0xbdcce8bb	-0.10005327
70	0x3cb8bf70	0.022552222
71	0x3e323dbe	0.17406365
72	0xbad2301a	-0.0016036064
73	0xa7d33a73	-5.8627635e-15
74	0x3eb15c27	0.3464062
75	0x3c52c1d9	0.0128636
76	0xb8b7085a	-8.7276756e-05
77	0x3d3962a4	0.045260087
78	0xbe52b4b5	-0.20576747
79	0xbdce5b20	-0.100759745
80	0x3e5c7069	0.21527256
81	0xbd60abd9	-0.054851387
82	0x3cb6b723	0.022304123
83	0x1885da58	3.4600165e-24
84	0x1ba18037	2.6718073e-22
85	0x1db0121f	4.660555e-21
86	0x1f04a00f	2.8084485e-20
87	0x949a0f61	-1.5556092e-26
88	0xa701e053	-1.8023953e-15
89	0xbdd90b55	-0.105978645
90	0x1d229639	2.1518185e-21
91	0x251c9eda	1.3584664e-16
92	0x9b44ee4d	-1.6289739e-22
93	0x271fc699	2.2173343e-15
94	0x9da69315	-4.4091913e-21
95	0xa91a4796	-3.425696e-14
96	0xbdebaf56	-0.11508052
97	0x1711874d	4.70228e-25
98	0xa0e83687	-3.9338412e-19
99	0x9e61e42f	-1.1958588e-20
100	0x23727658	1.31439066e-17
101	0xbd5a7d2d	-0.053342033
102	0x990ae028	-7.179701e-24
103	0x19aac806	1.7658377e-23
104	0xa6a7cd72	-1.1643639e-15
105	0xa62c663e	-5.981305e-16
106	0xb199805e	-4.4674797e-09
107	0x9d2fd4b6	-2.3271026e-21
108	0x1f7bd852	5.3330253e-20
109	0x9f2d93fd	-3.6756588e-20
110	0x18b11436	4.5773835e-24
111	0x1f911b93	6.1455506e-20
112	0xa8291f4c	-9.388171e-15
113	0xad5a19a1	-1.2397556e-11
114	0x1e2a8c2f	9.028714e-21
115	0x2fe86ac6	4.227642e-10
116	0xa21741c5	-2.0499134e-18
117	0x1a5038af	4.305918e-23
118	0xbea91b5e	-0.33028692
119	0xbea11bef	-0.31466624
120	0xbd36f29f	-0.044664975
121	0x3dc155b4	0.09440175
122	0x286c1931	1.3106094e-14
123	0x1a7df7a4	5.2519216e-23
124	0xa9b3b494	-7.980522e-14
125	0x24720ae8	5.2484623e-17
126	0x1fcb650f	8.614103e-20
127	0xaa9adae4	-2.750778e-13
128	0x3e88ec3d	0.26742736
129	0x3ebbbf3f	0.36669347
130	0x3d58ad1c	0.052899465
131	0x3ea8b495	0.32950273
132	0x96175098	-1.2223114e-25
133	0xa28f0249	-3.8762647e-18
134	0x9c0c3cde	-4.6400783e-22
135	0x3e76ae7f	0.24090002
136	0x1e02ead8	6.930707e-21
137	0xbe24481d	-0.16043134
138	0x3ea0185a	0.3126858
139	0x3e012799	0.12612762
140	0x18465d1b	2.5637906e-24
141	0x1f16c6f7	3.1928315e-20
142	0xbeb56568	-0.3542893
143	0xbdce73c4	-0.10080674
144	0xbe97edcd	-0.29673615
145	0x3d6adfe9	0.057342444
146	0x3db1ea18	0.08687228
147	0x9d09e805	-1.825175e-21
148	0xbe0fba41	-0.14035894
149	0xbe5ec37b	-0.21754257
150	0xbee0e529	-0.43924835
151	0xbe1e798d	-0.15476055
152	0x3e04bd4d	0.12962838
153	0x3e0d71aa	0.1381289
154	0x3d34461e	0.04401218
155	0x3e600244	0.21875864
156	0x3e95d672	0.2926517
157	0x2a911cf5	2.5777267e-13
158	0xa91768f5	-3.361977e-14
159	0x28816572	1.4365872e-14
160	0x1e413643	1.0228556e-20
161	0xa2f534bb	-6.6463214e-18
162	0xa39bc473	-1.6888333e-17
163	0x3e93f510	0.28897905
164	0x1de3fd6d	6.0348436e-21
165	0x9aa073fd	-6.636184e-23
166	0x1e93b0e5	1.5637392e-20
167	0x2a53fb27	1.88277e-13
168	0xa1660438	-7.7932615e-19
169	0x1d3f340e	2.5305551e-21
170	0x3da6e5c5	0.08149294
171	0x9d7deebc	-3.3607694e-21
172	0x992acbb1	-8.829929e-24
173	0xa7ce2439	-5.721576e-15
174	0x1e95541c	1.5810775e-20
175	0x3e0f2e76	0.13982567
176	0x1c0dd9c4	4.693444e-22
177	0x1f41c264	4.1030136e-20
178	0x290eabea	3.1679446e-14
179	0x1ccadbc9	1.3424052e-21
180	0x24304a59	3.822689e-17
181	0x9a02842f	-2.6990147e-23
182	0x9e01f805	-6.880492e-21
183	0x200d06c5	1.1945404e-19
184	0x20b8ea66	3.1325924e-19
185	0x1e42cb21	1.03122806e-20
186	0xa919ab19	-3.4121228e-14
187	0x183a7f3d	2.4104175e-24
188	0x181daf2e	2.0380218e-24
189	0x9e259514	-8.765856e-21
190	0xa083a153	-2.2299019e-19
191	0x21108d09	4.8975756e-19
192	0xbb2ab0f4	-0.0026045414
193	0x3e7cc281	0.24683572
194	0x3dea0bd5	0.11428038
195	0x3dd492c2	0.10379554
196	0xa7aea5ec	-4.8474594e-15
197	0x9e726954	-1.2833155e-20
198	0x169904a3	2.472141e-25
199	0x2a65b05b	2.0400471e-13
200	0x9b15d430	-1.2393553e-22
201	0xab46e3bc	-7.0659776e-13
202	0xbe143662	-0.1447387
203	0xbe29a473	-0.16566639
204	0x3e305a74	0.17222005
205	0xbd278524	-0.040898457
206	0x9e05c7e0	-7.0822946e-21
207	0x2634b55a	6.269582e-16
208	0x9f145d1c	-3.1417237e-20
209	0xbe4e6ea3	-0.20159392
210	0x9f880918	-5.7613285e-20
211	0xbe5861f5	-0.21131118
212	0xbe021d1c	-0.12706417
213	0x3d6aabb6	0.057292663
214	0x9db5e45c	-4.814642e-21
215	0x201c0f52	1.3218783e-19
216	0xbe02fe66	-0.12792358
217	0x3de713a6	0.112830445
218	0x3dc02953	0.09382882
219	0x3da22f11	0.079191335
220	0xbe394997	-0.18094479
221	0xa7e3b8ec	-6.320565e-15
222	0xbd89c390	-0.06726754
223	0x3e16d028	0.14727843
224	0xbe9145c6	-0.28373545
225	0x3db62344	0.08893445
226	0x3e790cc6	0.24321279
227	0x3d442f26	0.047896527
228	0x3db3b9cd	0.08775673
229	0x3eb10d60	0.34580517
230	0x3ed2ecde	0.4119634
231	0x9deb8df7	-6.235077e-21
232	0x9f435b8c	-4.1368582e-20
233	0xa68a5727	-9.599296e-16
234	0x9d669306	-3.0516256e-21
235	0xa964c349	-5.0795553e-14
236	0x28d2037e	2.3316198e-14
237	0x3eb18966	0.3467514
238	0x9bc50a38	-3.259752e-22
239	0x1ba9b7d8	2.807751e-22
240	0xa4c3bb64	-8.488522e-17
241	0x1d9efb08	4.208181e-21
242	0x28996aeb	1.703278e-14
243	0xa276ba63	-3.343789e-18
244	0x3ec68b99	0.3877838
245	0x9ea7f2b9	-1.77822e-20
246	0x1d94f36f	3.942698e-21
247	0xa4f490f4	-1.0606369e-16
248	0x24866c15	5.8296335e-17
249	0xbed27f00	-0.41112518
250	0x95f13b59	-9.743276e-26
251	0x24117d4f	3.1548004e-17
252	0x1d4c0a69	2.7004557e-21
253	0x9d473ee9	-2.6369954e-21
254	0x1f156c62	3.164163e-20
255	0xa83e6f33	-1.0571231e-14

gats.gnn_layers.1.gat_conv.attn_l f4 [1, 4, 14]
0	0x3e2a2317	0.16614948
1	0xbe18f62b	-0.14937656
2	0xbec5d89b	-0.3864182
3	0x3d922a45	0.071369685
4	0xbe972535	-0.29520574
5	0xbcc7d193	-0.024391925
6	0xbdb9fbfc	-0.09081265
7	0x3e27fceb	0.16405074
8	0x3eba1e9b	0.36351475
9	0xbd6b18dd	-0.05739676
10	0xbea941ac	-0.33057916
11	0xbe435f5d	-0.19079347
12	0x3e33c045	0.17553814
13	0x3ddac6d8	0.10682458
14	0xbd8c2ee2	-0.0684488
15	0xbdb8b8ae	-0.090196
16	0xbef0d500	-0.47037506
17	0x3bfa1974	0.007632429
18	0x3e80d24a	0.25160438
19	0x3d8afda8	0.06786662
20	0x3e2f97f0	0.17147803
21	0x3e9c492b	0.30524573
22	0xbdb4ac6f	-0.088219516
23	0xbe869d8d	-0.26292077
24	0xbb7ae4cb	-0.0038283344
25	0x3db833c3	0.08994248
26	0xbec2f2b2	-0.38075787
27	0x3d8c6a85	0.068562545
28	0x3dcfd5fa	0.10148235
29	0x3e8d69fa	0.27619916
30	0xbd726693	-0.059179854
31	0x3e9ed388	0.3102076
32	0x3f322d33	0.6960022
33	0x3cb512f5	0.022103766
34	0x3e8055b5	0.2506539
35	0x3ecd018b	0.4004024
36	0xbda184e6	-0.078866765
37	0xbd154cef	-0.036450323
38	0x3dd05a90	0.101735234
39	0xbf0ace2c	-0.54220843
40	0x3e04a713	0.12954359
41	0x3e91d2f9	0.28481272
42	0x3d6ea4e7	0.058262732
43	0xbe7415f7	-0.23836504
44	0xbe580466	-0.21095428
45	0x3e00aaaa	0.12565103
46	0x3d9c6b8a	0.07637699
47	0x3e93275d	0.2874097
48	0xbe9061a7	-0.28199503
49	0xbe624148	-0.22095215
50	0x3eeefbe1	0.46676543
51	0x3ef145fa	0.471237
52	0x3e87062d	0.263719
53	0x3e432c96	0.19059977
54	0x3e1d3506	0.15352258
55	0x3ddf3b8c	0.109000295

gats.gnn_layers.1.gat_conv.attn_r f4 [1, 4, 14]
0	0x3d55c590	0.052190363
1	0xbef5768d	-0.4794201
2	0x3e9bbdc1	0.30418208
3	0xbdd8435d	-0.105597235
4	0xbdb04abb	-0.08608004
5	0x3dd6ad36	0.10482256
6	0xbe3f63b3	-0.18690376
7	0xbd0574e6	-0.032582186
8	0x3e08d71a	0.13363305
9	0x3eae81d7	0.34083435
10	0xbd9dcf3c	-0.077055424
11	0xbe22f05c	-0.15912002
12	0xbe8ed57f	-0.2789726
13	0xbf0bfc08	-0.54681444
14	0x3df8aeae	0.121426925
15	0x3e777707	0.24166499
16	0xbc1abb3f	-0.009444057
17	0xbb379e00	-0.002801776
18	0xbe2ca0b7	-0.16858183
19	0xbd91734e	-0.07102071
20	0xbea54c83	-0.32284936
21	0xbe31c98e	-0.17362043
22	0x3de71c67	0.11284714
23	0xbe9a8ccf	-0.30185553
24	0x3eee1d1a	0.46506578
25	0xbe4345b4	-0.19069558
26	0x3e662aa6	0.22477207
27	0xbe454ce0	-0.19267607
28	0x3e83b256	0.25721997
29	0x3f032095	0.5122159
30	0x3e8f4287	0.27980444
31	0xbcd62873	-0.026142335
32	0xbf0b24ad	-0.5435284
33	0x3e88237e	0.26589578
34	0x3e7154cb	0.23567502
35	0x3eeac220	0.4585123
36	0xbe43158a	-0.19051185
37	0x3e370488	0.17872822
38	0x3d6a8763	0.05725802
39	0x3ed22126	0.41040915
40	0x3dae49a0	0.085101366
41	0xbdb33c47	-0.08751731
42	0xbe96abee	-0.29428047
43	0xbf45ff43	-0.77342623
44	0x3e2b1099	0.1670555
45	0x3e8b47df	0.2720327
46	0x3e252802	0.16128543
47	0xbe10a804	-0.14126593
48	0x3db2abd8	0.08724183
49	0x3e6ead12	0.23308209
50	0xbe3e8e9f	-0.18609093
51	0xbced0b4f	-0.028936056
52	0xbe8f095c	-0.27936828
53	0xbe3a872e	-0.1821563
54	0x3e791916	0.24325976
55	0xbe0998a6	-0.13437137

gats.gnn_layers.1.gat_conv.fc.weight f4 [56, 56]
0	0x3ebebb25	0.37252155
1	0xbe14912c	-0.14508504
2	0x3e0b4d67	0.13603745
3	0x3e069883	0.13144116
4	0xbaf2bb31	-0.0018518922
5	0xbe10ade4	-0.14128834
6	0xbe19596a	-0.14975515
7	0x3e7d0ed1	0.24712683
8	0xbe7d4bf2	-0.24736002
9	0x3c15b222	0.009136708
10	0x3e680abb	0.22660343
11	0xbe204629	-0.15651764
12	0x3e8f6bfb	0.2801207
13	0x3c345e6c	0.01100884
14	0x3ea29dcf	0.31761023
15	0x3e039990	0.12851548
16	0x3ca494d0	0.02009049
17	0x3d548534	0.051884845
18	0x3e7247bf	0.23660181
19	0x3e83d9f6	0.25752228
20	0xbf262898	-0.6490569
21	0x3b7de0a4	0.0038738633
22	0x3d4ef981	0.050530914
23	0x3e80ad54	0.2513224
24	0xbec50905	-0.38483444
25	0x3e8fbb02	0.28072363
26	0xbde61118	-0.11233729
27	0x3d3f73ac	0.046741173
28	0xbe948009	-0.29003933
29	0xbde2d973	-0.110766314
30	0xbe48277f	-0.19546317
31	0xbe4f1377	-0.20222269
32	0x3e6f8dc3	0.23393922
33	0x3e87597a	0.26435453
34	0xbe8627e9	-0.26202324
35	0x3ba61d16	0.0050693853
36	0x3deb101a	0.114776805
37	0xbf362a28	-0.71158075
38	0xbe3ccb2c	-0.18436879
39	0xbe4a8746	-0.19778165
40	0xbd016330	-0.031588733
41	0x3e5684c8	0.2094909
42	0xbe55a559	-0.20863856
43	0xbd19a42f	-0.037510093
44	0x3da348ca	0.07972868
45	0xbd67a5b3	-0.056554507
46	0xbe7c8f7f	-0.24664114
47	0xbd554520	-0.052067876
48	0x3d9768e5	0.07393054
49	0xbe452861	-0.19253685
50	0x3e01676c	0.12637109
51	0x3b14bae7	0.002269441
52	0x3d63ca07	0.05561259
53	0xbe1924d3	-0.14955454
54	0x3be213ac	0.0068993177
55	0xbc416a15	-0.011805077
56	0xbcfbf110	-0.030754596
57	0xbc2ca315	-0.010536929
58	0x3d62de31	0.05538768
59	0x3e823eba	0.25438482
60	0x3dd35864	0.103195935
61	0xbe2cffeb	-0.168945
62	0x3e90121d	0.2813882
63	0xbd49a65a	-0.04923091
64	0x3c082c4f	0.008311345
65	0xbdf285bc	-0.11841914
66	0x3e83adef	0.25718638
67	0x3d47002a	0.04858414
68	0x3d924b76	0.07143299
69	0x3dba37b7	0.09092658
70	0xbb1b825c	-0.0023728823
71	0x3e3374db	0.17525046
72	0x3def4249	0.11682565
73	0xbe08af2c	-0.13348073
74	0xbe7ceab8	-0.24698913
75	0xbee04fc1	-0.43810847
76	0x3eb4e6ae	0.35332245
77	0x3e53b8ac	0.20675915
78	0xbdb00ad5	-0.08595816
79	0x3e31cbee	0.17362949
80	0x3db9ab1c	0.0906584
81	0xbdbb10c2	-0.09134056
82	0x3cfe69a2	0.031056229
83	0x3c603d2c	0.0136864595
84	0xbdcc79a9	-0.09984142
85	0xbe1e28c1	-0.15445234
86	0x3cdf2ebe	0.027243968
87	0x3d868621	0.06568552
88	0xbe43ed9f	-0.19133614
89	0x3dbf9f84	0.09356597
90	0xbd990096	-0.07470815
91	0x3acc904b	0.0015606967
92	0xbd640800	-0.055671692
93	0x3e20b5ca	0.15694347
94	0x3e894d19	0.26816633
95	0x3d7afc50	0.06127578
96	0x3d056584	0.032567516
97	0x3e22bffa	0.15893546
98	0x3d52c65e	0.05145871
99	0x3e943761	0.289485
100	0xbcca5535	-0.024698833
101	0xbde7212b	-0.11285623
102	0x3e947aae	0.28999847
103	0xbd53f83f	-0.051750418
104	0xbe28b992	-0.1647704
105	0x3d93d0f2	0.072175875
106	0x3d759196	0.059953295
107	0xbe9584cb	-0.29202875
108	0x3d4cb407	0.049976375
109	0xbe683c41	-0.22679235
110	0x3e5a207f	0.21301459
111	0xbe671cef	-0.22569631
112	0x3da71ba2	0.081595674
113	0xbd892619	-0.0669672
114	0xbd7f1423	-0.062275063
115	0xbe37c3da	-0.17945805
116	0x3ed01ee4	0.40648568
117	0xbcbc36d7	-0.022975368
118	0x3e8fbcd2	0.28073746
119	0x3e76d007	0.24102794
120	0x3c4e4d55	0.01259168
121	0xbd0e6912	-0.03476817
122	0xbe1f8823	-0.15579276
123	0x3c360865	0.0111104
124	0x3e7b56b9	0.24544801
125	0x3daf393a	0.08555837
126	0xbe59cb6c	-0.21269006
127	0xbe68a215	-0.2271808
128	0xbec4284b	-0.3831199
129	0xbe37ddaa	-0.17955652
130	0xbe822f57	-0.25426742
131	0x3c2fbbcd	0.010725928
132	0x3d27ff3e	0.041014902
133	0x3c1406fa	0.0090348665
134	0xbe199876	-0.14999565
135	0xbe98cc45	-0.29843345
136	0x3e3ddb0f	0.18540595
137	0x3e740d70	0.23833251
138	0xbeae4ba5	-0.34042087
139	0xbdbf76f0	-0.093488574
140	0x3e29a993	0.16568594
141	0x3e851b33	0.25997314
142	0xbd083e17	-0.03326234
143	0x3c384fad	0.011249465
144	0x3df7904c	0.12088069
145	0xbe090283	-0.13379864
146	0x3def371a	0.11680432
147	0x3e34118d	0.1758482
148	0x3d1280ec	0.03576748
149	0x3ea557ed	0.32293645
150	0x3e96df93	0.2946745
151	0xbdd93dee	-0.10607515
152	0x3e1f9ef6	0.15587983
153	0x3e9fb205	0.31190506
154	0xbe55110a	-0.20807281
155	0xbceeb760	-0.029140174
156	0xbcf217be	-0.029552337
157	0x3d9cf1ca	0.07663305
158	0x3dad7564	0.08469656
159	0xbd669fed	-0.05630486
160	0xbda6d995	-0.08146969
161	0xbe7466e0	-0.23867369
162	0x3f064567	0.5244965
163	0xbdefecbc	-0.117150754
164	0xbe4f1815	-0.2022403
165	0x3e5215a4	0.20516068
166	0xbdc385ae	-0.09546982
167	0x3e600c7a	0.2187976
168	0x3db511db	0.08841296
169	0xbd8c7ce3	-0.06859758
170	0x3da4d5cb	0.0804859
171	0xbe224dc1	-0.15849973
172	0x3d33a702	0.043860443
173	0xbea771cf	-0.32704017
174	0xbd9183b2	-0.07105197
175	0x3e5470e7	0.20746194
176	0x3e4bff1a	0.19921532
177	0x3df57bba	0.119864896
178	0xbe21ed0f	-0.15813087
179	0x3e3d10f7	0.18463503
180	0xbd1c96b3	-0.038229655
181	0xbeced061	-0.40393355
182	0x3e1f20c5	0.15539844
183	0xbd429941	-0.047509436
184	0xbba1e9ac	-0.004941186
185	0xbd26ae44	-0.040693536
186	0x3d4bf777	0.049796548
187	0xbe3e42a0	-0.18580103
188	0xbd8b53bf	-0.06803083
189	0x3d073e52	0.033018418
190	0xbe0df46f	-0.13862775
191	0xbe835fca	-0.2565902
192	0x3ef388a3	0.47565183
193	0x3cb970e7	0.022636844
194	0x3d9ddad0	0.07707751
195	0xbda68f5b	-0.08132812
196	0x3e7fd802	0.24984744
197	0xbe86c6c0	-0.2632351
198	0x3ef3b18b	0.47596392
199	0xbdcfdbfa	-0.10149379
200	0x3e7bd88e	0.24594328
201	0xbd8f554b	-0.0699869
202	0xbc359c95	-0.011084695
203	0x3ee3c466	0.44485778
204	0xbe61b70c	-0.22042483
205	0xbe7bd99d	-0.24594732
206	0x3eb2f140	0.34949684
207	0x3eb440af	0.352056
208	0xbef73557	-0.48282883
209	0xbd362a70	-0.044474065
210	0x3eaa120f	0.33216903
211	0x3e6c08a3	0.2305017
212	0x3e6be841	0.23037817
213	0x3e2d1141	0.16901113
214	0xbf08300a	-0.531983
215	0x3e3e33c2	0.18574432
216	0xbe9a50ab	-0.3013967
217	0xbe1b652b	-0.15175311
218	0x3e6453ac	0.22297543
219	0x3e058f09	0.13042845
220	0x3dba947e	0.09110354
221	0xbe055896	-0.13022074
222	0xbce6067b	-0.028079262
223	0xbe9e8276	-0.3095891
224	0xbe7a7be0	-0.24461317
225	0x3d4f7a49	0.05065373
226	0xbe304108	-0.17212307
227	0x3f0b528b	0.54422826
228	0xbdd086b6	-0.10181944
229	0x3e11bbc8	0.14231789
230	0x3e2c010b	0.16797273
231	0x3dbca494	0.09211078
232	0xbe15222e	-0.1456382
233	0xbe046ae5	-0.12931402
234	0xbe8a0bd1	-0.2696214
235	0x3e3c3e19	0.18383063
236	0x3e099876	0.13437065
237	0xbdb58a1e	-0.088642344
238	0x3cb26626	0.021777224
239	0x3e8fe3f7	0.2810361
240	0x3d43fc88	0.047848254
241	0x3d84855b	0.06470748
242	0x3ee5eb5d	0.4490613
243	0x3acea99e	0.0015767103
244	0x3e4b4a0d	0.19852467
245	0xbddb1f89	-0.10699374
246	0x3e9b4e6d	0.30333272
247	0xbdfe174e	-0.12406789
248	0x3bbbbf3f	0.0057295854
249	0xbb9930eb	-0.004675021
250	0xbdc92508	-0.09821516
251	0xbe17ecf3	-0.14836483
252	0xbe398f68	-0.18121111
253	0xbe3bd93e	-0.1834459
254	0x3ec7c232	0.39015347
255	0xbe6999c2	-0.2281256

gats.gnn_layers.1.gat_conv.res_fc.weight f4 [56, 56]
0	0x3d9256ba	0.07145448
1	0x3901f75e	0.0001239455
2	0x3e1e080c	0.15432757
3	0xbda19102	-0.07888986
4	0xbd056fb1	-0.03257722
5	0xbe8c7a11	-0.2743688
6	0x3e6d7dea	0.23192564
7	0xbe9adf6f	-0.3024859
8	0x3de7eedc	0.11324856
9	0x3d88bb05	0.06676296
10	0xbd62194d	-0.05519991
11	0xbdf7e7ad	-0.121047355
12	0x3eb66b08	0.35628533
13	0xbcbe644c	-0.023241185
14	0x3e0db0c9	0.1383697
15	0xbe543e7e	-0.20726964
16	0x3e91535e	0.28383917
17	0x3dd5a499	0.10431785
18	0x3d98ec1a	0.07466908
19	0xbe58361a	-0.21114388
20	0x3ccb681f	0.024829922
21	0xbeb8ce0e	-0.36094707
22	0x3e0ee18c	0.13953227
23	0xbea79325	-0.3272945
24	0x3d07cdad	0.033155132
25	0xbd95ac53	-0.07308259
26	0xbc954b0f	-0.018224267
27	0xbe2c2a76	-0.16813073
28	0x3e505301	0.20344163
29	0x3d71dd5a	0.059048988
30	0xbd0a129e	-0.03370916
31	0xbdb22904	-0.08699229
32	0x3eb312be	0.34975237
33	0x3ea08ec0	0.3135891
34	0xbd706cd3	-0.058697533
35	0xbe50645a	-0.20350781
36	0x3e0414cd	0.1289856
37	0x3ccbb0f3	0.02486465
38	0x3d89a3ab	0.0672067
39	0x3cbea2fe	0.02327108
40	0x3cea410b	0.028595468
41	0xbc2c4e7e	-0.010516761
42	0xbe32cb6a	-0.17460409
43	0xbe041f7b	-0.12902634
44	0x3e2f742e	0.17134163
45	0x3cd69700	0.02619505
46	0xbdb02d3e	-0.08602379
47	0x3eab421d	0.33448878
48	0xbef3b5b5	-0.4759957
49	0xbe691935	-0.22763522
50	0x3e8c5764	0.27410424
51	0xbdd20ee5	-0.10256747
52	0x3c9d88eb	0.019230327
53	0xbd5becc9	-0.053692613
54	0x3dc4ce93	0.096097134
55	0xbeee4c7a	-0.46542722
56	0xbe4ad7eb	-0.19808929
57	0x3dd3f660	0.10349727
58	0x3e73f5d5	0.23824246
59	0x3e7f9729	0.24960007
60	0x3dd9aafa	0.10628314
61	0xbd84013f	-0.0644555
62	0x3dbefc7d	0.09325502
63	0xbe4dfb85	-0.20115478
64	0xbdc57b1c	-0.09642622
65	0x3e56fb79	0.20994367
66	0x3e3cde3e	0.18444154
67	0xbd2ea832	-0.042640872
68	0x3d1c6a05	0.038187046
69	0x3e0e16a0	0.13875818
70	0x3e69b2e0	0.22822142
71	0xbd5f8a22	-0.054575093
72	0x3d422a99	0.047403906
73	0xbca70c62	-0.020391647
74	0x3cdc7af5	0.0269141
75	0xbe6c4840	-0.23074436
76	0x3e4a6be9	0.19767727
77	0x3f181883	0.594124
78	0xbd138de7	-0.036024
79	0xbe6d86fe	-0.23196027
80	0x3e4caa56	0.19986853
81	0x3de7814c	0.11303958
82	0xbe29fe18	-0.16600835
83	0x3e1c88fc	0.1528663
84	0xbdbe18a6	-0.09282045
85	0x3e0bbc27	0.13645993
86	0x3bcdcd48	0.006280575
87	0xbd0daded	-0.034589697
88	0x3eccb9d3	0.39985523
89	0x3e65993d	0.22421737
90	0xbca7cc11	-0.020483049
91	0x3e489460	0.1958785
92	0xbd6ff8e1	-0.05858696
93	0xbda2e123	-0.07953098
94	0xbd9f2938	-0.07771534
95	0x3cb68ca8	0.022283867
96	0xbdcb1929	-0.09916908
97	0xbde49127	-0.11160498
98	0x3ceccf02	0.028907303
99	0xbddc790c	-0.10765275
100	0xbdf65e06	-0.12029652
101	0x3e235baf	0.15952943
102	0xbcc01be2	-0.023450796
103	0x3d321b7e	0.04348325
104	0xbde7f3b8	-0.113257825
105	0x3b58ff12	0.0033111018
106	0xbe890c99	-0.26767424
107	0x3e2a5f0b	0.16637819
108	0xbe910b32	-0.28328854
109	0xbcdf1cd0	-0.027235419
110	0xbe2d41be	-0.1691961
111	0xbec1efb9	-0.37878206
112	0x3e6688cf	0.22513126
113	0x3c14bbbd	0.009077963
114	0x3baedc35	0.0053363093
115	0xbd84a6ef	-0.064771526
116	0x3d98c73b	0.07459875
117	0x3ed2ab07	0.41146109
118	0xbdafb15b	-0.0857875
119	0x3c53bdb0	0.012923643
120	0xbd79b4b0	-0.060963333
121	0xbcf456af	-0.02982649
122	0x3b7d03ae	0.003860693
123	0x3dfe19d1	0.12407268
124	0x3e573408	0.21015942
125	0xbc6292e2	-0.013828965
126	0x3cda4450	0.026643902
127	0xbe6adf1a	-0.22936669
128	0x3e05c68a	0.13064018
129	0xbe000dbd	-0.1250524
130	0xbddda1bd	-0.10821865
131	0x3c3d20a0	0.011543423
132	0xbe22211c	-0.15832943
133	0xbe3b683a	-0.18301478
134	0xbe32e83d	-0.17471404
135	0xbea5bf8b	-0.32372698
136	0xbe4cac8e	-0.199877
137	0x3d7660cf	0.060150918
138	0xbe8d967d	-0.27653876
139	0xbd5084b3	-0.0509078
140	0x3df204bc	0.11817309
141	0xbe4cb897	-0.1999229
142	0x3e1af500	0.15132523
143	0x3d915d31	0.07097853
144	0x3e95b26c	0.29237688
145	0x3da186b3	0.0788702
146	0x3d4523ab	0.04812972
147	0x3e82c6b6	0.2554223
148	0x3d884fa4	0.06655815
149	0xbe09b3e5	-0.1344753
150	0xbec3bde6	-0.3823082
151	0x3d18858c	0.037236735
152	0x3d786e6a	0.060652174
153	0x3e11a3a3	0.14222579
154	0x3da44046	0.08020072
155	0xbd084539	-0.03326914
156	0xbce2e621	-0.027697625
157	0x3cc66a52	0.02422062
158	0xbd511647	-0.051046636
159	0x3dacdad6	0.08440177
160	0x3de86e71	0.1134919
161	0xbe4e2890	-0.20132661
162	0xbe83660a	-0.25663787
163	0xbb948a78	-0.0045331083
164	0xbdc4a7c7	-0.096023135
165	0x3ed288ee	0.41120094
166	0xbda399a8	-0.07988292
167	0x3ea4c66b	0.3218263
168	0xbe8d4caf	-0.27597567
169	0xbc877956	-0.01653735
170	0x3edd560a	0.43229705
171	0xbcbcd092	-0.023048673
172	0xbdb844d2	-0.089975014
173	0xbc86713d	-0.016411418
174	0xbdf3080e	-0.11866771
175	0x3e042e88	0.12908375
176	0x3c8b93b1	0.017038198
177	0xbedb33cb	-0.42812952
178	0x3c9952f7	0.018716319
179	0x3e813069	0.25232247
180	0x3a207558	0.0006121001
181	0xbe65f778	-0.22457683
182	0xbe1af021	-0.15130664
183	0x3da1757b	0.07883736
184	0x3da73f75	0.081664
185	0xbd5d727a	-0.05406425
186	0xbe93014f	-0.28711936
187	0x3eb7702c	0.35827768
188	0xbe3dd37b	-0.18537705
189	0x3db5e1ae	0.088809356
190	0xbd502757	-0.050818767
191	0xbd52d241	-0.051470045
192	0x3e45f030	0.19329906
193	0x3e2b4ab0	0.1672771
194	0x3b3148d2	0.002705146
195	0xbe195d32	-0.14976957
196	0xbdffa0d3	-0.12481847
197	0x3e62b006	0.2213746
198	0x3bdf6095	0.0068169334
199	0x3df489ea	0.119403675
200	0x3dc93e75	0.09826366
201	0xbe2f652e	-0.1712844
202	0xbdbaefed	-0.091277935
203	0x3e12637c	0.14295763
204	0xbe2985dc	-0.1655497
205	0xbda1f799	-0.07908554
206	0xbed45fa2	-0.41479212
207	0x3dce4d21	0.10073305
208	0xbea26f9a	-0.3172577
209	0xbe8852ee	-0.2662577
210	0x3cd42194	0.025894918
211	0x3e9b2570	0.30302
212	0x3e18cd48	0.14922059
213	0x3d1b95c9	0.037984643
214	0xbe801a51	-0.25020078
215	0x3d259f02	0.040434845
216	0x3e97add8	0.2962482
217	0xbe3134bf	-0.17305277
218	0x3dc23ad6	0.09483878
219	0xbe4259f4	-0.18979627
220	0x3d59961a	0.053121664
221	0xbca4b280	-0.020104647
222	0xbd9c3291	-0.07626832
223	0xbe4c0d43	-0.19926934
224	0x3e2fcfae	0.17169067
225	0x3e0f6c1e	0.14006087
226	0xbe6b928b	-0.2300512
227	0xbdaed345	-0.0853639
228	0xbd0da030	-0.034576595
229	0xbd8e12e6	-0.06937198
230	0xbe1fb532	-0.15596464
231	0xbeb3624d	-0.35035935
232	0xbe0b5be6	-0.13609275
233	0xbe09107c	-0.13385195
234	0xbddead5c	-0.108729094
235	0x3dc72e6d	0.09725652
236	0x3deac841	0.11463977
237	0xbe47d5da	-0.19515172
238	0x3e47f62b	0.195275
239	0xbd6a781b	-0.057243448
240	0x3e4b6fd8	0.19866884
241	0x3bd37480	0.006453097
242	0x3dd38b80	0.10329342
243	0xbdc114a0	-0.09427762
244	0x3ef00b59	0.46883658
245	0xbc9a905d	-0.018867666
246	0xbe4c9aa7	-0.1998087
247	0x3d228a57	0.039682712
248	0x3d802fc1	0.06259108
249	0xbe5b7c39	-0.21434106
250	0xbc9be866	-0.019031715
251	0xbcc3c1ad	-0.023896063
252	0x3de87b52	0.113516465
253	0x3e646137	0.2230271
254	0x3e8037ce	0.25042576
255	0xbd5e0258	-0.054201454

gats.gnn_layers.2.gat_conv.attn_l f4 [1, 4, 14]
0	0x3ef53942	0.47895247
1	0x3e5eb3f8	0.2174834
2	0xbdd61e11	-0.104549535
3	0xbe8007bf	-0.2500591
4	0x3d482b7c	0.048869595
5	0x3cb33adc	0.021878652
6	0x3c67c1d6	0.014145335
7	0xbe56faf2	-0.20994166
8	0x3e5487ca	0.20754924
9	0xbf19ffd7	-0.60156006
10	0xbca5a432	-0.020219896
11	0xbf07d648	-0.5306134
12	0xbd24bef8	-0.040221184
13	0xbe53d1aa	-0.20685449
14	0x3e842faf	0.2581763
15	0x3ed60945	0.41803947
16	0xbdd7f30a	-0.10544403
17	0xbe83762c	-0.25676095
18	0xbea6740b	-0.3251041
19	0xbd1074b4	-0.035267547
20	0x3e19e68b	0.15029351
21	0x3eaceaa3	0.33772764
22	0xbdead2bd	-0.114659764
23	0xbdd06e47	-0.10177284
24	0x3ed1b87c	0.40961063
25	0xbd05fb78	-0.032710522
26	0xbeb74f32	-0.3580261
27	0x3c3403d4	0.010987241
28	0xbda6b110	-0.08139241
29	0xbeacb03d	-0.3372821
30	0x3ea7a0ce	0.32739872
31	0xbed4937a	-0.41518766
32	0x3d95599f	0.072924845
33	0xbebabd5c	-0.36472595
34	0xbf0e6ffa	-0.5563961
35	0x3e3531a5	0.17694719
36	0x3ed7a13a	0.42115194
37	0xbc1b3243	-0.009472433
38	0xbe987199	-0.29774168
39	0x3dda5b8f	0.10661995
40	0x3e4fee37	0.20305716
41	0xbceda82c	-0.029010855
42	0x3ef36e96	0.47545308
43	0x3cd2bbc2	0.025724296
44	0x3dbb6d2c	0.09151682
45	0xbc6d0525	-0.014466559
46	0xbeb57ad1	-0.35445264
47	0xbe0a3888	-0.13498127
48	0xbd53ad06	-0.05167868
49	0xbe3cb3dd	-0.18427987
50	0xbec2307a	-0.3792761
51	0xbe4289a3	-0.18997817
52	0xbe96f761	-0.2948561
53	0xbd7248f2	-0.059151597
54	0xbe53f8c9	-0.20700373
55	0xbec70611	-0.38871816

gats.gnn_layers.2.gat_conv.attn_r f4 [1, 4, 14]
0	0x3e542743	0.20718102
1	0xbe6fb971	-0.23410584
2	0x3edb0984	0.42780697
3	0x3eb17822	0.34661967
4	0x3eb5cf94	0.35509932
5	0x3e10434a	0.14088169
6	0x3e88be82	0.26707846
7	0xbe122beb	-0.14274566
8	0xbe434f1f	-0.19073151
9	0xba37b97e	-0.00070085365
10	0xbf039a62	-0.51407444
11	0xbe4cc656	-0.19997534
12	0x3e7408a9	0.23831429
13	0x3dad4477	0.08460324
14	0xbd0ec4e7	-0.03485575
15	0x3e29196f	0.16513608
16	0xbe5fefec	-0.21868867
17	0x3df07c13	0.11742415
18	0x3eb53eab	0.35399374
19	0xbdb7cacb	-0.089742266
20	0x3e52c957	0.20584618
21	0x3e996a68	0.29963994
22	0x3e030f62	0.12798837
23	0x3e930981	0.28718188
24	0xbd5a6498	-0.05331859
25	0x3d96a16f	0.0735501
26	0x3efd6c30	0.49496603
27	0xbe9019eb	-0.28144774
28	0xbe87fadc	-0.26558578
29	0x3e405ce1	0.1878543
30	0x3ee5c863	0.44879445
31	0xbed252a0	-0.41078663
32	0xbea8a35c	-0.32937133
33	0xbe09caab	-0.13456218
34	0xbefef5c1	-0.4979687
35	0xbd0433f9	-0.032276127
36	0xbdad47da	-0.0846097
37	0x3e9d1a41	0.30684093
38	0xbe0e7a25	-0.13913782
39	0xbc96695d	-0.018360788
40	0x3b9cf894	0.004790375
41	0xbed61ec3	-0.41820344
42	0x3e8ddac4	0.27705967
43	0x3bc199a9	0.0059082103
44	0xbec33a3e	-0.38130373
45	0x3da2ddb2	0.07952441
46	0x3db3bcf9	0.08776278
47	0xbdf464a4	-0.11933258
48	0x3e3316ba	0.17489138
49	0xbe88680c	-0.2664188
50	0xbd1cf70a	-0.038321532
51	0x3cccc7a7	0.024997545
52	0x3dffa9f7	0.1248359
53	0xbeac86a1	-0.33696464
54	0x3dc2a378	0.095038354
55	0x3db63f68	0.088988125

gats.gnn_layers.2.gat_conv.fc.weight f4 [56, 56]
0	0x3e96312a	0.29334384
1	0xbe951784	-0.29119503
2	0xbda1d359	-0.079016395
3	0xbe050a84	-0.12992293
4	0xbe4ebc9e	-0.20189139
5	0xbdb80387	-0.08985048
6	0x3e1d4210	0.15357232
7	0xbd542a75	-0.051798303
8	0xbe8a5be3	-0.2702323
9	0xbdd98935	-0.10621873
10	0xbddacf2c	-0.10684046
11	0xbeb6d103	-0.35706338
12	0x3e827927	0.25483057
13	0xbe901415	-0.2814032
14	0x3c036e20	0.008021861
15	0x3d9b97f6	0.075973436
16	0x3e97dc98	0.29660487
17	0xbe2721ae	-0.16321442
18	0x3c88719d	0.016655738
19	0xbccf0ca7	-0.025274588
20	0xbe90eed0	-0.283072
21	0x3e18e587	0.14931308
22	0xbd84baa3	-0.06480911
23	0xbec3ac6a	-0.3821748
24	0x3db32ced	0.08748803
25	0x3dde6b09	0.10860259
26	0xbd9cca03	-0.07655718
27	0x3d432a0d	0.047647525
28	0x3e303146	0.17206296
29	0xbd70e839	-0.058815215
30	0xbc9e9a07	-0.019360555
31	0xbe51dc89	-0.20494284
32	0x3ec61f81	0.3869591
33	0xbb37b41e	-0.0028030942
34	0x3da8ccc3	0.0824218
35	0xbc1f8c1a	-0.009737993
36	0xbea6e50b	-0.3259662
37	0xbc1ba1a8	-0.009498991
38	0x3cc0372e	0.023463812
39	0xbe6fafe3	-0.23406939
40	0x3e8f83fb	0.2803038
41	0x3e82f090	0.2557416
42	0x3dcbe349	0.099554606
43	0xbd8cf05b	-0.06881782
44	0xbee466a8	-0.4460957
45	0x3e62cc8c	0.22148341
46	0xbcd03cbc	-0.025419585
47	0x3ec8d7ff	0.39227292
48	0x3d4e58d0	0.050377667
49	0x3eaac0c1	0.33350185
50	0x3d633ccb	0.0554779
51	0xbe0d1703	-0.1377831
52	0x3ea723f4	0.32644618
53	0x3d685c8a	0.056728877
54	0xbd5127d4	-0.051063374
55	0x3d0603c4	0.032718435
56	0x3e1021a5	0.14075334
57	0xbdc5b081	-0.09652806
58	0xbe8a102f	-0.26965472
59	0x3e30e1d3	0.17273645
60	0x3deb0c64	0.11476973
61	0xbe8b1f97	-0.2717254
62	0x3e1b337e	0.15156361
63	0x3d6dc708	0.05805114
64	0xbb2318c3	-0.0024886585
65	0xbe24a722	-0.16079381
66	0x3c14355e	0.009045927
67	0x3ddef494	0.10886493
68	0x3e9991ea	0.29994136
69	0x3d46486d	0.048408914
70	0xbe880adc	-0.26570785
71	0xbb3c0426	-0.0028688996
72	0x3e921205	0.28529373
73	0xbe154296	-0.14576182
74	0x3e865d6b	0.26243147
75	0x3e94baef	0.2904887
76	0x3cc7650f	0.02434018
77	0xbd9574d0	-0.07297671
78	0xbcc9dc34	-0.024641134
79	0x3da2b0f1	0.07943905
80	0xbe33d991	-0.17563464
81	0x3d615c04	0.055019394
82	0x3e792809	0.24331678
83	0xbeb48662	-0.35258776
84	0xbe4502f6	-0.19239411
85	0x3e52ade5	0.20574148
86	0x3d12ae3b	0.03581069
87	0xbdafd7d4	-0.08586088
88	0xbdc489a9	-0.09596569
89	0xbd9eeee0	-0.077604055
90	0xbebe1fb4	-0.37133563
91	0x3d2416d1	0.040060822
92	0xbe685d28	-0.22691786
93	0xbe3c9c73	-0.18419056
94	0x3d2d7113	0.042344164
95	0x3df86d79	0.12130255
96	0xba796581	-0.00095137215
97	0x3dd35faf	0.103209846
98	0x3d55093b	0.052010756
99	0xbddf6cc3	-0.109094165
100	0x3e40f0a2	0.18841794
101	0x3d90db6b	0.07073101
102	0xbd63353b	-0.055470686
103	0x3e7e4119	0.2482952
104	0x3ee0ae98	0.43883204
105	0xbe5e7919	-0.21725883
106	0xbeae9d3e	-0.3410434
107	0xbd14b809	-0.036308322
108	0xbd1819e9	-0.037134085
109	0xbe792ab7	-0.243327
110	0x3ed70cfa	0.42002088
111	0x3e92e867	0.28692934
112	0x3dfa0c07	0.12209325
113	0x3e2fb156	0.17157492
114	0xbd2c9d79	-0.042142365
115	0x3d372d1f	0.044720765
116	0x3cb2b42d	0.02181443
117	0xbebb7ada	-0.36617166
118	0xbd880d6e	-0.066431865
119	0x3ee88c7e	0.45419687
120	0xbe9c27a2	-0.30498987
121	0xbe2836ad	-0.16427107
122	0x3ded4150	0.11584723
123	0xbd94f4a0	-0.07273221
124	0xbebe4ee6	-0.3716957
125	0x3d4f2b55	0.050578434
126	0xbd614489	-0.054997
127	0x3be021e6	0.0068399785
128	0xbe31ce21	-0.17363788
129	0x3d48b648	0.049001962
130	0xbd16690c	-0.036721274
131	0x3ebaf7c8	0.36517167
132	0xbdd553e2	-0.1041639
133	0x3a35f395	0.00069408986
134	0xbd28b8a0	-0.041191697
135	0xbdbff02a	-0.093719795
136	0x3db3a0a0	0.08770871
137	0x3dba05f2	0.09083165
138	0x3dfc865b	0.12330314
139	0xbe91223f	-0.2834644
140	0x3ec84223	0.39112958
141	0xbe4246da	-0.1897234
142	0xbe4433fb	-0.19160454
143	0x3da4ae71	0.080410846
144	0xbd9f2b82	-0.0777197
145	0x3cb52c0f	0.022115735
146	0xbeba198f	-0.36347625
147	0x3da941ce	0.082645044
148	0xbdb4e9fe	-0.08833693
149	0xbcab026e	-0.020875182
150	0x3df3e855	0.11909548
151	0xbe3df55f	-0.18550633
152	0xbe8bd9a8	-0.27314496
153	0xbe32a802	-0.17446902
154	0x3ddcbc49	0.107781
155	0xbce5b2c0	-0.028039336
156	0x3eb6392a	0.35590488
157	0xbcc885ba	-0.024477828
158	0xbc9991b4	-0.018746234
159	0xbbeb5455	-0.007181684
160	0x3d07ba52	0.033136673
161	0x3e0cf1d5	0.13764127
162	0x3e3b63a5	0.1829973
163	0x3cb71d71	0.022352906
164	0xbcbd7fbc	-0.023132198
165	0xbe86ef14	-0.26354277
166	0x3e00f7ad	0.12594481
167	0xbe5597a4	-0.20858628
168	0x3de988cf	0.11403047
169	0x3e666ffa	0.22503653
170	0x3d06d566	0.032918356
171	0x3e881555	0.26578775
172	0x3d26d436	0.040729724
173	0x3e3d186d	0.18466349
174	0xbc14f987	-0.009092695
175	0xbd97b63f	-0.074078076
176	0x3edcd223	0.43129072
177	0xbeaa15c1	-0.33219722
178	0x3ece4e96	0.4029433
179	0xbdc1cd1e	-0.09462951
180	0xbd7fceab	-0.062452953
181	0x3d04d828	0.032432705
182	0x3e127f48	0.14306366
183	0xbd6c5d53	-0.05770619
184	0x3e8c2c68	0.2737763
185	0x3ea1aecf	0.3157868
186	0x3dc95b42	0.09831859
187	0x3d2044ea	0.03912822
188	0x3d342975	0.04398485
189	0xbd6d6f7b	-0.057967644
190	0x3bc8f9d7	0.006133299
191	0xbe907388	-0.28213143
192	0xbb8ecca8	-0.004357893
193	0xbe12b083	-0.14325146
194	0xbc29443d	-0.010331211
195	0x3f0c3480	0.5476761
196	0xbe52fef2	-0.20605066
197	0x3cf52c94	0.029928483
198	0x3d31c2f2	0.043398805
199	0xbeae2cf4	-0.34018672
200	0xbd2a311f	-0.04155075
201	0x3ec0aec0	0.37633324
202	0xbe6330b1	-0.22186543
203	0x3e8379c5	0.2567884
204	0x3e516237	0.20447622
205	0xbeaa8a8f	-0.33308837
206	0xbe3579d2	-0.17722252
207	0xbe85944d	-0.26089707
208	0xbe4ab3c0	-0.19795132
209	0x3c6f4135	0.014602949
210	0x3d8eadfe	0.0696678
211	0x3e360ceb	0.17778365
212	0xbdaca64f	-0.08430158
213	0xbe8d7a1e	-0.2763223
214	0xbe0ef81e	-0.13961837
215	0x39b9e4a8	0.00035456312
216	0x3cc8ab7a	0.024495829
217	0x3dc70012	0.0971681
218	0xbe5d66a6	-0.21621189
219	0xbde0436b	-0.10950359
220	0xbe5fcd6e	-0.21855709
221	0x3e8777ba	0.26458532
222	0xbe761f23	-0.24035315
223	0x3ecee2e6	0.40407485
224	0x3eb57dc6	0.3544752
225	0xbd0e3a83	-0.03472377
226	0xbdd8d888	-0.10588175
227	0xbdb2fa4e	-0.08739148
228	0xbe48fe36	-0.19628224
229	0x3c844f16	0.016150992
230	0x3dd93f05	0.10607723
231	0x3c46625b	0.012108411
232	0x3e847ebb	0.25877938
233	0xbe7ab11b	-0.24481623
234	0xbd06b7f4	-0.032890275
235	0x3e1eeaaf	0.15519212
236	0xbe8d56d5	-0.2760531
237	0x3e444189	0.19165625
238	0xbdb6faf0	-0.08934581
239	0x3c6cc163	0.014450404
240	0xbed19559	-0.40934256
241	0x3e576fc6	0.21038732
242	0x3c564919	0.013078951
243	0x3c988814	0.018619575
244	0x3e269890	0.16269135
245	0x3e2cef1d	0.1688809
246	0xbe5081e9	-0.20362057
247	0xbe8c9cc8	-0.27463365
248	0x3e8237d7	0.25433227
249	0x3cf7056f	0.030153958
250	0xbeb2ab3e	-0.34896272
251	0x3e670d42	0.22563651
252	0xbd29969c	-0.041403398
253	0x3d61615e	0.055024497
254	0x3def413e	0.11682366
255	0x3e8c1c40	0.27365303

gats.gnn_layers.2.gat_conv.res_fc.weight f4 [56, 56]
0	0x3d646c21	0.055767182
1	0xbe70153e	-0.23445603
2	0xbc7fa9d8	-0.015604459
3	0xbd97cadc	-0.07411739
4	0x3d83e028	0.06439239
5	0x3cb39854	0.021923222
6	0x3d893086	0.06698708
7	0xbd81698b	-0.06318959
8	0xbca7a17a	-0.02046274
9	0xbc5aee27	-0.013362444
10	0x3e9037a0	0.28167439
11	0x3ebc157c	0.3673514
12	0xbf0914f1	-0.5354758
13	0x3d7fe64a	0.06247548
14	0xbeaec689	-0.34135845
15	0xbebe0b9e	-0.37118238
16	0xbe423c54	-0.18968326
17	0xbe579ef9	-0.21056737
18	0x3ec0f9df	0.37690637
19	0x3d9c836b	0.076422535
20	0xbe55848e	-0.20851347
21	0xbd5868fd	-0.0528345
22	0xbd8d4433	-0.068977736
23	0xbe9525c6	-0.2913038
24	0xbd8afaa8	-0.0678609
25	0x3d3d60a0	0.046234727
26	0x3e552fd6	0.20819029
27	0x3eee5619	0.46550062
28	0xbcecd362	-0.028909389
29	0xbd11b2bd	-0.03557085
30	0x3cb876dc	0.022517614
31	0x3ea90448	0.3301108
32	0x3d9cdb10	0.0765897
33	0xbd353ab9	-0.044245455
34	0x3e195da8	0.14977133
35	0xbe97cd51	-0.2964883
36	0xbe6720e7	-0.22571145
37	0xbe0e7606	-0.1391221
38	0xbe41cd22	-0.18925908
39	0x3d7e939b	0.062152486
40	0x3db02fab	0.08602842
41	0x3e3a9461	0.18220665
42	0xbe16884b	-0.14700429
43	0x3e3a1811	0.18173243
44	0x3e9c63de	0.30544943
45	0xbdb5eee1	-0.08883453
46	0x3e46d29b	0.19416277
47	0xbe2a6c33	-0.16642837
48	0xbd5bb9f8	-0.05364415
49	0xbe24fb9a	-0.16111603
50	0xbdf6cf89	-0.12051303
51	0xbcd7cfd3	-0.026344215
52	0xbe29e7fd	-0.16592403
53	0xbc827df3	-0.015929198
54	0x3e3ac020	0.18237352
55	0x3daac61e	0.08338569
56	0x3e9e4457	0.30911514
57	0xbefb23a4	-0.4905063
58	0x3e0a5694	0.1350959
59	0x3dfb47ce	0.12269555
60	0xbda2fc49	-0.07958276
61	0xbce2e726	-0.02769811
62	0x3dacc6a7	0.084363274
63	0x3e24ae10	0.16082025
64	0x3e0138c3	0.12619309
65	0xbe3abdbf	-0.18236445
66	0x3dca23e3	0.09870126
67	0xbe2deb07	-0.16984187
68	0xbe24c09a	-0.16089097
69	0xbe32469c	-0.17409748
70	0xbe813dc4	-0.25242436
71	0x3e922c8f	0.2854962
72	0xbd7fefb0	-0.062484443
73	0x3bfd4af5	0.007729883
74	0xbd070df5	-0.032972295
75	0xbe3e07f4	-0.18557721
76	0x3e94c88c	0.29059255
77	0x3cc7ecf8	0.024404988
78	0x3e92ef7e	0.28698343
79	0x3ea3fb2a	0.3202756
80	0x3e06dc8e	0.13170072
81	0x3ede8c8b	0.434666
82	0x3e2a7703	0.16646962
83	0x3d98d13f	0.074617855
84	0xbcbf3d31	-0.023344608
85	0xbccb969e	-0.024852093
86	0xbdb50d65	-0.088404454
87	0x3bd5bb4e	0.0065225726
88	0x3a6845e6	0.00088605133
89	0xbe04dddf	-0.12975262
90	0xbdcdb357	-0.10043972
91	0xbe558a87	-0.20853625
92	0xbd503701	-0.050833706
93	0xbe446997	-0.19180904
94	0x3e8e12b9	0.2774866
95	0xbcf4abf6	-0.029867154
96	0x3e18033f	0.14844988
97	0xbd49d00b	-0.04927067
98	0x3decd29b	0.11563607
99	0xbeb6c9d3	-0.35700855
100	0x3e7b0a9b	0.24515764
101	0xbdd701c8	-0.104983866
102	0xbd101c55	-0.03518327
103	0xbdd27723	-0.1027663
104	0xbd14b1f9	-0.03630254
105	0x3e431c35	0.19053729
106	0x3e7d9dcd	0.24767227
107	0xbeab180f	-0.33416793
108	0xbe2d5ecd	-0.16930695
109	0x3e0d1dac	0.1378085
110	0x3cab50dc	0.02091258
111	0x3dc90881	0.09816075
112	0xbcb7d421	-0.022440018
113	0xbd959109	-0.07303054
114	0xbd33c00b	-0.04388432
115	0xbe5fd4bf	-0.218585
116	0x3e247fd1	0.16064383
117	0x3d1ca47b	0.0382428
118	0x3d32ac6a	0.043621458
119	0x3e4aa1a7	0.19788228
120	0xbe1ce4b5	-0.1532162
121	0x3e3ac6e9	0.1823994
122	0xbe1228ea	-0.1427342
123	0x3e226c90	0.15861726
124	0xbc00cc77	-0.007861248
125	0x3e02cbdf	0.12773083
126	0xbe5f1f72	-0.21789339
127	0x3ec6cc2b	0.38827643
128	0x3e238187	0.1596738
129	0x3d243176	0.040086232
130	0xbd4c52d9	-0.049883697
131	0xbedd7713	-0.4325491
132	0xbcd89cf7	-0.026442034
133	0xbed81017	-0.42199776
134	0x3e8ccd89	0.2750056
135	0x3e0754e4	0.13215977
136	0xbe58945c	-0.21150345
137	0xbcd06c01	-0.025442125
138	0xbdbe665a	-0.09296866
139	0xbde55e48	-0.11199623
140	0xbdaea300	-0.085271835
141	0x3df5c4b0	0.12000406
142	0x3dcedaa9	0.101003
143	0xbd88428d	-0.066533186
144	0xbe30912d	-0.1724288
145	0x3eedda58	0.46455646
146	0x3e8f4e80	0.27989578
147	0xbda597be	-0.08085583
148	0x3d900af0	0.07033336
149	0xbb10c7e7	-0.0022091807
150	0x3e8cfd0d	0.27536812
151	0xbe9be9d9	-0.3045185
152	0x3e0cb51f	0.13740967
153	0xbdf11da9	-0.11773235
154	0xbd943979	-0.072375245
155	0x3d219a70	0.039453924
156	0x3de89166	0.113558576
157	0xbf06337f	-0.52422327
158	0xbe8d902e	-0.27649063
159	0xbd162137	-0.03665277
160	0x3df59f32	0.11993255
161	0x3eaecf6c	0.34142625
162	0xbdd12287	-0.10211664
163	0xbe00105c	-0.1250624
164	0xbd8996e6	-0.06718235
165	0x3e60ecd4	0.21965343
166	0xbe386f12	-0.1801112
167	0x3cedace3	0.029013103
168	0x3e09fcec	0.13475388
169	0x3ea03fe5	0.31298748
170	0xbe1d9eab	-0.15392558
171	0x3ea55678	0.32292533
172	0x3ddbe1ee	0.10736452
173	0xbe0bfd53	-0.13670854
174	0x3e93c1ad	0.288587
175	0xbe671d90	-0.22569871
176	0x3d85b67b	0.06528946
177	0xbc2193aa	-0.009861866
178	0x3df81fb0	0.12115419
179	0x3e2671f2	0.16254404
180	0x3e5bc201	0.21460725
181	0xbd21a847	-0.039467122
182	0xbe1d5bed	-0.15367098
183	0x3d868eba	0.06570192
184	0x3d10db7d	0.03536557
185	0x3dc0e489	0.094185896
186	0x3d408e98	0.047010988
187	0xbc889975	-0.016674737
188	0xbe2aa03f	-0.16662692
189	0xbe0ecf6d	-0.13946314
190	0xbe2c6256	-0.16834387
191	0xbd88e820	-0.06684899
192	0x3e93d878	0.2887609
193	0x3da1d01b	0.07901021
194	0x3cbaf82d	0.022823418
195	0x3e866feb	0.26257262
196	0xbecbf949	-0.39838627
197	0xbe4abaf5	-0.19797881
198	0x3e892098	0.2678268
199	0xbcb3c6a3	-0.021945303
200	0xbcdd14b1	-0.026987405
201	0xbe22ed7c	-0.15910906
202	0x3e7e2a14	0.24820739
203	0xbe02ad6d	-0.12761469
204	0x3e09aff1	0.13446023
205	0xbd738745	-0.059455175
206	0x3dd89cf7	0.10576814
207	0x3e8c305d	0.27380648
208	0xbda4c966	-0.08046226
209	0xbc7d9ddc	-0.015479531
210	0x3d4a96a0	0.049460053
211	0xbda87f74	-0.08227435
212	0x3d96c5e3	0.07361963
213	0x3e871288	0.26381326
214	0xbf013ac2	-0.5048028
215	0xbe78e2d1	-0.24305274
216	0x3e151402	0.14558414
217	0xbed1c50a	-0.4097064
218	0x3d51554a	0.05110673
219	0xbda3a3ff	-0.07990264
220	0x3d934dd0	0.07192576
221	0xbe9c201a	-0.30493242
222	0xbe7173d3	-0.2357934
223	0xbe4f5913	-0.20248823
224	0x3daf74f6	0.085672304
225	0x3dd76b6e	0.105185375
226	0xbe05f091	-0.1308005
227	0xbe8e5ce0	-0.27805233
228	0xbbf4dea6	-0.007472831
229	0x3cdc52b6	0.026894908
230	0x3d5ee94d	0.05442171
231	0xbe2c25b8	-0.16811264
232	0xbdb45f04	-0.08807185
233	0xbe66f149	-0.2255298
234	0xbbab9c87	-0.0052371654
235	0x3da5c086	0.080933616
236	0xbea53d4c	-0.32273328
237	0xbdb153ed	-0.08658586
238	0xbe5dad28	-0.21648085
239	0xbb27a05f	-0.0025577766
240	0x3f0928db	0.53577965
241	0x3be589e5	0.0070049637
242	0xbb5caf10	-0.0033673681
243	0xbde3059f	-0.110850565
244	0x3e3bb842	0.18332008
245	0x3df74b5c	0.120749205
246	0x3d30efeb	0.043197554
247	0xbe70681e	-0.23477218
248	0x3df371b3	0.11886921
249	0x3dad3d4b	0.08458956
250	0x3e591eea	0.21203199
251	0x3e283807	0.16427623
252	0xba4943b2	-0.0007677629
253	0xbe100677	-0.14064966
254	0xbd35be20	-0.04437077
255	0xbe8eea4c	-0.2791313
