models/2/GAT.pt (torch, 119651 bytes, 19 tensors)

gats.gnn_layers.0.gat_conv.attn_l f4 [1, 4, 14]
0	0x3da22fc0	0.07919264
1	0x3dc6f56b	0.097147785
2	0x3e4eb257	0.20185219
3	0x3d84b51c	0.06479856
4	0x3e65f005	0.22454841
5	0x3e5d570e	0.2161524
6	0x3f112201	0.5669251
7	0xbdcfc2d6	-0.10144584
8	0x3d629535	0.055318076
9	0xbe253d81	-0.16136743
10	0x3d01e22d	0.03170984
11	0x3e3a0f2f	0.18169855
12	0x3f055ac3	0.52091616
13	0xbe126c76	-0.14299187
14	0x3ece67d6	0.40313596
15	0xbdd58914	-0.10426536
16	0x3e9d335d	0.3070325
17	0x3f06a603	0.52597064
18	0x3e821580	0.25407028
19	0x3f06fb0a	0.52726805
20	0xbe296268	-0.16541445
21	0x3ee3bffb	0.44482407
22	0xbe8ac551	-0.27103665
23	0xbdcb71a9	-0.09933788
24	0x3e3fef36	0.18743595
25	0x3ec0c945	0.37653556
26	0x3e164d4f	0.14677928
27	0x3eb7fcf6	0.3593518
28	0x3ea28f66	0.3175003
29	0x3e1cd973	0.15317325
30	0xbd821d59	-0.06353254
31	0xbe904456	-0.28177136
32	0xbee9edbb	-0.45689186
33	0x3dfa8a61	0.12233425
34	0x3f10ae2d	0.5651577
35	0x3e650f4e	0.2236912
36	0x3c94f46e	0.01818296
37	0x3e9c59ab	0.3053716
38	0x3dfdaab0	0.12386072
39	0xbe382b3f	-0.17985247
40	0xbe2de5f6	-0.16982254
41	0xbe3163eb	-0.17323272
42	0xbd4ecd25	-0.05048861
43	0xbe595fcf	-0.21227954
44	0xbe8f59de	-0.2799825
45	0x3f0361a5	0.5132087
46	0x3df94c0e	0.121727094
47	0x3f22d70b	0.6360938
48	0x3ec2327f	0.3792915
49	0x3b1ebe02	0.002422214
50	0xbf1df8ef	-0.6170797
51	0x3d5d5142	0.05403257
52	0xbe9c51ba	-0.30531102
53	0x3e8d49a3	0.27595243
54	0x3eadee70	0.33970976
55	0xbe9c5ccd	-0.3053955

gats.gnn_layers.0.gat_conv.attn_r f4 [1, 4, 14]
0	0xbe0cc6b9	-0.13747682
1	0xbf47fa41	-0.7811623
2	0x3ed75bcc	0.42062223
3	0x3e0ee9f2	0.1395643
4	0x3e774c33	0.24150161
5	0x3d9d1ee5	0.07671908
6	0xbe11ae20	-0.1422658
7	0x3e09ac2b	0.13444583
8	0x3d17132a	0.03688351
9	0xbe435d56	-0.19078574
10	0x3e2681bb	0.16260426
11	0xbd2d7622	-0.04234899
12	0xbd6f5427	-0.058429863
13	0x3eb95b9e	0.3620271
14	0x3d1df890	0.038567126
15	0xbe093fbe	-0.13403222
16	0xbd131bf4	-0.03591533
17	0x3e1c5214	0.15265685
18	0xbf0439e8	-0.5165086
19	0xbdf9ec19	-0.12203235
20	0x3e5e08de	0.2168307
21	0x3e1d6276	0.15369591
22	0xbef7e703	-0.48418435
23	0xbda5b53a	-0.08091207
24	0x3e7f7ef2	0.2495077
25	0xbdddf29c	-0.1083729
26	0x3f0f8000	0.5605469
27	0x3e19f5b4	0.15035135
28	0x3e08a06f	0.1334245
29	0xbecc780c	-0.39935338
30	0xbdbcafdf	-0.09213232
31	0xbe67f4a9	-0.22651924
32	0xbea3152b	-0.31852087
33	0x3e25050b	0.16115205
34	0x3dd8e6b7	0.1059088
35	0x3debdc0c	0.1151658
36	0xbd7d3d5b	-0.06182609
37	0x3eafbdf1	0.343246
38	0x3f067813	0.5252697
39	0x3e81f17a	0.25379544
40	0xbcac4fd7	-0.021034164
41	0x3eca708e	0.39538997
42	0xbe292ee3	-0.16521792
43	0x3e68041b	0.22657816
44	0xbe830f47	-0.25597593
45	0xbeeb9f2e	-0.46019882
46	0x3bfc3e4c	0.007697856
47	0xbe593147	-0.21210204
48	0xbe88e7b9	-0.2673929
49	0x3e82ae98	0.2552383
50	0x3ca63777	0.02029012
51	0xbe9ccd7f	-0.3062553
52	0xbf393c05	-0.7235721
53	0x3edc6c0a	0.43051177
54	0x3ca887c7	0.020572556
55	0x3da9f00c	0.082977384

gats.gnn_layers.0.gat_conv.fc.weight f4 [56, 74]
0	0x3e324774	0.1741007
1	0xbe99eec0	-0.30064964
2	0x3dd1d786	0.10246186
3	0xbe1db34a	-0.15400425
4	0x3e11596d	0.1419427
5	0x3ded40a8	0.11584598
6	0x3df67aaf	0.12035119
7	0x3dd66bbf	0.1046977
8	0xbd86717d	-0.06564615
9	0xab94649f	-1.054396e-12
10	0x266de3a9	8.253443e-16
11	0xa8732876	-1.3497983e-14
12	0x239fb7ae	1.7316606e-17
13	0xab028577	-4.63705e-13
14	0x2e90698b	6.56711e-11
15	0x3e6a305b	0.22870009
16	0xa791eade	-4.050023e-15
17	0x21d54f84	1.4454489e-18
18	0xa653794d	-7.3369724e-16
19	0xa7021474	-1.8052212e-15
20	0x2b95d59d	1.0646376e-12
21	0x260f7387	4.976966e-16
22	0x3e8573f6	0.26065034
23	0x26c0dd21	1.3382613e-15
24	0x2a82bfb8	2.322567e-13
25	0x249104fb	6.289216e-17
26	0x29039b0f	2.9222335e-14
27	0x3dc743f7	0.0972976
28	0xaa929290	-2.6036508e-13
29	0x2bb9cddd	1.3202179e-12
30	0x2ce23e3d	6.430216e-12
31	0x27eb6147	6.533107e-15
32	0x226f5bb3	3.2439085e-18
33	0x25407404	1.6692653e-16
34	0x28e760f6	2.5688202e-14
35	0xae1040c8	-3.2799347e-11
36	0x21ab88e9	1.1623651e-18
37	0x2506ea4f	1.1702034e-16
38	0xa343464a	-1.05858555e-17
39	0xa77d4a01	-3.515092e-15
40	0xa6e26ac6	-1.5710841e-15
41	0xab81c134	-9.219626e-13
42	0x260e4ff9	4.937453e-16
43	0xabb1271b	-1.258746e-12
44	0xbd115ef3	-0.03549094
45	0xbe5b3d6c	-0.2141015
46	0xbd266ed7	-0.04063305
47	0x3d9b2aa0	0.075764894
48	0xad0f8a74	-8.159352e-12
49	0x2a717381	2.1445173e-13
50	0xac8cd56c	-4.002734e-12
51	0x26803057	8.894887e-16
52	0x244e6490	4.475431e-17
53	0xa4aa46e3	-7.3845835e-17
54	0xbb390f97	-0.0028238052
55	0x3d140ec0	0.03614688
56	0xbc84c659	-0.01620786
57	0xbe9a1248	-0.30092072
58	0xa4d32a0b	-9.157789e-17
59	0xa424b855	-3.5717967e-17
60	0xa38a2c9d	-1.4980884e-17
61	0xbe82a8ed	-0.25519505
62	0xabc8e902	-1.4275527e-12
63	0xbdeecf94	-0.11660686
64	0xbea8f3a7	-0.32998392
65	0xbcb499cb	-0.02204599
66	0xa4b87711	-7.9998986e-17
67	0x261f23a2	5.52125e-16
68	0xbe2dfb24	-0.16990334
69	0x3e97845c	0.2959317
70	0xbe110141	-0.14160635
71	0x3da32839	0.07966656
72	0xbdc1b901	-0.09459115
73	0xa8457939	-1.0961983e-14
74	0x3e50828a	0.20362297
75	0xbd98823e	-0.07446717
76	0xbe436288	-0.19080555
77	0xbd7ceff8	-0.06175229
78	0x3d201b14	0.039088324
79	0x3e183124	0.14862496
80	0xbd5c10b7	-0.053726878
81	0x3ee9844b	0.45608744
82	0x3c0d36a4	0.008618984
83	0xa2a748fa	-4.5342708e-18
84	0xa8461474	-1.0995643e-14
85	0x27006a7b	1.7821292e-15
86	0xaafccc59	-4.4905987e-13
87	0x25e156a1	3.908998e-16
88	0xad71955c	-1.3732428e-11
89	0xbcd7a529	-0.026323872
90	0xa86a8b85	-1.3019863e-14
91	0x2bce82cd	1.4673485e-12
92	0x228f1e69	3.8792426e-18
93	0xa6bdd739	-1.3172846e-15
94	0x27dd32d8	6.1394947e-15
95	0xac878016	-3.851151e-12
96	0x3e0cffb0	0.13769412
97	0xa56622a3	-1.9961055e-16
98	0x1e116562	7.6972016e-21
99	0x2b3be4fe	6.6753536e-13
100	0x2c815914	3.67629e-12
101	0xbe90890a	-0.28229553
102	0x27052ff7	1.848346e-15
103	0x24a5666c	7.173085e-17
104	0x278903bf	3.80292e-15
105	0xa74dbb20	-2.8550906e-15
106	0x26d848c7	1.5007737e-15
107	0x9f9eb1ea	-6.720994e-20
108	0x28009eef	7.139891e-15
109	0xa5802e23	-2.2235724e-16
110	0x265fb009	7.760724e-16
111	0x254e278d	1.7881052e-16
112	0x2794702a	4.119986e-15
113	0xab17640c	-5.378482e-13
114	0x9fbbe921	-7.958326e-20
115	0xa45e9376	-4.826348e-17
116	0x24a050d3	6.952586e-17
117	0x1f9525fe	6.316681e-20
118	0x3e0870a2	0.13324216
119	0xbee73407	-0.4515688
120	0x3dd03c4e	0.10167752
121	0xbe862c2e	-0.2620558
122	0x2942ff4c	4.3298088e-14
123	0xabbf2cd5	-1.358381e-12
124	0x255459b5	1.8418463e-16
125	0xa6448fec	-6.819621e-16
126	0xaa634524	-2.0185638e-13
127	0x2a324d4f	1.5836398e-13
128	0xbe138caf	-0.14409135
129	0xbe81be50	-0.2534051
130	0xbea39eef	-0.31957194
131	0x3df91ab8	0.12163299
132	0x2604b029	4.603544e-16
133	0x26a71acb	1.1595215e-15
134	0xa56c9255	-2.0519316e-16
135	0x3eff6e95	0.49889055
136	0xa7a388e5	-4.539001e-15
137	0x3e26a4fd	0.16273876
138	0xbde950c6	-0.113923594
139	0xbe654094	-0.22387916
140	0xad9fb69f	-1.8157307e-11
141	0x281a3ee7	8.562357e-15
142	0x3d6c90fd	0.05775546
143	0x3bb7263b	0.005589274
144	0xbd7b45de	-0.061345927
145	0xbe89f693	-0.26945934
146	0xbee206eb	-0.44145903
147	0x262ba03e	5.954471e-16
148	0x3d420b6a	0.047374167
149	0x3e933773	0.28753242
150	0xbea39bd3	-0.31954822
151	0x3daf45b1	0.085582145
152	0x3ddef96e	0.10887419
153	0xbb83d7ac	-0.004023513
154	0xbe881a86	-0.26582736
155	0xbb12e7ce	-0.0022415998
156	0xbda83559	-0.082133
157	0x2c32e2fe	2.5421327e-12
158	0xa622cf83	-5.648627e-16
159	0xa22d5446	-2.3490486e-18
160	0xb1a23b23	-4.7215436e-09
161	0x21cddf03	1.3950371e-18
162	0xabe371d4	-1.6160914e-12
163	0x3d8dbda1	0.069209345
164	0xaa482dc6	-1.7779449e-13
165	0x2b604325	7.967397e-13
166	0x20311316	1.4998798e-19
167	0x24bc2afe	8.1604835e-17
168	0x2d6a7483	1.3327231e-11
169	0xac93275d	-4.1823615e-12
170	0x3eb1a19b	0.34693608
171	0x2b13cd09	5.2509435e-13
172	0xa7269e16	-2.3122826e-15
173	0xa66b0fea	-8.155357e-16
174	0xa7a4ba47	-4.5721106e-15
175	0xbe56635d	-0.20936342
176	0xaf567622	-1.9505156e-10
177	0x2d007e3e	7.303989e-12
178	0xa5c85e2f	-3.475829e-16
179	0x29e2e2a9	1.00757354e-13
180	0x1e12ebb1	7.7779155e-21
181	0x2b47c188	7.096758e-13
182	0x2b8a24ba	9.815683e-13
183	0xa84702ed	-1.10473535e-14
184	0x1f25ef2e	3.5137954e-20
185	0x2532ed40	1.5519422e-16
186	0xaa94c80c	-2.6428892e-13
187	0xa69b5d52	-1.078058e-15
188	0x2a5d6c3a	1.9666292e-13
189	0xa43b5322	-4.0619577e-17
190	0xa0435c13	-1.6547607e-19
191	0x241ce215	3.4018607e-17
192	0xbd47d818	-0.048790067
193	0xbdad10e3	-0.084504865
194	0xbcdd410b	-0.027008554
195	0x3db0d6d4	0.08634725
196	0xa70c7672	-1.9493112e-15
197	0xa110cd7e	-4.9061064e-19
198	0x2240a3e6	2.610762e-18
199	0xa58358e4	-2.2785112e-16
200	0xa53b084e	-1.6222478e-16
201	0x249d792b	6.829316e-17
202	0xbd5cbd9b	-0.05389176
203	0x3e33611b	0.17517512
204	0x3b1dafbf	0.0024061052
205	0x3e3a327f	0.18183325
206	0x23a68040	1.8052072e-17
207	0xa665d4e9	-7.973888e-16
208	0x1ddb9284	5.812031e-21
209	0x3e116043	0.14196877
210	0xab88616b	-9.69042e-13
211	0xbeab8a34	-0.33503878
212	0x3e975ef9	0.29564646
213	0x3e3879c8	0.18015206
214	0x26452b53	6.840682e-16
215	0xa7ec224b	-6.554034e-15
216	0xbc2c6e29	-0.010524311
217	0x3d1da022	0.038482793
218	0xbe69cc90	-0.2283194
219	0x3da8588d	0.08220015
220	0xbea136e7	-0.314872
221	0x27632c41	3.1526568e-15
222	0x3e141478	0.14460933
223	0x3ed44f2e	0.4146666
224	0xbecba5d8	-0.39774966
225	0x3ee2ac27	0.44271967
226	0x3e1c1146	0.15240964
227	0x3e8333be	0.25625414
228	0x3d448ce7	0.047985937
229	0x3ef1763b	0.47160515
230	0x3d2e96d4	0.04262431
231	0xaae4e417	-4.0659205e-13
232	0x2ab907e1	3.2868069e-13
233	0x2b85916c	9.490581e-13
234	0x249db691	6.8397176e-17
235	0xa3e72c73	-2.5063895e-17
236	0x2bda8815	1.5527602e-12
237	0x3f00f399	0.503717
238	0x26551215	7.3923726e-16
239	0xabc8a5e0	-1.4256894e-12
240	0xa5ca9eff	-3.5149154e-16
241	0x266da484	8.2448853e-16
242	0xa9eb5457	-1.0450727e-13
243	0xa628d24a	-5.8571704e-16
244	0x3e4391e0	0.19098616
245	0x2aa38fd0	2.9054406e-13
246	0xa5dc7900	-3.824591e-16
247	0xa9e714a9	-1.0262045e-13
248	0xa68d306b	-9.796964e-16
249	0xbebace74	-0.36485636
250	0x25440028	1.7000343e-16
251	0x265497d7	7.3758057e-16
252	0x2cfff891	7.2751323e-12
253	0x2babba1b	1.2201935e-12
254	0xa7981547	-4.2211544e-15
255	0x251fc5f5	1.3858122e-16

gats.gnn_layers.0.gat_conv.res_fc.weight f4 [56, 74]
0	0x3d6a2bda	0.057170726
1	0xbda50420	-0.080574274
2	0x3e493afe	0.1965141
3	0xbe8e292c	-0.27765787
4	0x3d42de7c	0.04757546
5	0x3e5a9869	0.21347202
6	0xbea87ee0	-0.32909298
7	0xbd3a5e50	-0.0455001
8	0xbe0f1169	-0.13971485
9	0x266c82d1	8.205624e-16
10	0x2d6ff18c	1.3639211e-11
11	0xa0e6d12d	-3.9101936e-19
12	0x2b09c26f	4.894201e-13
13	0x2bcdf4b3	1.4634044e-12
14	0xaa4a8839	-1.7988466e-13
15	0x3e394072	0.1809099
16	0x2325a326	8.979216e-18
17	0xa582ca51	-2.26885e-16
18	0xaa97b4bb	-2.6948395e-13
19	0x2491700b	6.3073534e-17
20	0x26171ae0	5.242507e-16
21	0xa5162d86	-1.302585e-16
22	0x3ec727f5	0.38897672
23	0x23f88ace	2.6947e-17
24	0xa5d6d331	-3.726619e-16
25	0x29c5e1da	8.7877364e-14
26	0xa90aa52a	-3.0785412e-14
27	0xbe00dc89	-0.12584127
28	0x2883eace	1.4645752e-14
29	0xa3885ac3	-1.4783589e-17
30	0x2505bf69	1.1600763e-16
31	0xa6badce0	-1.2966211e-15
32	0x2142801a	6.58993e-19
33	0xaa281c32	-1.493118e-13
34	0x24adc0b0	7.5353216e-17
35	0x2b2a5856	6.0518723e-13
36	0x2b3d5255	6.7260547e-13
37	0xa450fa41	-4.5314784e-17
38	0xacc9f095	-5.7394736e-12
39	0x26c28140	1.3496487e-15
40	0xaae28316	-4.0236624e-13
41	0xa7a09651	-4.4571894e-15
42	0xa9e0b9c8	-9.979826e-14
43	0xa9c77a63	-8.858606e-14
44	0x3de3a9f0	0.111163974
45	0xbe7885d9	-0.24269809
46	0x3cd29663	0.025706476
47	0xbc85257e	-0.01625323
48	0x259e23dd	2.7432933e-16
49	0xa4ef280d	-1.03717576e-16
50	0xa39b5e56	-1.6845086e-17
51	0x291ab1f9	3.4349236e-14
52	0x2798a867	4.2371057e-15
53	0xa7b0abef	-4.9036224e-15
54	0xbb88e012	-0.004177102
55	0xbd1df4e6	-0.03856363
56	0xbdd259e5	-0.10271052
57	0xbdab6050	-0.083679795
58	0x2ac6a839	3.5288593e-13
59	0x2542e769	1.6905223e-16
60	0x261c89d3	5.431016e-16
61	0xbd862d77	-0.065516405
62	0xaae613ef	-4.087004e-13
63	0x3df46e26	0.11935072
64	0x3c037fa1	0.008026035
65	0x3e77bd2f	0.24193262
66	0xa723ea39	-2.2747766e-15
67	0xa1ab4f12	-1.160834e-18
68	0xbc256f47	-0.010097331
69	0x3e43bafa	0.19114295
70	0xba7ea081	-0.0009713248
71	0xbe425ae6	-0.18979988
72	0xbdb3fd4f	-0.08788549
73	0x26941ae9	1.0276857e-15
74	0x3e03b747	0.12862884
75	0xbe20b31a	-0.15693322
76	0xbe7baaaa	-0.24576822
77	0xbed7f723	-0.42180738
78	0x3e83ac2c	0.25717294
79	0xbdb9c389	-0.090704985
80	0xbdf24deb	-0.11831268
81	0x3d4078a4	0.046990052
82	0xbf0c8727	-0.54893726
83	0xa649bdc9	-6.999309e-16
84	0xa7040a84	-1.832438e-15
85	0xad0d352f	-8.026731e-12
86	0xa9917720	-6.4599584e-14
87	0xac8d695c	-4.0191583e-12
88	0xade0c787	-2.555446e-11
89	0x3d040370	0.03222984
90	0x2a746d9c	2.1709582e-13
91	0x2637d1d7	6.3775265e-16
92	0xa53c0285	-1.6307254e-16
93	0xa5a92585	-2.934225e-16
94	0x2ccb7e67	5.7836405e-12
95	0x235ad930	1.1863795e-17
96	0x3e385f82	0.18005183
97	0x2cc07a75	5.4705637e-12
98	0x27eaa297	6.5124327e-15
99	0xa54d6639	-1.781555e-16
100	0x2699bd88	1.066788e-15
101	0xbe1fac1e	-0.15593001
102	0xa6188350	-5.2913555e-16
103	0x2ab960cd	3.292977e-13
104	0xad5cba5f	-1.2546935e-11
105	0xa70bd394	-1.9404822e-15
106	0xab466b92	-7.0493015e-13
107	0xa433af40	-3.896288e-17
108	0x2e043ad9	3.0065592e-11
109	0xad473198	-1.1322852e-11
110	0xab805bc0	-9.120413e-13
111	0x25802360	2.2228432e-16
112	0x305ab74c	7.956842e-10
113	0x2dad6a8d	1.9715141e-11
114	0xa92b8dfd	-3.8092783e-14
115	0x263ba0c0	6.5096515e-16
116	0x29616ed4	5.0056164e-14
117	0xa3741ad3	-1.3232947e-17
118	0xbbe821ea	-0.007084121
119	0xbdab8e8e	-0.083767995
120	0x3d4e732c	0.050402805
121	0xbec3c356	-0.38234967
122	0xa50c9093	-1.2192048e-16
123	0xa0c7a595	-3.3821484e-19
124	0x2c77e604	3.5228495e-12
125	0x224465f7	2.6616933e-18
126	0xa66b8d94	-8.172388e-16
127	0x26dc55d9	1.5288836e-15
128	0x3da0c3f8	0.07849878
129	0xbdf6866a	-0.12037356
130	0xbe12c856	-0.14334235
131	0xbe97c5ee	-0.29643196
132	0x2104c2b3	4.498102e-19
133	0x23fc49be	2.7353126e-17
134	0xa7053c8e	-1.8490285e-15
135	0xbf09cb55	-0.53825885
136	0x2aed5848	4.2160915e-13
137	0xbdd574ff	-0.10422706
138	0x3cb95356	0.022622745
139	0xbd6ae3bc	-0.05734609
140	0xa278e6ac	-3.3732384e-18
141	0xa8b05c1b	-1.957987e-14
142	0x3e0b8808	0.1362611
143	0xbd090421	-0.033451203
144	0x3da9bfb1	0.08288515
145	0x3da9c7bd	0.0829005
146	0x3d661137	0.05616876
147	0xa608583e	-4.730407e-16
148	0x3e067e36	0.13134083
149	0x3e1227ab	0.14272945
150	0x3ea8e019	0.32983473
151	0xbe8ca7dc	-0.27471817
152	0xbcb27853	-0.02178589
153	0xbd013e04	-0.031553283
154	0xbe0d6358	-0.13807428
155	0x3e6a8b33	0.22904663
156	0xbc1369b0	-0.008997366
157	0xab7caf8b	-8.9772e-13
158	0x2a43abf5	1.7379139e-13
159	0xa5839df6	-2.2831916e-16
160	0xaabed7a8	-3.3900422e-13
161	0xa6c5cc2e	-1.3724964e-15
162	0x26bcf8dd	1.3112575e-15
163	0xbd79b006	-0.060958885
164	0xa29b51b0	-4.2099324e-18
165	0x9fe7ed07	-9.8224434e-20
166	0xa76e21de	-3.3047494e-15
167	0xa4e44771	-9.9000265e-17
168	0x268e0f46	9.857369e-16
169	0xa57f6116	-2.2150618e-16
170	0x3e08817a	0.13330641
171	0x2d685ec0	1.3208712e-11
172	0x283c9a5d	1.0469569e-14
173	0xa3d6a9cf	-2.3273843e-17
174	0xa54d900a	-1.7829718e-16
175	0xbd325bcb	-0.04354457
176	0x22687332	3.1502847e-18
177	0x270735c9	1.876417e-15
178	0xa6ab2ea8	-1.1878155e-15
179	0xa609c716	-4.7801235e-16
180	0xa78f26c4	-3.9732503e-15
181	0x294d1ab9	4.5542322e-14
182	0xa58566d0	-2.314149e-16
183	0xab8c3f99	-9.96525e-13
184	0xa956d914	-4.770583e-14
185	0x26e58252	1.592539e-15
186	0x2c013eab	1.836679e-12
187	0x1fb7d9dc	7.786393e-20
188	0x24d2da49	9.144277e-17
189	0x2c0dff33	2.017897e-12
190	0x26fd7a2b	1.7588515e-15
191	0xa926f008	-3.70676e-14
192	0x3e7da609	0.24770369
193	0xbe97aafc	-0.29622638
194	0x3e025069	0.12725987
195	0xbd2ae17c	-0.041718945
196	0x2b7963cc	8.8601067e-13
197	0xb589f183	-1.0277585e-06
198	0x2802e090	7.265144e-15
199	0x2b0f75e1	5.0967395e-13
200	0x25af67ab	3.042791e-16
201	0xaacc84e4	-3.632989e-13
202	0x3e4f997c	0.20273393
203	0xbd4db123	-0.05021776
204	0xbc684953	-0.014177638
205	0x3dab80b1	0.08374155
206	0xa602deff	-4.5405026e-16
207	0x2c1d1d3d	2.2327272e-12
208	0xad716f3d	-1.3723964e-11
209	0xbc5a26fc	-0.013314959
210	0xa651a474	-7.2734317e-16
211	0x3d55ba4f	0.05217963
212	0xbd8555a3	-0.065104745
213	0xbe2ec115	-0.17065842
214	0x2c23b702	2.3265283e-12
215	0xa53166b4	-1.53871e-16
216	0xbd8a0e7a	-0.067410424
217	0xbea7eaeb	-0.32796416
218	0xbe5bf3ec	-0.21479768
219	0xbe5584d9	-0.20851459
220	0xbdf4baf5	-0.11949722
221	0x2534d077	1.5683142e-16
222	0x3e13cdaf	0.14433931
223	0x3ec782c8	0.38966966
224	0xbd977cfb	-0.07396885
225	0x3eb0a289	0.34499004
226	0x3dc364f1	0.095407374
227	0x3ee0a941	0.4387913
228	0x3e3b1196	0.18268427
229	0xbdbf778a	-0.09348972
230	0xbdc0ec9a	-0.09420128
231	0xa4cb852a	-8.8262805e-17
232	0xac538c02	-3.0062623e-12
233	0xacf721ec	-7.0239283e-12
234	0x272540b0	2.2933417e-15
235	0xa7722b83	-3.3607834e-15
236	0x2afec450	4.5255683e-13
237	0x3eb1e5ea	0.34745723
238	0xa52b7a73	-1.4873373e-16
239	0x25b47ba6	3.130881e-16
240	0x2a1de24d	1.4022915e-13
241	0xa94c80e7	-4.5408904e-14
242	0x2b7b41c4	8.926438e-13
243	0xa2902eff	-3.9081037e-18
244	0x3e814f1a	0.25255662
245	0xa6a1c053	-1.1223749e-15
246	0x2b53b678	7.5215485e-13
247	0x26a6388c	1.1533891e-15
248	0xa662d79f	-7.870172e-16
249	0xbea2f5c1	-0.3182812
250	0xaf03e986	-1.1997345e-10
251	0x27a37c01	4.5376034e-15
252	0x22b51eff	4.9092967e-18
253	0x22ddac92	6.0084886e-18
254	0x2c25e044	2.3572403e-12
255	0xa5b47edd	-3.1310988e-16

gats.gnn_layers.1.gat_conv.attn_l f4 [1, 4, 14]
0	0xbeb32caa	-0.34995013
1	0xbe7e3a6e	-0.24826977
2	0xbe6a529c	-0.22883075
3	0x3e2dea2a	0.16983858
4	0xbe84161e	-0.25798124
5	0x3d35b259	0.04435954
6	0x3c485a3a	0.012228543
7	0x3be6bc7a	0.007041511
8	0x3ef306ec	0.47466218
9	0xbf057824	-0.52136445
10	0x3e33a59b	0.17543642
11	0xbda9b6e0	-0.08286834
12	0x3e7e48cc	0.24832457
13	0x3d55202f	0.052032646
14	0xbdef7fe1	-0.11694313
15	0x3e30ffe3	0.17285113
16	0x3e0c300f	0.13690208
17	0xbc743bef	-0.014906867
18	0xbe9a099f	-0.30085465
19	0x3ece8c42	0.40341383
20	0xbf0f6681	-0.56015784
21	0xbd9d2638	-0.07673305
22	0x3d44b794	0.048026636
23	0xbe5be527	-0.21474133
24	0xbf1629ac	-0.58657336
25	0x3e74d955	0.2391103
26	0x3e912cb9	0.28354433
27	0xbf117f12	-0.5683452
28	0x3e02267b	0.12709992
29	0xbe40da39	-0.18833245
30	0xbebbd4cf	-0.36685798
31	0x3c30363c	0.010755118
32	0x3b5aa510	0.0033362545
33	0xbdd321a3	-0.1030915
34	0xbda47e42	-0.08031894
35	0x3db665ee	0.0890616
36	0xbd5eb567	-0.054372218
37	0x3e646758	0.22305048
38	0xbed70b23	-0.42000684
39	0xbe0b37d4	-0.13595515
40	0x3df6da7b	0.120533906
41	0x3eff0ee0	0.49816036
42	0x3e9ba9bc	0.30402935
43	0x3d1f0d77	0.0388312
44	0xbecae34c	-0.3962654
45	0xbe8b3786	-0.271908
46	0x3f2e4171	0.68068606
47	0x3ee85a3e	0.4538135
48	0x3ccdeb3d	0.025136584
49	0x3d62ac42	0.05534006
50	0x3db5e251	0.08881057
51	0x3cb7f1fe	0.022454258
52	0x3db4e366	0.08832435
53	0x3d98fe62	0.07470395
54	0x3d8959b6	0.06706564
55	0x3f4df7d2	0.8045627

gats.gnn_layers.1.gat_conv.attn_r f4 [1, 4, 14]
0	0xbe2d6c8e	-0.16935942
1	0x3eb64f70	0.3560748
2	0x3d39e362	0.045382865
3	0xbf0387b0	-0.5137892
4	0xbe90f27b	-0.28309998
5	0x3be2b010	0.006917961
6	0xbd5d0777	-0.053962197
7	0x3e5acd9a	0.21367493
8	0xbe1a36a8	-0.15059912
9	0x3be0b890	0.006857939
10	0x3dc8098a	0.097674444
11	0x3e8ec2a3	0.2788287
12	0x3eafb583	0.3431817
13	0xbc361ca2	-0.011115225
14	0xbdde8ea1	-0.10867048
15	0xbdbef2ff	-0.093236916
16	0xbe9e771c	-0.30950248
17	0xbf01c10d	-0.506852
18	0xbe351c19	-0.176865
19	0xbdf89468	-0.12137681
20	0x3e404888	0.18777668
21	0x3cbe3b80	0.023221731
22	0x3ee538ac	0.447698
23	0xbe3a198c	-0.18173808
24	0xbdcc6480	-0.09980106
25	0xbe8f3cf9	-0.27976206
26	0x3dd26519	0.10273189
27	0xbe374e85	-0.17901047
28	0x3eca4cf9	0.3951185
29	0xbcbcaaca	-0.023030657
30	0x3f1f0ab4	0.62125707
31	0xbec3c361	-0.38235
32	0x3d70ddc0	0.058805227
33	0xbd6756c0	-0.056479216
34	0xbedbd137	-0.42933056
35	0xbeca1679	-0.3947027
36	0xbd3bed33	-0.045880508
37	0x3eb79bf9	0.35861185
38	0xbda8aab4	-0.08235684
39	0x3df5ceb5	0.12002317
40	0xbec6682e	-0.38751358
41	0x3e86a613	0.2629858
42	0x3ce0e5d9	0.02745335
43	0x3da82568	0.0821026
44	0x3e7e3e4f	0.24828456
45	0xbe30cd2d	-0.17265768
46	0x3d838106	0.06421094
47	0x3e2e3bb8	0.17014968
48	0xbcc7c37c	-0.024385206
49	0xbe8b0a55	-0.2715632
50	0xbe8d4cea	-0.27597743
51	0xbe8bdf28	-0.27318692
52	0x3b150654	0.0022739368
53	0xbe8d1193	-0.2755247
54	0x3e0e72da	0.13911
55	0x3cd2b52b	0.025721153

gats.gnn_layers.1.gat_conv.fc.weight f4 [56, 56]
0	0xbd04cecb	-0.032423776
1	0x3dd3d923	0.1034415
2	0xbeb726c7	-0.35771772
3	0xbe58ee76	-0.21184716
4	0xbcfc9c6a	-0.030836303
5	0x3dc0d6a4	0.094159395
6	0xbd06d1bd	-0.032914866
7	0xbd88adb4	-0.06673756
8	0x3e89dc47	0.2692587
9	0xbdb1fba2	-0.08690573
10	0x3d308d6b	0.043103617
11	0x3de2bae6	0.11070804
12	0xbe5159be	-0.2044439
13	0xbec7d653	-0.39030704
14	0x3d228254	0.03967507
15	0x3c8eb3b7	0.01741968
16	0x3e558210	0.20850396
17	0x3eb6cd3d	0.3570346
18	0x3d794ad8	0.060862392
19	0xbcc16898	-0.023609444
20	0x3d0db70a	0.034598388
21	0xbaae4076	-0.0013294357
22	0x3e826b26	0.25472373
23	0xbe8b18b5	-0.27167287
24	0x3d535202	0.05159188
25	0x3e8786e6	0.26470107
26	0xbcae3364	-0.02126474
27	0x3e958e86	0.292103
28	0x3e18b52c	0.14912862
29	0xbe9403b7	-0.28909084
30	0x3e91c0f1	0.28467515
31	0x3e4d015a	0.20020047
32	0x3d60c919	0.05487928
33	0xbe5710e2	-0.21002534
34	0x3d451802	0.0481186
35	0xbe2ef8d1	-0.17087103
36	0xbe0e63f7	-0.13905321
37	0xbe01a313	-0.12659864
38	0xbc882cfc	-0.016623013
39	0x3ec75802	0.38934332
40	0xbdeced0f	-0.11568653
41	0xbdc1cd64	-0.09463003
42	0x3b26457e	0.002537101
43	0x3d6a7a89	0.057245765
44	0x3e262abf	0.16227244
45	0xbe04ecf4	-0.12981015
46	0x3ec83374	0.39101756
47	0xbe048ffd	-0.12945552
48	0xbe0c69ee	-0.13712284
49	0xbebc45ab	-0.36771902
50	0x3f105c26	0.5639061
51	0xbdb29687	-0.08720117
52	0x3e1d8e5f	0.15386342
53	0xbe04b9b2	-0.12961462
54	0xbc9735e9	-0.018458324
55	0x3e7b67e7	0.24551354
56	0xbea8bb3e	-0.32955354
57	0x3d6ca395	0.05777319
58	0xbe46f300	-0.19428635
59	0x3da211be	0.0791354
60	0x3d738951	0.059457127
61	0xbc05a69d	-0.0081573995
62	0x3e11c23a	0.14234248
63	0x3e516a53	0.20450716
64	0xbd3fa44a	-0.046787538
65	0xbd9751af	-0.07388627
66	0x3da74551	0.08167518
67	0x3e0e6d09	0.13908781
68	0xbd2dab73	-0.042399835
69	0xbd1b9583	-0.037984382
70	0xbe6767f6	-0.22598252
71	0xbebd79e5	-0.3700706
72	0xbe5cb6c0	-0.21554089
73	0xbe0673d7	-0.13130127
74	0xbe45cddc	-0.1931681
75	0xbdc5e13a	-0.09662099
76	0xbd341e1e	-0.043974034
77	0xbe8b4a2d	-0.2720503
78	0x3daeeecc	0.08541641
79	0xbb9a595d	-0.00471036
80	0xbc3bb485	-0.011456613
81	0x3e16f970	0.1474359
82	0xbe5eb293	-0.21747808
83	0xbe9ed11b	-0.3101891
84	0x3bb9d2b5	0.00567087
85	0x3e456188	0.19275486
86	0x3ce4d6c4	0.02793444
87	0x3e98fe4e	0.2988152
88	0xbebee063	-0.37280568
89	0xbda598e8	-0.08085805
90	0xbe39031d	-0.18067594
91	0x3e258e18	0.16167486
92	0x3c9a54f5	0.018839339
93	0xb8bc7ad8	-8.98742e-05
94	0xbded76ae	-0.11594902
95	0x3ea358c7	0.3190367
96	0x3daaa640	0.08332491
97	0x3eacb8d5	0.33734766
98	0xbe1fed3c	-0.15617841
99	0x3e04b6a6	0.129603
100	0xbe049269	-0.12946476
101	0xbdc2cf60	-0.0951221
102	0xbd89112d	-0.06692729
103	0xbc223446	-0.009900158
104	0x3d06569a	0.032797433
105	0x3d0d6fcf	0.034530457
106	0x3e008091	0.12549044
107	0xbd868572	-0.065684214
108	0xbb907a85	-0.0044091367
109	0x3ddd8c69	0.10817797
110	0xbe5efba7	-0.21775685
111	0x3de7c647	0.11317115
112	0x3d136f08	0.03599456
113	0x3e8d7ec0	0.27635765
114	0x3d8d68d6	0.069047615
115	0x3de55d34	0.11199418
116	0x3e95bbcb	0.29244837
117	0x3d9f4f2e	0.07778774
118	0xbd8147b8	-0.063125074
119	0xbe207c00	-0.15672302
120	0xbe4326e9	-0.19057812
121	0x3d9c34bc	0.07627246
122	0xbe914601	-0.2837372
123	0xbda1adfd	-0.07894514
124	0xbe88c12f	-0.26709887
125	0x3c637301	0.0138824
126	0xbe752fe1	-0.23944046
127	0x3d75e83e	0.060035937
128	0x3da8a42d	0.08234439
129	0xbcbd69c1	-0.023121716
130	0x3d3dc487	0.04633
131	0xbd5fd87d	-0.05464982
132	0x3ef50546	0.47855586
133	0x3eb9f7ea	0.36321956
134	0xbdd2b773	-0.102888964
135	0x3ee060ae	0.4382376
136	0xbd31aba0	-0.043376565
137	0xbdf59139	-0.1199059
138	0xbe4e8a66	-0.20169982
139	0xbe41d76b	-0.18929832
140	0x3ea66c99	0.32504728
141	0x3d99d508	0.075113356
142	0xbe80e569	-0.25175026
143	0xbe0c303d	-0.13690276
144	0xbedf422f	-0.43605182
145	0xbcedcdbe	-0.02902877
146	0x3c844dd5	0.016150394
147	0x3e946c47	0.2898886
148	0xbcee11a2	-0.029061142
149	0xbe2f3e0e	-0.17113516
150	0xbbb7130e	-0.0055869883
151	0x3d6cf655	0.057852108
152	0xbdda05e5	-0.106456555
153	0xbec5219e	-0.3850221
154	0x3c53a150	0.012916878
155	0xbdd234e1	-0.10263992
156	0xbec07db4	-0.37595904
157	0x3dddf1b3	0.10837116
158	0x3e899f53	0.26879367
159	0xbd443ab3	-0.047907542
160	0x3e4bd978	0.19907176
161	0xbe038e5a	-0.12847272
162	0xbd442e46	-0.047895692
163	0x3dbe931e	0.09305404
164	0xbe8297ed	-0.25506535
165	0x3ea05e9c	0.3132218
166	0xbededd86	-0.43528384
167	0xbd8c453e	-0.068491444
168	0x3ea4be48	0.32176423
169	0x3e3af4eb	0.18257491
170	0xbe923cb6	-0.28561944
171	0xbdc59f99	-0.096495815
172	0x3e825e02	0.25462347
173	0x3d997b23	0.074941896
174	0x3db37dca	0.08764227
175	0xbe1632f6	-0.14667878
176	0x3ea30688	0.3184092
177	0x3db19334	0.08670655
178	0x3eb2fe2d	0.34959546
179	0x3e898d14	0.26865447
180	0xbde2a276	-0.11066143
181	0xbd92cf58	-0.07168454
182	0xbdcf0b25	-0.101095475
183	0xbded9571	-0.11600769
184	0x3efad800	0.4899292
185	0x3e5d12c9	0.21589197
186	0xbd43d272	-0.04780812
187	0xbe073a32	-0.13205793
188	0xbb3bc38d	-0.0028650493
189	0xbdb738ad	-0.08946357
190	0x3e3654c8	0.17805779
191	0x3e6f6e65	0.23381956
192	0xbea3690a	-0.31916076
193	0xbbe8f14a	-0.007108842
194	0xbe430002	-0.19042972
195	0x3e380c71	0.17973496
196	0x3dccbbf2	0.09996785
197	0xbe80a17d	-0.25123206
198	0x3df09c75	0.11748592
199	0x3cddd94b	0.027081152
200	0xbe775546	-0.24153623
201	0xbc259ef8	-0.010108702
202	0x3e04a11f	0.12952088
203	0xbe75e90c	-0.24014682
204	0xbe8bb5a0	-0.27287006
205	0x3dbe593a	0.09294362
206	0xbde48f3b	-0.111601315
207	0xbe4a3799	-0.19747771
208	0x3e17370d	0.14767094
209	0x3e5c7024	0.21527153
210	0x3d18d39e	0.03731119
211	0xbe241888	-0.16024983
212	0xbe5880f9	-0.21142949
213	0x3e5be4b4	0.21473962
214	0xb9835527	-0.0002504971
215	0x3dea8867	0.11451798
216	0x3eb0fa16	0.345658
217	0x3e02ec69	0.12785496
218	0xbe925611	-0.28581288
219	0xbc0243d7	-0.007950745
220	0xbe729cfb	-0.23692696
221	0xbdf97da3	-0.121821664
222	0x3e740619	0.23830451
223	0xbed9a9f4	-0.42512476
224	0x3d0ccd46	0.03437545
225	0xbde4b958	-0.11168164
226	0xbda1e0b5	-0.079041876
227	0xbcd7cac1	-0.026341798
228	0x3d91a332	0.07111205
229	0xbeb21f7a	-0.3478964
230	0x3e8c944a	0.27456886
231	0x3d22353f	0.03960156
232	0x3eacbc76	0.33737534
233	0xbe05070a	-0.12990966
234	0x3dd05291	0.10171998
235	0x3e610fb7	0.21978651
236	0x3cf33fba	0.029693473
237	0xbde96695	-0.11396519
238	0xbe3935d0	-0.18086934
239	0xbed94e46	-0.4244253
240	0xbd75775b	-0.05992828
241	0xbe4e756f	-0.20161985
242	0xbe496077	-0.19665705
243	0x3eb9c22c	0.36280954
244	0x3ec80da4	0.39072907
245	0x3f342e2a	0.7038294
246	0xbdeb40df	-0.114869826
247	0x3d1f9c98	0.0389677
248	0xbeb34527	-0.35013697
249	0x3d302283	0.043001663
250	0x3ee4967c	0.4464606
251	0x3ebfb729	0.37444428
252	0x3e05851b	0.13039057
253	0x3ce2bc94	0.027677812
254	0x3e458817	0.19290195
255	0xbe0cb268	-0.13739932

gats.gnn_layers.1.gat_conv.res_fc.weight f4 [56, 56]
0	0xbe9fd855	-0.31219736
1	0x3e0b00dc	0.13574547
2	0x3d9a4198	0.07532042
3	0xbe943cc4	-0.2895261
4	0x3d96392a	0.07335122
5	0x3dfaa295	0.12238041
6	0x3de92972	0.11384858
7	0xbcecce0d	-0.028906846
8	0xbc9f96f0	-0.019481152
9	0xbe641254	-0.22272617
10	0xbdbb1cee	-0.09136377
11	0x3cc2df28	0.02378805
12	0xbe6e08e5	-0.2324558
13	0xbdd46cb5	-0.10372297
14	0x3cba337e	0.022729632
15	0xbd576353	-0.052584957
16	0xbc9073a8	-0.017633274
17	0xbe631955	-0.22177632
18	0x3e88b8d5	0.26703516
19	0xbe85a834	-0.2610489
20	0xbda1ae6c	-0.078945965
21	0xbeb37dc1	-0.3505688
22	0x3e432b3c	0.19059461
23	0x3dd56707	0.104200415
24	0xbec13331	-0.37734368
25	0x3db5d06b	0.08877643
26	0xbea0536f	-0.31313655
27	0xbdc61a62	-0.09673001
28	0xbdcec921	-0.10096956
29	0x3dc262bb	0.094914876
30	0xbd40b0dd	-0.04704367
31	0xbe657408	-0.22407544
32	0x3e12f628	0.14351714
33	0x3e1de46a	0.15419164
34	0xbd28259a	-0.041051485
35	0x3e91cce0	0.2847662
36	0x3d87ba24	0.066273004
37	0xbd0a8e8b	-0.033827346
38	0xbdc019e3	-0.093799375
39	0xbda70069	-0.08154375
40	0x3b4a0420	0.0030825213
41	0x3ddfab75	0.10921375
42	0x3e0d2a50	0.13785672
43	0xbedfdddd	-0.43723956
44	0x3e925d5e	0.2858686
45	0x3dde33cb	0.108497225
46	0x3d5e888f	0.05432945
47	0x3e70cab3	0.23514824
48	0x3d05d972	0.032678075
49	0xbd2438ff	-0.04009342
50	0x3da8488a	0.08216961
51	0x3d197a08	0.037469894
52	0x3ddbfd1a	0.10741635
53	0xbe374b1a	-0.17899743
54	0xbd99fc0b	-0.075187765
55	0x3eeb5f9a	0.45971376
56	0x3db99647	0.09061866
57	0xbd8aae9f	-0.067715876
58	0xbc856030	-0.016281217
59	0xbd41f38e	-0.047351412
60	0x3e00d471	0.1258104
61	0xbd66be78	-0.05633399
62	0x3e242371	0.16029145
63	0xbadac57a	-0.0016690933
64	0x3e2c18ad	0.16806288
65	0xbe14bf8b	-0.14526193
66	0x3da59d33	0.08086624
67	0x3e571f31	0.21007992
68	0x3e785dbf	0.24254511
69	0xbe527509	-0.20552458
70	0x3e416274	0.18885213
71	0x3e89ac2c	0.2688917
72	0xbe5132e9	-0.20429577
73	0x3e1ad72c	0.15121144
74	0xbe804b8f	-0.25057647
75	0xbe2f05ac	-0.17092007
76	0xbd9396e8	-0.072065175
77	0xbe50dc5d	-0.20396562
78	0xbde52a93	-0.11189761
79	0xbec5d1d4	-0.3863665
80	0xba9f722d	-0.0012164764
81	0x3e9b8a94	0.30379164
82	0x3dc1f0da	0.09469767
83	0x3ebfc785	0.3745691
84	0xbd5e3124	-0.054246083
85	0xbe1b837f	-0.1518688
86	0x3c330dcb	0.0109285815
87	0x3ebd2ee9	0.36949852
88	0x3e386424	0.1800695
89	0xbe52e245	-0.20594127
90	0x3e24d299	0.16095962
91	0x3cc30c2f	0.02380952
92	0x3d084e28	0.03327766
93	0x3e4fe86a	0.20303503
94	0x3b9d334a	0.004797374
95	0xbda59c32	-0.080864325
96	0x3d08b968	0.033379942
97	0xbe83dafc	-0.2575301
98	0x3d951198	0.07278746
99	0x3c6f414a	0.0146029685
100	0xbe1e8476	-0.15480217
101	0x3dad71b4	0.08468953
102	0xbd2cfe51	-0.042234723
103	0x3e60c960	0.21951818
104	0xbc4b5872	-0.012411224
105	0xbdf84531	-0.12122572
106	0xbd278e4b	-0.040907186
107	0x3c81e332	0.015855405
108	0x3da530be	0.080659375
109	0xbe9eb421	-0.30996802
110	0xbe9c2e4d	-0.30504075
111	0xbcfcd945	-0.030865321
112	0xbc26bb01	-0.010176421
113	0x3cd3f516	0.025873702
114	0xbd3fdbe2	-0.046840556
115	0x3ede8ba3	0.4346591
116	0x3e8614f8	0.26187873
117	0xbd86578f	-0.06559669
118	0x3d4c24c7	0.04983976
119	0xbd957f24	-0.07299641
120	0xbdea56ba	-0.11442323
121	0x3e5d2be0	0.21598768
122	0x3d2e76e6	0.04259386
123	0xbd9840ef	-0.0743426
124	0x3ddb6a10	0.10713589
125	0xbde61fbf	-0.11236524
126	0x3dc68de5	0.09695033
127	0xbea8a5a3	-0.3293887
128	0x3e89210c	0.26783025
129	0xbd9cbd2c	-0.07653269
130	0xbeeb581a	-0.45965654
131	0xbe34a70b	-0.17641847
132	0xbe26be6c	-0.16283578
133	0x3e8ab84f	0.2709374
134	0x3cc6d8e8	0.02427335
135	0x3d9d5421	0.07682062
136	0xbedf7c8d	-0.43649712
137	0x3e7f048e	0.24904081
138	0xbc107ef4	-0.0088193305
139	0xbe42688b	-0.18985192
140	0x3eb8cffa	0.36096174
141	0x3d28b2cc	0.04118614
142	0xbea9e902	-0.33185583
143	0x3e4267d6	0.18984923
144	0x3d874878	0.06605619
145	0xbed89c12	-0.42306572
146	0xbcf4075b	-0.029788664
147	0xbbedfaad	-0.007262549
148	0x3dd53e50	0.10412276
149	0xbd6ade4d	-0.05734091
150	0xbdf9caa4	-0.12196854
151	0xbd264e09	-0.040601764
152	0x3c9a8ade	0.018865045
153	0x3e3d03e6	0.18458518
154	0x3e65b823	0.22433524
155	0xbe07d5c2	-0.13265136
156	0xbdbe0fca	-0.09280355
157	0x3dae3aa9	0.08507282
158	0xbe55f4ec	-0.20894212
159	0xbd109068	-0.035293967
160	0x3ddaf69b	0.106915675
161	0x3e528c31	0.20561291
162	0xbd46d2a1	-0.048540715
163	0x3e3cf2fc	0.18452066
164	0x3e0a04fa	0.13478461
165	0xbe3fbf72	-0.18725374
166	0x3eb2343f	0.34805486
167	0xbd82b89e	-0.06382869
168	0x3bd3eb0b	0.0064672283
169	0x3d9955e3	0.07487085
170	0x3ef51692	0.47868782
171	0xbe639a53	-0.22226839
172	0x3d931f75	0.07183734
173	0x3d5bec44	0.053692117
174	0xbd5be1c2	-0.053682096
175	0x3daa6b12	0.08321203
176	0xbc666d21	-0.014064104
177	0xbe9cc03a	-0.30615407
178	0xbe2526d6	-0.16128096
179	0x3d228b49	0.039683614
180	0x3ea35036	0.31897134
181	0xbdd90010	-0.10595715
182	0xbe6159b6	-0.22006878
183	0xbd8e3e92	-0.06945528
184	0xbe400d12	-0.18754986
185	0xbe02cfe1	-0.12774612
186	0xbe3669e9	-0.17813839
187	0x3c592c34	0.013255168
188	0xbd1744b2	-0.036930747
189	0x3e636c86	0.22209367
190	0xbdf2d8b1	-0.11857737
191	0x3e31529b	0.17316668
192	0x3e31383b	0.17306606
193	0x3d187145	0.037217397
194	0x3e947660	0.28996563
195	0x3dcaef16	0.09908883
196	0xbe903dfb	-0.28172287
197	0x3e03a12a	0.12854448
198	0x3d80d8a0	0.06291318
199	0xbddba158	-0.10724133
200	0xbc21740c	-0.009854328
201	0xbe9f38de	-0.31098074
202	0x3d2fc1fe	0.042909615
203	0xbe0e08af	-0.138705
204	0x3e7ef99e	0.24899909
205	0x3d8c8931	0.06862105
206	0x3d8fd712	0.07023443
207	0x3ebaf1bb	0.3651255
208	0x3e91f27e	0.2850532
209	0xbd261601	-0.04054833
210	0xbe2b4b40	-0.16727924
211	0x3eacfe4e	0.3378777
212	0x3d314110	0.04327494
213	0xbd697ab4	-0.057001784
214	0x3da60118	0.08105677
215	0xbb4090dc	-0.0029383218
216	0xbe68498c	-0.22684306
217	0xbddfb394	-0.10922924
218	0xbe705ebe	-0.23473641
219	0x3da378a6	0.07981996
220	0xbdb1f49d	-0.086892344
221	0x3d5834d7	0.052784767
222	0x3e2b16f8	0.1670798
223	0x3e9d4086	0.3071329
224	0x3e07324e	0.13202783
225	0xbe90e56b	-0.28300032
226	0x3dc6a0f0	0.09698665
227	0xbe4b4ef2	-0.19854334
228	0x3e64de32	0.22350386
229	0xbe0119b0	-0.12607455
230	0x3d4c118a	0.049821414
231	0xbe0434e7	-0.12910806
232	0x3e032d5c	0.12810272
233	0xbbc2864b	-0.005936419
234	0xbe36aaf8	-0.17838657
235	0x3e19c9a8	0.15018332
236	0xbd9484af	-0.0725187
237	0x3ea5cd14	0.32383025
238	0xbcb39acd	-0.0219244
239	0xbe82664c	-0.2546867
240	0x3e8b32bb	0.27187142
241	0x3c71ec96	0.014765879
242	0x3e404ae8	0.18778574
243	0xbe8ca0fc	-0.2746657
244	0xbe671e9b	-0.22570269
245	0x3f17f37d	0.5935591
246	0x3d176bee	0.036968164
247	0x3e33baf9	0.17551793
248	0xbd8568be	-0.065141186
249	0xbd69b6d4	-0.057059124
250	0xbe129f3e	-0.14318559
251	0x3cd8b986	0.026455652
252	0xbd9d3ddc	-0.07677814
253	0xbddc04b0	-0.107430816
254	0x3e137967	0.1440178
255	0x3e68bac0	0.2272749

gats.gnn_layers.2.gat_conv.attn_l f4 [1, 4, 14]
0	0xbebff597	-0.37492058
1	0xbe71953f	-0.23592089
2	0xbec81e32	-0.39085537
3	0xbf0bac05	-0.54559356
4	0xbebfa8ca	-0.37433463
5	0x3efb45bf	0.4907665
6	0xbe35b12b	-0.17743365
7	0xbc87e2a8	-0.01658757
8	0xbe5bd9a8	-0.21469748
9	0x3e172f8e	0.14764234
10	0xbe809f5b	-0.2512158
11	0x3ce9a92d	0.028523052
12	0x3d0ab80e	0.033866934
13	0x3e2c9618	0.16854131
14	0xbea7043a	-0.32620412
15	0xbe23af43	-0.15984826
16	0xbda4d60d	-0.080486394
17	0x3db6d6e9	0.089277096
18	0xbd87e573	-0.06635561
19	0x3dd78565	0.1052349
20	0x3ee53d5a	0.4477337
21	0x3e88bc5c	0.26706207
22	0x3e114368	0.1418587
23	0xbf387bab	-0.720637
24	0xbe650e5f	-0.22368763
25	0x3c153ecf	0.009109213
26	0x3d81e0d1	0.063417085
27	0x3e1fe83a	0.15615931
28	0x3dc734ff	0.09726905
29	0xbedcb626	-0.43107718
30	0x3ddd582e	0.108078346
31	0xbd4f95b6	-0.050679885
32	0x3cd7f75d	0.02636307
33	0xbe81d879	-0.25360468
34	0xbefc6276	-0.4929387
35	0xbb8bcaf0	-0.0042661354
36	0xbe06561e	-0.13118789
37	0x3d87ee8c	0.06637296
38	0xbcdc369d	-0.02688151
39	0xbe6e05b5	-0.23244365
40	0xbd80d04f	-0.06289732
41	0xbf0e8afa	-0.5568081
42	0x3e9f8d77	0.31162617
43	0xbd89587b	-0.067063294
44	0xbdc13dba	-0.094356015
45	0xbdb265d5	-0.08710829
46	0x3db35b05	0.08757595
47	0xbf07bab9	-0.5301929
48	0x3d93f0f2	0.07223691
49	0xbe6b2a9b	-0.22965471
50	0xbe855d67	-0.26047823
51	0x3d87af9f	0.06625294
52	0xbd0cd071	-0.034378473
53	0xbdb9f74f	-0.090803735
54	0x3ea743f8	0.32669044
55	0xbc131acf	-0.00897856

gats.gnn_layers.2.gat_conv.attn_r f4 [1, 4, 14]
0	0x3f11199e	0.56679714
1	0xbebc8161	-0.36817458
2	0xbce20c7f	-0.02759385
3	0x3e37c212	0.17945126
4	0xbe4e3355	-0.20136769
5	0xbe9f78ca	-0.31146842
6	0xbe81f359	-0.25380972
7	0xbe1c7bee	-0.1528165
8	0xbe3435e0	-0.17598677
9	0x3eaa2619	0.3323219
10	0xbe037af3	-0.1283987
11	0xbf04a900	-0.51820374
12	0x3cce0319	0.025147961
13	0x3ea1bae0	0.31587887
14	0x3eba8c74	0.36435282
15	0x3e6388f7	0.22220217
16	0xbea9975f	-0.331233
17	0x3ea5d16c	0.3238634
18	0x3d161e2a	0.03664986
19	0x3d7fc962	0.062447913
20	0x3ecaea06	0.3963167
21	0x3d5f6c29	0.05454651
22	0xbe891de7	-0.26780626
23	0x3e941d29	0.28928497
24	0xbed92dc8	-0.4241774
25	0xbf13ca93	-0.5773098
26	0x3e6b057d	0.22951312
27	0x3e345778	0.17611492
28	0x3c8e0519	0.017336415
29	0x3ed4b37a	0.4154318
30	0xbd1a8331	-0.03772277
31	0xbe5022cb	-0.20325772
32	0x3eaace73	0.33360633
33	0xbeac61f4	-0.33668482
34	0xbc083ada	-0.008314813
35	0x3e16aa7e	0.14713475
36	0x3ba415a3	0.005007462
37	0xbe5e0da8	-0.21684897
38	0xbe9ae73a	-0.30254537
39	0x3e04e172	0.12976626
40	0xbe466a65	-0.19376524
41	0x3db43388	0.08798891
42	0xbe02e409	-0.12782301
43	0xbe6de2ba	-0.2323102
44	0xbd25e36d	-0.040500093
45	0x3d1575e0	0.036489367
46	0xbcea60ad	-0.028610552
47	0x3e7f87e2	0.24954179
48	0xbedad1b9	-0.4273813
49	0x3da631f8	0.081149995
50	0xbc26499e	-0.010149388
51	0xbe9117b1	-0.28338388
52	0xbeb00261	-0.34376815
53	0x3e09d0bd	0.13458534
54	0xbd14d422	-0.036335118
55	0x3e58d2cf	0.21174167

gats.gnn_layers.2.gat_conv.fc.weight f4 [56, 56]
0	0x3f097619	0.5369583
1	0x3db2f264	0.087376386
2	0x3e586377	0.21131693
3	0xbdbb2fd3	-0.09139981
4	0x3f1771ca	0.59158003
5	0xbea63778	-0.32464194
6	0x3ed017ee	0.40643257
7	0xbd2e70c2	-0.042588003
8	0x3dbac87c	0.091202706
9	0xbe40656b	-0.18788688
10	0xbd638a2c	-0.055551693
11	0xbe3df42e	-0.18550178
12	0x3e8265fa	0.25468427
13	0xba0ad62c	-0.00052961963
14	0x3c462d87	0.0120958155
15	0x3d88aefc	0.066740006
16	0xbdd2297d	-0.102618195
17	0x3e11549f	0.14192437
18	0x3e693f8f	0.22778152
19	0x3e8fb5b5	0.2806832
20	0x3de01fc5	0.109435596
21	0x3dc19a17	0.094532184
22	0xbe63fd78	-0.2226466
23	0xbe09f339	-0.13471688
24	0xbd88b5b7	-0.06675284
25	0x3e17f35c	0.14838928
26	0xbdb76dd9	-0.08956499
27	0x3e8e9963	0.278514
28	0x3e5e79c2	0.21726134
29	0xbe4913aa	-0.19636407
30	0xbddf6a0a	-0.10908897
31	0xbe0f257d	-0.13979144
32	0xbeca81ff	-0.39552304
33	0xbcdf9ce9	-0.0272965
34	0x3e5f178d	0.21786328
35	0xbb4f187e	-0.0031600292
36	0x3cb2fbe8	0.021848634
37	0x3e46b76d	0.19405909
38	0x3e3523c6	0.17689428
39	0xbea16c76	-0.31528062
40	0x3e6b63ba	0.22987261
41	0xbd42758d	-0.047475386
42	0xbd9930f3	-0.074800394
43	0xbe7396f4	-0.23788053
44	0x3e37af46	0.17937955
45	0xbeca621f	-0.39527985
46	0x3ce7c3a0	0.028291523
47	0xbece1339	-0.4024904
48	0x3da35504	0.079752
49	0x3e625d7d	0.22105975
50	0xbd4cf73d	-0.050040472
51	0xbe1e5b1f	-0.15464447
52	0x3e62c77d	0.22146411
53	0x3dd6d7a7	0.10490351
54	0xbe502593	-0.20326833
55	0x3e86d476	0.2633397
56	0xbe5a45ea	-0.21315733
57	0x3d1d65d3	0.038427185
58	0x3dec5288	0.11539179
59	0x3e625399	0.22102202
60	0xbc535aa5	-0.012900029
61	0xbe5166d9	-0.2044939
62	0x3ecaa568	0.3957932
63	0xbdc51a55	-0.09624163
64	0x3e1954e3	0.14973788
65	0xbe81cec9	-0.25353077
66	0xbe0c8eb0	-0.13726306
67	0xbe069d28	-0.13145888
68	0x3d00e043	0.031463873
69	0xbd99c957	-0.07509106
70	0x3e90204a	0.28149635
71	0xbea03333	-0.31289062
72	0xbe30e3ca	-0.17274395
73	0x3d7b0db3	0.06129236
74	0xbd98c8c3	-0.07460167
75	0x3db0df0a	0.08636291
76	0x3e031620	0.12801409
77	0x3d79cb3c	0.060984835
78	0x3b888d9b	0.0041672713
79	0xbe4f8da0	-0.2026887
80	0x3d856303	0.065130256
81	0x3d462b47	0.048381116
82	0xbe1c0e7e	-0.15239903
83	0x3e93196a	0.28730327
84	0xbe6ab0f5	-0.22919066
85	0xbe1f40d2	-0.1555207
86	0x3e772bc5	0.2413779
87	0x3c96dada	0.018414903
88	0x3cd8f61b	0.02648454
89	0x3ead1cd6	0.33811063
90	0xbece9615	-0.40348879
91	0x3e4dd9fc	0.20102686
92	0xbe8d105a	-0.27551538
93	0xbd842309	-0.06451995
94	0xbd2e9399	-0.04262123
95	0xbe5c5c93	-0.2151969
96	0x3dc3ebcc	0.09566459
97	0xbefa5c6c	-0.48898637
98	0x3d51445e	0.05109059
99	0xbe052f47	-0.13006316
100	0x3dfe449f	0.12415432
101	0xbdffbed7	-0.12487572
102	0xbedc5c3a	-0.43039113
103	0x3dfd7337	0.12375491
104	0xbdefdc7d	-0.11711977
105	0xbe852f43	-0.2601262
106	0xbde019d4	-0.10942426
107	0xbd03d31b	-0.032183748
108	0xbe096789	-0.13418402
109	0x3dc18c9c	0.09450647
110	0xbdb47099	-0.08810539
111	0xbe86886c	-0.26275957
112	0xbde78cfb	-0.11306187
113	0xbeac5cbc	-0.336645
114	0x3b5fd98d	0.003415677
115	0x3df13d7a	0.11779304
116	0x3e745bd3	0.23863153
117	0x3e65860d	0.22414418
118	0xbd790acb	-0.06080131
119	0xbdb761b8	-0.08954185
120	0x3c945f48	0.01811184
121	0x3e4e223e	0.2013025
122	0xbe615433	-0.22004776
123	0xbdbf0a3d	-0.09328125
124	0x3d948a8d	0.07252989
125	0x3e0e9221	0.13922931
126	0xbdb8137e	-0.08988093
127	0xbe5a2177	-0.21301828
128	0xbe12d7ca	-0.1434013
129	0x3e171605	0.14754494
130	0xbeb08ea3	-0.34483823
131	0x3cefa5b3	0.029253816
132	0xbd87e160	-0.06634784
133	0xbdb58fdc	-0.088653296
134	0x3e307a6b	0.17234199
135	0x3dcba7f6	0.099441454
136	0x3c0175bd	0.007901606
137	0x3d39f41e	0.045398824
138	0xbdfe7a6a	-0.124256924
139	0x3ea40078	0.32031608
140	0x3c0a12d8	0.008427344
141	0xbe9790d9	-0.29602697
142	0xbc4ba13f	-0.012428581
143	0x3d752ba9	0.05985609
144	0x3e86d241	0.26332286
145	0xbe5163a8	-0.20448172
146	0xbe06f5e4	-0.13179737
147	0xbe189b70	-0.14903045
148	0x3da560e9	0.08075125
149	0x3d9ba392	0.07599558
150	0xbd263d1d	-0.040585626
151	0xbc7bc3ed	-0.015366537
152	0x3d8f92f0	0.07010448
153	0x3d4fbd24	0.050717488
154	0x3e20660f	0.15663932
155	0x3e0dbb0a	0.13840881
156	0xbd97cfbd	-0.0741267
157	0x3d6bcfcb	0.057571214
158	0x3e1c53bf	0.15266322
159	0xbe983516	-0.29728
160	0x3e306671	0.17226578
161	0x3d3450d6	0.044022404
162	0x3de332b2	0.11093654
163	0xbe05260a	-0.13002792
164	0xbdd77c62	-0.10521771
165	0xbefc4605	-0.4927217
166	0x3eb631b4	0.35584795
167	0x3e4beb34	0.19913942
168	0x3e731843	0.23739724
169	0x3dad92de	0.08475278
170	0x3e264b08	0.1623956
171	0xbe1918f0	-0.14950919
172	0x3e1f2a80	0.15543556
173	0xbe7da992	-0.24771717
174	0x3baeca9a	0.0053342106
175	0xbd875d67	-0.06609612
176	0xbdc17cfd	-0.09447668
177	0xbe1a3c37	-0.15062033
178	0x3e6e1318	0.23249471
179	0x3e20600b	0.15661637
180	0xbe26f747	-0.16305266
181	0x3e62df48	0.22155488
182	0xbe47e151	-0.19519545
183	0x3e5ae6c1	0.21377088
184	0x3e8751e0	0.26429653
185	0x3e574cf0	0.21025443
186	0x3e91baff	0.2846298
187	0xbdd18566	-0.10230522
188	0xbe277736	-0.16354069
189	0xbe99329c	-0.29921424
190	0xbe84f9ba	-0.25971776
191	0x3da47ccb	0.08031615
192	0xbe070bab	-0.13188045
193	0xbe79fa94	-0.24411994
194	0x3d0714d6	0.032978855
195	0xbe7a72c8	-0.24457848
196	0x3e877e13	0.26463374
197	0x3e226b18	0.15861166
198	0xbd54c74e	-0.051947884
199	0x3e099e17	0.13439213
200	0x3db05d2f	0.08611523
201	0xbddf6eff	-0.10909843
202	0xbcac6e90	-0.021048814
203	0x3df8834c	0.12134418
204	0x3cc537d3	0.02407447
205	0xbe8f5acf	-0.2799897
206	0x3dd1b714	0.102399975
207	0x3ceda437	0.029008968
208	0xbe704ab6	-0.23466
209	0xbdf40ded	-0.11916719
210	0xbe64cae5	-0.22343023
211	0xbdcbe13a	-0.09955068
212	0x3f151d56	0.5824789
213	0xbddd90bd	-0.10818622
214	0x3da9aec0	0.08285284
215	0x3e53ff98	0.2070297
216	0xbebe52c0	-0.37172508
217	0x3d9dd852	0.077072755
218	0xbe77f54a	-0.24214664
219	0x3d557155	0.052110035
220	0x3da60b2f	0.08107602
221	0xbd408f72	-0.0470118
222	0x3e820dc5	0.2540113
223	0x3d5fb459	0.054615352
224	0x3e51dcf9	0.2049445
225	0xbd1cd754	-0.03829129
226	0x3e1e9372	0.15485933
227	0x3eb092cc	0.34486997
228	0xbe39f943	-0.18161492
229	0xbc9e8748	-0.019351617
230	0x3efa70b3	0.48914108
231	0xbdc28894	-0.094987065
232	0x3d55d0a7	0.05220094
233	0xbe86ef09	-0.26354244
234	0xbe0d7b69	-0.13816608
235	0xbea36bc5	-0.3191816
236	0x3dabc504	0.08387187
237	0xbdb08551	-0.08619178
238	0xbd27edc0	-0.04099822
239	0xbe88823a	-0.26661855
240	0xbe111e42	-0.14171699
241	0x3cb8059b	0.02246361
242	0x3d2ac5e9	0.041692648
243	0x3c959397	0.018258853
244	0x3e0f0196	0.13965449
245	0x3d098670	0.033575475
246	0xbeb1235b	-0.34597287
247	0x3d941243	0.07230046
248	0xbcee001c	-0.029052787
249	0x3d37a51f	0.044835206
250	0x3e51fca4	0.20506531
251	0x3d4c4fb3	0.049880695
252	0x3e30037a	0.17188826
253	0x3e6b7cc2	0.2299681
254	0x3e456898	0.1927818
255	0x3e0c965e	0.13729236

gats.gnn_layers.2.gat_conv.res_fc.weight f4 [56, 56]
0	0xbe88511e	-0.26624388
1	0x3dd8d78c	0.10587987
2	0x3d8deb54	0.06929651
3	0x3efeb6d8	0.49748874
4	0xbdfe35e3	-0.12412622
5	0xbe4961e3	-0.19666247
6	0xbe1043bf	-0.14088343
7	0xbd4c9c77	-0.049953904
8	0x3d1ef105	0.038804073
9	0xbe2e0d03	-0.16997151
10	0x3da5fbd4	0.08104673
11	0xbe05219e	-0.13001105
12	0xbe4cb0d5	-0.19989331
13	0x3d7bbdbb	0.061460238
14	0x3e7b44d3	0.24537973
15	0xbdb8d8bb	-0.09025713
16	0xbe89b482	-0.2689553
17	0x3d9a663b	0.0753903
18	0x3e43342b	0.19062869
19	0x3c27be3a	0.010238225
20	0xbd6cf203	-0.057847988
21	0xbe5833b5	-0.21113475
22	0x3cc6bca7	0.024259878
23	0xbd8f737a	-0.07004447
24	0xbe46b9f6	-0.19406876
25	0xbdfc81a9	-0.12329418
26	0x3dd5470d	0.104139425
27	0x3eefcdf6	0.46836823
28	0x3dded9d2	0.1088139
29	0xbc8bab28	-0.017049387
30	0x3e77215d	0.24133821
31	0x3d96c674	0.07362071
32	0xbe9309bd	-0.28718367
33	0x3e69c6d8	0.22829759
34	0xbdb2dcd0	-0.08733523
35	0xbe1d57d7	-0.1536554
36	0xbe0d1cb9	-0.13780488
37	0xbe6ef36f	-0.2333505
38	0x3e9b347a	0.30313474
39	0xbcad0b63	-0.021123594
40	0x3e3e3e15	0.1857837
41	0xbc676932	-0.014124202
42	0xbd98d7ee	-0.0746306
43	0xbeaf3b5c	-0.34224975
44	0x3f14de24	0.5815146
45	0xbd94e674	-0.07270518
46	0x3e15df1c	0.1463589
47	0xbdf211f8	-0.118198335
48	0xbe0db05c	-0.13836807
49	0xba44cf0d	-0.00075076596
50	0x3d5dcef1	0.054152433
51	0xbea86c13	-0.32894954
52	0xbed7fd01	-0.42185214
53	0xbd1161b8	-0.035493582
54	0xbe136d50	-0.14397168
55	0xbe3f8e6a	-0.1870667
56	0x3dff88aa	0.124772385
57	0xbd83b390	-0.06430733
58	0xbe015d42	-0.12633231
59	0x3dde3155	0.10849253
60	0xbe19097e	-0.14945027
61	0xbe310cd0	-0.17290044
62	0x3e12cc0b	0.14335649
63	0x3d4ee8fa	0.050515153
64	0xbe28bc97	-0.16478191
65	0x3d302312	0.043002196
66	0x3e8b78df	0.27240655
67	0xbe228a1a	-0.15872994
68	0x3d611814	0.054954603
69	0xbe6a0b85	-0.22855957
70	0xbe172d8a	-0.14763466
71	0x3d88a9e8	0.06673032
72	0x3d15e8cd	0.03659897
73	0xbdb60bc6	-0.08888964
74	0x3d9ff7f6	0.07810967
75	0xbc7ccb0f	-0.015429272
76	0xbcafde51	-0.021468313
77	0xbe08e901	-0.13370134
78	0x3db79cf6	0.08965485
79	0xbd90d040	-0.070709705
80	0x3d3735b0	0.044728935
81	0x3e967edd	0.29393664
82	0x3c945141	0.018105151
83	0x3c58a700	0.01322341
84	0x3d0be5d0	0.034154713
85	0xbe383760	-0.17989874
86	0x3d4de6be	0.05026888
87	0xbe0f0cdc	-0.13969749
88	0x3dcb7808	0.099350035
89	0x3d1828a2	0.037148125
90	0xbd0aa149	-0.03384522
91	0xbd5fd49a	-0.054646112
92	0x3dbf8657	0.09351795
93	0xbe42d85b	-0.19027846
94	0x3ddf1c21	0.10894037
95	0x3e084484	0.13307387
96	0xbcc188de	-0.023624834
97	0xbd44df44	-0.048064485
98	0xbe27ec41	-0.16398717
99	0xbcb54324	-0.022126742
100	0x3d9374c9	0.072000094
101	0xbd93d605	-0.07218555
102	0x3ea12dd3	0.31480274
103	0xbc5bd57a	-0.013417596
104	0xbde4997e	-0.11162089
105	0x3e28fb42	0.16502097
106	0xbd2f0804	-0.042732254
107	0xbc6c74db	-0.014432157
108	0xbda1623f	-0.07880067
109	0xbdadda50	-0.084889054
110	0xbe1b2ff4	-0.15155011
111	0x3de28609	0.110607214
112	0x3eae55ad	0.3404974
113	0x3d73c288	0.05951169
114	0xbe4a4b1a	-0.19755211
115	0x3d91f557	0.07126873
116	0xbdadc5b8	-0.084849775
117	0xbe532dac	-0.20622891
118	0x3db31f56	0.08746211
119	0xbc81adc9	-0.015829938
120	0x3dd31345	0.1030641
121	0xbe4e0efe	-0.20122907
122	0x3d659ce5	0.05605783
123	0x3d3dc909	0.0463343
124	0x3e0c9723	0.13729529
125	0x3e386c19	0.18009986
126	0xbdb55f84	-0.08856109
127	0x3f0848d9	0.53236157
128	0xbed0f100	-0.40808868
129	0x3e82a19f	0.25513932
130	0xbd0120da	-0.03152547
131	0xbdccb788	-0.09995943
132	0xbe850221	-0.25978187
133	0x3ed291dd	0.4112691
134	0xbe274ecb	-0.16338651
135	0xbc4457d4	-0.0119838305
136	0x3dd5be00	0.1043663
137	0xbe06d21f	-0.13166092
138	0x3e084562	0.13307717
139	0xbe889265	-0.2667419
140	0x3e80d686	0.25163668
141	0x3ee86405	0.4538881
142	0x3e3e13a5	0.18562181
143	0x3d8922ab	0.066960655
144	0xbd70643d	-0.058689345
145	0x3e42beb2	0.19018057
146	0x3e8e14bf	0.27750203
147	0x3ec18933	0.37799987
148	0x3dd33fdc	0.103149146
149	0x3c9c1fbe	0.019058105
150	0x3e8bf707	0.27336904
151	0xbdf9e21b	-0.12201329
152	0x3e481107	0.19537745
153	0xbda6bea2	-0.08141829
154	0x3e66bade	0.22532222
155	0xbeeb03f4	-0.45901453
156	0xbe01490e	-0.12625524
157	0xbddfe5bf	-0.109324925
158	0x3d6bc4a2	0.05756057
159	0xbd9f2d5d	-0.07772324
160	0x3e43a794	0.19106895
161	0xbe767080	-0.24066353
162	0x3c060e4d	0.0081821205
163	0x3e2419ce	0.16025469
164	0xbcb32579	-0.021868454
165	0x3da22e44	0.07918981
166	0x3e8ff0e5	0.28113475
167	0x3de16dca	0.11007269
168	0x3e4f0fb5	0.20220836
169	0xbe178458	-0.14796579
170	0x3e135717	0.14388691
171	0x3e93b058	0.28845477
172	0x3e50534d	0.20344277
173	0x3e58acaf	0.21159624
174	0xbd04e763	-0.03244723
175	0x3eaf30eb	0.3421701
176	0x3ca6f5ba	0.020380843
177	0x3da03501	0.0782261
178	0xbeb0b53f	-0.3451328
179	0x3da55cad	0.08074317
180	0x3e85dc7c	0.2614478
181	0x3acca5c7	0.001561337
182	0xbefae3fc	-0.49002063
183	0x3df176b1	0.11790217
184	0x3e6305a3	0.22170119
185	0x3d4590d7	0.048233833
186	0x3e58b6c1	0.21163465
187	0x3e185947	0.14877807
188	0x3dd86ba3	0.10567405
189	0x3e36ea86	0.17862901
190	0xbecf51eb	-0.40492186
191	0xbe53cf5a	-0.20684567
192	0xbdef3320	-0.11679673
193	0x3e0b2c2a	0.13591066
194	0x3d40037c	0.046878323
195	0x3e3339dc	0.1750254
196	0x3e4e1b80	0.20127678
197	0xbdb6a29b	-0.08917733
198	0x3cac5d87	0.021040691
199	0xbce2acfa	-0.027670372
200	0x3d044a67	0.032297518
201	0xbe92ab38	-0.28646255
202	0xbd22795a	-0.03966651
203	0xbe5c6f1e	-0.21526763
204	0x3ed9ebf1	0.42562822
205	0xbe4ca115	-0.19983323
206	0x3c7849b8	0.015154295
207	0xbe20b3e6	-0.15693626
208	0x3dca4c9b	0.098778926
209	0x3e387810	0.1801455
210	0xbe2ca2b3	-0.1685894
211	0xbe96f30d	-0.29482308
212	0xbd67cf13	-0.056593966
213	0xbd905752	-0.07047905
214	0xbe95683c	-0.29181087
215	0x3e283141	0.16425039
216	0xbe03f211	-0.1288531
217	0x3dc58ab0	0.09645593
218	0xbdcbd81a	-0.099533275
219	0x3ddaad69	0.106776066
220	0x3ec9ff1c	0.39452446
221	0x3e6cc50e	0.23122045
222	0xbdbe2ef4	-0.09286299
223	0x3e00e5be	0.1258764
224	0x3da6225c	0.08112022
225	0x3e76d5ff	0.2410507
226	0x3d4a3bf2	0.049373575
227	0x3e1aec7e	0.15129277
228	0xbcceaae6	-0.025227975
229	0x3dc93f1e	0.09826492
230	0x3e5c31b2	0.21503332
231	0xbe0ae001	-0.13562013
232	0x3e059365	0.13044508
233	0xbef3cce9	-0.47617272
234	0x3d3ac345	0.04559638
235	0xbc3f48b5	-0.01167505
236	0x3dd9b07f	0.10629367
237	0xbe389299	-0.18024673
238	0xbd94b32e	-0.07260738
239	0xbd85fed9	-0.06542749
240	0xbdde2013	-0.108459614
241	0x3eba3c1e	0.3637399
242	0x3e755cdd	0.23961206
243	0xbd7a8a08	-0.061166793
244	0xbdf1850e	-0.11792956
245	0xbe551065	-0.20807035
246	0xbb874b1e	-0.0041288277
247	0x3e960313	0.2929922
248	0xbe405873	-0.1878374
249	0xbe2b8b55	-0.1675237
250	0xbe83ad54	-0.25718176
251	0xbe3400c2	-0.17578414
252	0xbe5020c7	-0.20325004
253	0xbea885cc	-0.3291458
254	0xbeb4a94f	-0.35285422
255	0x3ee4cf13	0.44689235
